Parameters exploration/M(Red 1, SGD, MSE)/1-SGD-MSE_save.pt (torch, 658183 bytes, 10 tensors)

conv1.weight f4 [32, 1, 3, 3]
0	0xbbeff1f4	-0.007322544
1	0x3ecc5cd8	0.39914584
2	0x3e9195ed	0.28434697
3	0xbc7f9efc	-0.01560187
4	0x3ea965ad	0.33085385
5	0xbe8ef829	-0.27923706
6	0xbe09d37b	-0.1345958
7	0xbd8e2705	-0.06941036
8	0x3e5c73b2	0.2152851
9	0x3ea5f8b0	0.32416296
10	0x3ec1c5b0	0.37846136
11	0x3d7413e0	0.059589267
12	0xbe6873fd	-0.22700496
13	0x3e71e598	0.2362274
14	0x3ea67de2	0.32517916
15	0xbe8ac55d	-0.271037
16	0xbe4d9407	-0.20075999
17	0xbe073713	-0.13204603
18	0xbe7dc33e	-0.2478151
19	0x3d9f9ad2	0.077932015
20	0x3e42c0c0	0.19018841
21	0x3d4aa4a2	0.049473412
22	0x3d8b3c5f	0.06798624
23	0x3e62861a	0.22121468
24	0xbe35f959	-0.177709
25	0xbe529174	-0.20563298
26	0xbe00018b	-0.12500589
27	0x3e038439	0.12843408
28	0xbebb60e0	-0.36597347
29	0xbd207b84	-0.039180294
30	0xbd829e78	-0.06377882
31	0xbe2dee3a	-0.16985407
32	0xbe494487	-0.19655047
33	0x3ece45b0	0.40287542
34	0xbe8f2a4d	-0.2796196
35	0x3e83cde0	0.25743008
36	0x3d6ff78d	0.058585692
37	0x3c6b9fd9	0.014381372
38	0x3caa6728	0.020801142
39	0xbe7b817d	-0.24561115
40	0x3cecfc72	0.028928969
41	0x3c7e04f4	0.015504111
42	0x3e854c48	0.2603476
43	0xbe8771dd	-0.26454058
44	0x3d5fb6c9	0.054617677
45	0x3f34cd46	0.7062572
46	0x3f618a80	0.8810196
47	0x3f3472e6	0.7048782
48	0x3ee6686b	0.4500154
49	0x3f28d3d5	0.6594823
50	0x3e33a2da	0.17542592
51	0x3f1df254	0.6169789
52	0x3ebc4149	0.3676856
53	0x3eef3329	0.4671872
54	0xbe9c6303	-0.3054429
55	0xbdea8eab	-0.11452993
56	0x3e84340d	0.25820962
57	0xbdde03b7	-0.10840552
58	0xbce1b6ac	-0.027552925
59	0xbd06b90f	-0.03289133
60	0xbe0ede5c	-0.13952011
61	0x3deb7f2d	0.11498866
62	0xbdcacf68	-0.09902841
63	0xbec070dd	-0.37586108
64	0x3ea1df60	0.31615734
65	0x3daae51f	0.08344483
66	0xbbb5a72c	-0.00554361
67	0xbe875125	-0.26429096
68	0xbd3b0d0e	-0.045666747
69	0x3ed69143	0.419077
70	0x3ebd340f	0.3695378
71	0x3e808819	0.25103834
72	0x3eee1a4a	0.46504432
73	0xbdd8c0b2	-0.10583629
74	0xbc2a1057	-0.010379872
75	0x3ec1c589	0.3784602
76	0x3e8d8ee2	0.27648073
77	0x3e813317	0.2523429
78	0x3e6966c5	0.2279311
79	0x3ecf18c3	0.4044858
80	0xbe7a8cdc	-0.24467796
81	0x3e0d3029	0.13787903
82	0x3e6b1ffe	0.22961423
83	0x3d85f2f5	0.06540481
84	0xbe7a1d47	-0.24425231
85	0x3e164aa2	0.14676908
86	0xbd920527	-0.07129889
87	0xbe905a74	-0.2819401
88	0xbe200e8c	-0.15630549
89	0x3e7d228d	0.24720211
90	0xbeab7a52	-0.3349176
91	0x3e0d8602	0.13820651
92	0x3e6a9ea6	0.22912082
93	0xbec4dab6	-0.38448113
94	0xbd86d538	-0.06583637
95	0x3eadd0a4	0.33948243
96	0xbeda552f	-0.42643115
97	0x3eaf41be	0.34229845
98	0x3ed2d5c8	0.41178727
99	0x3e862d0c	0.26206243
100	0xbe8fb857	-0.28070328
101	0x3e20c8dd	0.15701623
102	0x3ed8c01e	0.42334074
103	0xbeab61ae	-0.3347296
104	0xbe834c1e	-0.2564401
105	0x3e937b2d	0.28804913
106	0x3d1d2945	0.038369436
107	0xbe9e5fde	-0.30932516
108	0x3ed04c47	0.40683195
109	0x3edf2d49	0.43589237
110	0xbea2d4ff	-0.31803128
111	0xbcb1d4c4	-0.0217079
112	0x3bcfd6dd	0.0063427524
113	0xbdd36712	-0.103223935
114	0xbeb90ad2	-0.36141068
115	0xbe1aa79f	-0.15103005
116	0xbebbd85b	-0.36688504
117	0xbc9870cd	-0.018608475
118	0x3dd1b802	0.10240175
119	0x3e8c20a1	0.27368644
120	0x3e131187	0.14362155
121	0x3de9cb26	0.114157006
122	0x3d65f0e3	0.05613793
123	0xbe70840e	-0.23487875
124	0xbe00d121	-0.12579776
125	0xbd99fed8	-0.07519311
126	0xbd80d3fd	-0.062904336
127	0x3e7c7650	0.24654508
128	0xbea4025a	-0.32033044
129	0x3e52b688	0.20577443
130	0xbe4dc4f9	-0.2009467
131	0x3e4a076c	0.19729394
132	0x3e479884	0.19491774
133	0x3e6f76fc	0.23385233
134	0x3e1739c3	0.14768128
135	0x3e50a8f3	0.20376949
136	0xbd6bf25b	-0.057604175
137	0x3db22831	0.08699072
138	0x3dbc46c5	0.09193186
139	0xbe9b85d6	-0.30375546
140	0x3da623a2	0.08112265
141	0xbe65d6b2	-0.22445181
142	0x3e606f32	0.21917418
143	0xbe42d5ae	-0.19026825
144	0x3e21723b	0.15766232
145	0x3cb9ec28	0.022695616
146	0x3d3933e8	0.045215517
147	0x3e1898db	0.1490206
148	0x3e11e3fd	0.14247127
149	0xbe1fed8b	-0.15617959
150	0x3e7b25bb	0.24526112
151	0xbdbd266e	-0.092358455
152	0xbe40858a	-0.18800941
153	0xbe336324	-0.17518288
154	0xbe0c36e3	-0.13692813
155	0xbe68c0b8	-0.22729766
156	0xbd3c41a1	-0.045961026
157	0xbec71bb5	-0.38888326
158	0xbe941b52	-0.28927094
159	0xbdc985be	-0.098399624
160	0xbd786ec2	-0.060652502
161	0x3ea3e400	0.32009888
162	0x3d99ece3	0.07515886
163	0xbe54161c	-0.20711559
164	0x3e7cc8f6	0.24686036
165	0x3df9821c	0.121830195
166	0x3d3a4b2b	0.045481842
167	0xbe431574	-0.19051152
168	0x3e97786b	0.2958406
169	0xbeaa0e6e	-0.33214134
170	0xbd9bb113	-0.076021336
171	0x3e4c3098	0.19940412
172	0x3e2ccafd	0.16874309
173	0x3d826c29	0.06368286
174	0xbccde19f	-0.025131999
175	0xbc0209f8	-0.007936947
176	0x3ea30c04	0.31845105
177	0x3df08faf	0.117461555
178	0xbc967868	-0.018367961
179	0xbe8d1b02	-0.27559668
180	0x3e9a6956	0.3015849
181	0x3db47149	0.0881067
182	0x3d7f430e	0.062319808
183	0xbe427449	-0.18989672
184	0x3ed61ec1	0.41820338
185	0xbd8f2c06	-0.06990819
186	0xbe807217	-0.25087044
187	0x3e69c706	0.22829828
188	0xbe46199e	-0.1934571
189	0xbd0aab20	-0.033854604
190	0xbdc25002	-0.094879165
191	0x3ed397f3	0.41326866
192	0x3ed0bd31	0.40769342
193	0xbdb37cde	-0.08764051
194	0xbe0536ba	-0.13009158
195	0x3e2b077c	0.16702074
196	0x3eba202d	0.36352673
197	0xbdf0e34b	-0.11762103
198	0xbe0d8fa6	-0.13824329
199	0xbec82db6	-0.39097375
200	0x3de55195	0.11197201
201	0x3e3b0dea	0.18267027
202	0xbecd12da	-0.40053445
203	0xbe34805e	-0.17627093
204	0xbe91f92a	-0.2851041
205	0x3d256f1c	0.040389165
206	0x3e3374c7	0.17525016
207	0x3dbfa657	0.09357899
208	0xbe312baa	-0.17301813
209	0x3da1424a	0.07873972
210	0xbeccd2c6	-0.40004557
211	0x3e9da83e	0.3079242
212	0x3dd6eee4	0.104947835
213	0xbd6af900	-0.05736637
214	0x3ec48c17	0.3838813
215	0x3dabb97b	0.08384987
216	0xbcf0cf69	-0.029395776
217	0xbe812347	-0.25222227
218	0x3e50c8ba	0.20389071
219	0x3c643774	0.013929237
220	0xbe3ffa63	-0.18747859
221	0xbe257b09	-0.16160215
222	0xbe0a9c1c	-0.13536114
223	0xbe8a9d99	-0.27073362
224	0x3e80e281	0.2517281
225	0x3efa984e	0.48944324
226	0x3ec2d738	0.38054824
227	0x3e9429ac	0.28938043
228	0x3e296ff0	0.16546607
229	0x3eda8adf	0.42684075
230	0x3e5187a1	0.20461895
231	0x3eebf814	0.46087706
232	0x3e8a2d72	0.26987797
233	0x3e6e62b7	0.23279844
234	0xbe41907b	-0.18902771
235	0x3db0f7f4	0.08641043
236	0x3ebb0830	0.36529684
237	0x3e9eb8f8	0.31000495
238	0x3e72bdfa	0.23705283
239	0x3d34b353	0.04411633
240	0x3d858ba6	0.065207765
241	0x3e61e388	0.22059453
242	0x3d6d6732	0.057959743
243	0x3c8d8974	0.017277457
244	0x3e899198	0.26868892
245	0x3e8f83ef	0.28030345
246	0x3e4bd669	0.1990601
247	0x3cb0bce6	0.021574449
248	0xbdc51028	-0.09622222
249	0xbe066be4	-0.13127095
250	0x3e2ecf61	0.17071296
251	0xbc10b7c4	-0.008832876
252	0xbeae5402	-0.34048468
253	0x3e94b01c	0.2904061
254	0xbe031df9	-0.12804402
255	0xbde05ad3	-0.10954823

conv1.bias f4 [32]
0	0xbd2546a8	-0.040350586
1	0xbd5b5600	-0.053548813
2	0x3dff82af	0.12476098
3	0x3e09d56e	0.13460323
4	0xbe9f45a3	-0.31107816
5	0x3e929ff5	0.28637663
6	0x3ec11299	0.377095
7	0x3ac2831a	0.0014840097
8	0x3e0c8547	0.13722716
9	0xbca82cd0	-0.02052918
10	0x39d0fb3e	0.00039860042
11	0x3c373bf2	0.011183726
12	0x3ec3d393	0.38247356
13	0xbea12832	-0.3147598
14	0xbe348110	-0.17627358
15	0xbe8d7ac1	-0.27632716
16	0xbe319e26	-0.17345485
17	0x3e5ef602	0.21773532
18	0x3c9bb132	0.019005392
19	0xbe978fca	-0.2960189
20	0xbc6df5d2	-0.01452394
21	0x3eabe9a7	0.335767
22	0x3e5b3711	0.21407725
23	0xbd9fe154	-0.0780665
24	0x3d9b0c83	0.07570746
25	0x3a38c5b7	0.0007048505
26	0x3919964c	0.00014647207
27	0x3d052136	0.032502376
28	0x3e449113	0.19195966
29	0xbc314d60	-0.01082167
30	0x3ed7ea0a	0.42170745
31	0x3e86b35a	0.2630871

conv2.weight f4 [64, 32, 3, 3]
0	0x3c07d831	0.00829129
1	0xbd4e4657	-0.05036005
2	0xbd54d016	-0.05195626
3	0x3cd0dce7	0.02549596
4	0x3d1ff165	0.03904857
5	0xbc15d893	-0.009145874
6	0xbcb9b698	-0.022670075
7	0xbd0e0bd1	-0.034679238
8	0xbd692a43	-0.05692507
9	0xbd4ccb13	-0.049998354
10	0xb60cfba2	-2.1008095e-06
11	0xbcdadc2d	-0.026716316
12	0x3d4f37f9	0.05059049
13	0xbd23bb0c	-0.039973304
14	0x3d4e2d68	0.05033627
15	0xbd074c0a	-0.0330315
16	0xbcd44226	-0.025910448
17	0x3d113a89	0.035456214
18	0xbd2f0bd6	-0.042735897
19	0xbc612d1a	-0.013743663
20	0xbd773c9a	-0.06036053
21	0xbc60a709	-0.013711699
22	0xbb6349e6	-0.0034681498
23	0xbc0a4faa	-0.008441845
24	0xbd0c2b1a	-0.034220792
25	0x3d11e57f	0.035619255
26	0x3d01c1ca	0.031678952
27	0xbd74af0d	-0.059737254
28	0x3cdd01a1	0.026978316
29	0x3cb1d40c	0.021707557
30	0x3cff2434	0.031145193
31	0xbd2d3ea9	-0.042296086
32	0xbcbdbde8	-0.023161843
33	0xbaa079a2	-0.0012243281
34	0xbae30c32	-0.001732236
35	0x3d345bb1	0.044032756
36	0x3d6f56a9	0.058432255
37	0x3a9e94c3	0.0012098778
38	0xbcbf232e	-0.023332205
39	0x3ca635d0	0.020289332
40	0xbd28ce9a	-0.041212656
41	0xbc296ac5	-0.010340397
42	0xbcdbe6a7	-0.026843382
43	0xbd6b45a0	-0.057439446
44	0x3a0f8706	0.0005475137
45	0x3dd367c4	0.10322526
46	0xbcbef094	-0.023308076
47	0x3c9113f8	0.017709717
48	0x3dfceabb	0.12349459
49	0x3d241f3a	0.040068842
50	0x3cda62b3	0.026658392
51	0x3df14d6a	0.11782344
52	0x392553d3	0.00015766853
53	0x3bb90b1b	0.005647076
54	0xbc763315	-0.015026827
55	0x3b1fd301	0.0024387243
56	0x3ca377be	0.019954558
57	0x3d1d8252	0.03845436
58	0xbd638f23	-0.055556428
59	0x3d5f9a6f	0.05459064
60	0x3ab6b354	0.0013938942
61	0x3d6e260e	0.05814176
62	0x3d64c713	0.055853914
63	0xbc8dd4a0	-0.017313302
64	0xbd5c7b8a	-0.053828754
65	0xbc011699	-0.007878923
66	0xbcbd0de3	-0.02307791
67	0x3d2789dc	0.040902957
68	0xbd0de098	-0.034638017
69	0xbcd7b7eb	-0.026332816
70	0x3b440b7c	0.0029914072
71	0x3d2fecae	0.042950325
72	0x3d677ed9	0.056517456
73	0x3d81cc8f	0.063378446
74	0x3b26772c	0.0025400622
75	0x3d766979	0.06015918
76	0x3a9a74fa	0.0011784129
77	0xbd84583c	-0.06462142
78	0x3d85c8fa	0.06532474
79	0xbc8ea11c	-0.017410807
80	0xbc76a1f8	-0.015053265
81	0xbc387081	-0.011257292
82	0xb9869d88	-0.00025675842
83	0xbbba7e6a	-0.0056913393
84	0xbd1871d8	-0.037217945
85	0xba34a7b5	-0.00068914454
86	0x3d5cbc68	0.053890616
87	0x3d1e782d	0.038688827
88	0xbb5ebdf8	-0.0033987742
89	0x3ce99f37	0.028518302
90	0x3aab89be	0.0013087315
91	0xbd407839	-0.046989653
92	0xbce185ec	-0.02752968
93	0x3ceda281	0.029008152
94	0xbd33ae61	-0.043867473
95	0xbd8c017f	-0.06836223
96	0x3d9ef43c	0.07761428
97	0xbd5a53e5	-0.053302664
98	0x39b984b5	0.00035384824
99	0xbcc25bf6	-0.023725491
100	0x3ce9a377	0.028520329
101	0x3c238438	0.009980254
102	0xbcad2955	-0.021137873
103	0xbd2b7a4d	-0.041864682
104	0xbd92c8c3	-0.071671985
105	0xbd20ae20	-0.03922856
106	0x3c84a462	0.016191665
107	0xbc4e941c	-0.012608554
108	0xbd30d302	-0.043169983
109	0xbd0035bb	-0.03130124
110	0xbd576df9	-0.052595112
111	0x3c79d0ea	0.015247563
112	0xbc266d26	-0.010157859
113	0x3cd797fb	0.026317587
114	0xbc457303	-0.012051347
115	0xbd59aafd	-0.053141583
116	0xbd307d6d	-0.043088365
117	0xbd1199b9	-0.035546992
118	0x3d3b71bc	0.045762762
119	0x3cc55160	0.024086654
120	0xbc4bda57	-0.012442193
121	0xbbc401af	-0.005981646
122	0x3bb4de01	0.005519629
123	0xbae17b67	-0.0017202914
124	0x3cdd12d2	0.026986513
125	0xbc950e55	-0.01819531
126	0x3c16eae5	0.009211277
127	0x3c88601b	0.01664739
128	0xbd832006	-0.06402592
129	0x3d17cb9a	0.037059404
130	0x3ae0833d	0.0017128956
131	0xbd671412	-0.056415625
132	0xbd839bde	-0.06426214
133	0xbcaf3e35	-0.021391967
134	0x3c9d2f88	0.019187704
135	0x3d60d1b8	0.054887503
136	0xbcc353b7	-0.02384363
137	0xbb0dfaf4	-0.0021664472
138	0xbc9d3486	-0.019190084
139	0xbca318b2	-0.019909237
140	0x37b84598	2.1966916e-05
141	0xbce65693	-0.028117454
142	0xbd069ad2	-0.032862492
143	0x3b621210	0.003449563
144	0x3d186f62	0.037215598
145	0xbd05d1ba	-0.032670714
146	0xbc31d411	-0.010853783
147	0x3bc0b13d	0.0058805034
148	0x3c8c2cb9	0.01711117
149	0xbd776aea	-0.060404696
150	0xbc86792d	-0.016415203
151	0xbd031aac	-0.03200786
152	0xb9c47e3b	-0.00037478082
153	0xbd8f8df7	-0.070094995
154	0x3cea3193	0.028588092
155	0xbca6606d	-0.020309651
156	0x3b87ebd9	0.0041479883
157	0x3d03d203	0.032182705
158	0x3d179c12	0.037014075
159	0xbd89a69b	-0.067212306
160	0x3d3d956c	0.046285078
161	0x3b469c8b	0.003030571
162	0x3c0f4309	0.00874401
163	0x3bab2149	0.0052224738
164	0x3d125921	0.03572953
165	0xbc319e7d	-0.010841009
166	0x3ca12ad1	0.019673737
167	0x3cf921d2	0.030411635
168	0xbd20e809	-0.039283786
169	0x3d3d281a	0.046180822
170	0xb94fe2f5	-0.00019825606
171	0xbd2e803c	-0.042602763
172	0x3d21a74b	0.039466184
173	0x3d5423a2	0.051791795
174	0x3c69dc38	0.014273696
175	0x3ae718d7	0.0017631304
176	0xbc72b3d6	-0.014813384
177	0xbcac72e9	-0.021050887
178	0x3c0cc7de	0.008592574
179	0x3d3ccc45	0.046093244
180	0x3cb7e2b2	0.022446964
181	0xbd3cce12	-0.04609496
182	0xbd3eabfc	-0.046550736
183	0xbd41ec07	-0.047344234
184	0xbc550647	-0.013001985
185	0xbd620779	-0.055182908
186	0x3c854022	0.016265932
187	0xbcc5bc82	-0.02413774
188	0x3d0d5294	0.03450258
189	0xbcc6bfa2	-0.0242613
190	0x3d79aa84	0.060953632
191	0x3d1ad7c7	0.037803438
192	0x3c7d57cf	0.01546283
193	0xbcb962fe	-0.022630211
194	0x3b0865af	0.0020812561
195	0x3b85cd17	0.0040832865
196	0xbcdb311a	-0.026756812
197	0x3d37adcb	0.044843476
198	0x3c8bc98d	0.01706388
199	0x3d12c416	0.035831533
200	0xbd079d0a	-0.03310875
201	0x3d24618a	0.040132083
202	0x3ccc5605	0.024943361
203	0x3c9d2f27	0.019187523
204	0x3c951ff9	0.018203722
205	0xbd4342cb	-0.04767112
206	0xbc835c1d	-0.016035134
207	0x3d271794	0.04079397
208	0xbd90dcde	-0.07073377
209	0xbc908afd	-0.0176444
210	0x3c8e0c64	0.017339893
211	0xbd5e2b21	-0.05424035
212	0xbc3dbf56	-0.011581263
213	0x3c5735fa	0.013135428
214	0x3c7532ea	0.014965752
215	0xbcd729e9	-0.026265102
216	0x3d3ec297	0.046572294
217	0xbb4dacea	-0.0031383582
218	0x3cde990d	0.02717259
219	0x3d2fae37	0.042890754
220	0xbcfa00e7	-0.030518008
221	0xbcadbe8f	-0.02120903
222	0xbd41823e	-0.04724335
223	0xbd3ee539	-0.046605323
224	0xbcedb4b4	-0.02901683
225	0x3cc8f935	0.024532894
226	0xbbd88985	-0.0066081905
227	0x3d38f219	0.045152757
228	0x3d0e8c74	0.034801915
229	0x3cfb430a	0.030671615
230	0x3b05fc56	0.0020444593
231	0x3d4b4a1a	0.049631216
232	0x3aee0864	0.001816046
233	0xbd0e9421	-0.034809235
234	0xbcc9a43a	-0.024614442
235	0xbd543c1d	-0.05181514
236	0xbd604f1f	-0.054762956
237	0xbc8db60b	-0.017298719
238	0xbccf56b2	-0.025309894
239	0xbd38b1a9	-0.045091305
240	0x3d579af7	0.05263802
241	0x3d26cecb	0.040724557
242	0xbd0a089e	-0.033699624
243	0x3d12919b	0.03578339
244	0xbc980440	-0.018556714
245	0x3cf976ec	0.030452214
246	0xbaf6e807	-0.001883746
247	0xbcc523f9	-0.024065005
248	0x3bb54b1a	0.0055326344
249	0x3b842906	0.0040332107
250	0xbd11c724	-0.035590306
251	0x3d57573f	0.05257344
252	0x3d007d37	0.031369414
253	0x3cc5111c	0.02405601
254	0x3bb4ccd9	0.005517584
255	0x3d6c1c61	0.05764425

conv2.bias f4 [64]
0	0x3d21a055	0.039459545
1	0xb9b27555	-0.00034038225
2	0xbcda8e2e	-0.026679125
3	0x3d2565f3	0.04038043
4	0xbcfcc681	-0.030856373
5	0xbccf19bf	-0.025280831
6	0x3cb1f18e	0.021721628
7	0xbd80d972	-0.062914744
8	0x3c3d1dfe	0.011542795
9	0x3d5f21dd	0.054475654
10	0xbccfb33a	-0.025354017
11	0xbd049932	-0.03237266
12	0xbcc0fd62	-0.023558322
13	0xbc4a6a2e	-0.012354417
14	0x3d957b45	0.072989024
15	0xbd6e8725	-0.058234353
16	0x3d6f34c9	0.05839995
17	0xbd03803c	-0.032104716
18	0xbbf27041	-0.0073986356
19	0xbd161af8	-0.036646813
20	0x3d05109e	0.03248655
21	0x3d753bc7	0.05987146
22	0xbc92168b	-0.017833015
23	0x3cba1f27	0.022719933
24	0xbca973ea	-0.020685155
25	0x3ccf7cd2	0.025328074
26	0xbcfdf0c5	-0.030998597
27	0x3babba90	0.005240746
28	0xbc8dc5ef	-0.017306296
29	0x3d45bb29	0.048274193
30	0x3d94e1c3	0.07269623
31	0x3bae950a	0.0053278254
32	0x3c30e1ed	0.010796052
33	0x3ca1e93d	0.019764537
34	0x3d906c14	0.07051864
35	0xbd33c491	-0.043888632
36	0x3d319ab9	0.043360446
37	0xbd715192	-0.058915682
38	0x3c24a7af	0.0100497445
39	0x3c866426	0.016405176
40	0x3cefd4e1	0.029276313
41	0x3c8288de	0.015934404
42	0x3b86e2e3	0.0041164025
43	0x3d8ac440	0.06775713
44	0x3d6eb0d7	0.058274116
45	0xbd20b361	-0.03923357
46	0x3d5bf87a	0.053703763
47	0xbd16bd17	-0.036801424
48	0x3c3d1783	0.01154125
49	0xbd96c54f	-0.073618524
50	0x3bd6f204	0.006559612
51	0xbd4b6748	-0.049659044
52	0xbc63431c	-0.013870981
53	0x3c073ae5	0.008253788
54	0xbd468e79	-0.048475716
55	0xbdbc3824	-0.091903955
56	0xbd684f65	-0.05671634
57	0xba3ea584	-0.00072725886
58	0x3b327e61	0.0027235972
59	0xbd3476e8	-0.04405871
60	0x3d2a4259	0.04156718
61	0x3d590c5f	0.052990314
62	0x3da0781c	0.07835409
63	0xbd87ef5e	-0.066374525

conv3.weight f4 [128, 64, 3, 3]
0	0x3d00f26e	0.0314812
1	0xbc79708a	-0.015224585
2	0xbd47905c	-0.048721656
3	0xba6e0d51	-0.0009080964
4	0xbc2217e4	-0.009893391
5	0x3c76c391	0.015061275
6	0xbd0d4563	-0.03449
7	0xbcbb175b	-0.022838285
8	0xbcb501bf	-0.02209556
9	0x3cec09ff	0.02881336
10	0x3d932f6a	0.07186778
11	0x3cdaee59	0.026724981
12	0xbd16430b	-0.03668503
13	0xba7d0aa9	-0.00096527726
14	0xba07c2d6	-0.0005178874
15	0xbc9c0025	-0.019043038
16	0xbc94d46c	-0.018167697
17	0xbd3724cc	-0.044712827
18	0x3ce768d1	0.028248223
19	0x3cdbc758	0.026828453
20	0x3bec80e1	0.007217512
21	0x3be3d253	0.006952563
22	0x3cf2a06a	0.029617507
23	0xba01710f	-0.00049378065
24	0xbd2fa5ac	-0.042882606
25	0x3c7df2cf	0.015499785
26	0xbcc2124c	-0.023690365
27	0xbb802256	-0.003910343
28	0x3c3b2d42	0.0114243645
29	0xbca5e4e2	-0.020250741
30	0x3cf04209	0.029328363
31	0x3d22ddee	0.03976243
32	0x3c89d4a8	0.016825035
33	0x3d26dec2	0.040739782
34	0xbc79761c	-0.015225913
35	0x3d2e10d4	0.042496517
36	0xbbb2c91a	-0.005456102
37	0x3d1260ac	0.035736725
38	0xbce135a6	-0.027491402
39	0x3aa6d56d	0.0012728401
40	0x3c5c8816	0.01346018
41	0xbd3fff48	-0.046874315
42	0xbd02ebac	-0.031963035
43	0xbc399593	-0.011327165
44	0xbbd5be6c	-0.006522944
45	0x3bceb4af	0.0063081603
46	0x3ce0fc97	0.027464194
47	0x3d0a0e85	0.033705253
48	0x3cb77b69	0.022397714
49	0xbd0d38f4	-0.034478143
50	0xbc0285d5	-0.007966478
51	0x3d2b242a	0.041782536
52	0x3c030c41	0.007998527
53	0x3d01a2d6	0.031649433
54	0xbc0ec8e5	-0.008714889
55	0x3cab94a0	0.020944893
56	0x3c2b1327	0.010441578
57	0xbd10dca0	-0.035366654
58	0xbbc27613	-0.0059344857
59	0x3ce7bf97	0.0282896
60	0xbbf2e192	-0.007412144
61	0x3c2d0bef	0.010561927
62	0xbd09895e	-0.03357827
63	0x3c329133	0.010898876
64	0xbc31f0ae	-0.010860605
65	0xbbe70e91	-0.007051297
66	0x3bea76b1	0.0071552624
67	0x3b76ac06	0.0037639155
68	0x3c4fb097	0.01267638
69	0xbb1e3dcb	-0.0024145718
70	0x3c8ff5b0	0.017573208
71	0x3cbcd5f0	0.023051232
72	0x3d04405e	0.032287948
73	0xbd18020f	-0.03711134
74	0x3d09c138	0.033631533
75	0x3d2502f8	0.040286034
76	0xbad9864b	-0.0016595809
77	0x3d0f024b	0.034914296
78	0x3cb8f102	0.022575859
79	0xbd2e16c8	-0.042502195
80	0x3d1d87e0	0.03845966
81	0x3c546f8a	0.012966046
82	0x3b3a9391	0.0028469304
83	0x3d09af2c	0.033614323
84	0x3b82190a	0.00397027
85	0x3a9303b9	0.0011216319
86	0x3d24b5aa	0.04021231
87	0x3d2a0086	0.041504405
88	0x3be927e8	0.007115353
89	0x3b1f5e30	0.0024317615
90	0x3d0d621d	0.034517396
91	0x3c8600ae	0.016357746
92	0x3c8c81ca	0.017151732
93	0x3c112533	0.008858967
94	0xbb766cd8	-0.0037601497
95	0xbd18e2d8	-0.03732571
96	0xbd130d69	-0.03590146
97	0xbc9f8541	-0.01947272
98	0xbc512ca0	-0.012766987
99	0x3ca71db3	0.020399904
100	0xbc5a6704	-0.013330225
101	0x3c9830a0	0.018577874
102	0xbbb109e9	-0.0054027927
103	0x3cebc333	0.028779602
104	0xbc4ad22a	-0.012379209
105	0xbd068359	-0.032840107
106	0xbd0de3aa	-0.034640945
107	0xbc9427d0	-0.01808539
108	0xbd55cebc	-0.05219911
109	0xbc8ef811	-0.017452272
110	0xbce7443c	-0.028230779
111	0xbd26904b	-0.040664952
112	0xbca6663d	-0.020312423
113	0x3d153cc9	0.036434922
114	0xbd3b96e6	-0.045798205
115	0x3c722403	0.014779094
116	0x3d363a47	0.04448917
117	0xbd20246f	-0.039097246
118	0xbb696760	-0.0035614595
119	0xbb8c73e6	-0.004286277
120	0xbd5327c5	-0.0515516
121	0xbc18f154	-0.009334881
122	0xbc796a5f	-0.015223115
123	0xbc7dd525	-0.015492712
124	0xbc9801f4	-0.018555619
125	0x3bafc7bc	0.0053643864
126	0xbba59b87	-0.0050539407
127	0xbc68338c	-0.014172446
128	0x3c233aca	0.009962747
129	0xbca15ce1	-0.019697608
130	0x3b885f13	0.0041617244
131	0x3bbf976a	0.0058469074
132	0xbd1ddccd	-0.03854065
133	0x3ce879ff	0.028378485
134	0xbc997f1a	-0.018737365
135	0x3d16eefc	0.036849007
136	0xbb2ce11d	-0.0026379295
137	0x3cfe183a	0.031017412
138	0xbc6ea1d7	-0.014564953
139	0xbcb78a80	-0.02240491
140	0x3d1c0b99	0.038096998
141	0xb996c0db	-0.00028753918
142	0xbd22cb6e	-0.039744787
143	0x3c34c723	0.011033806
144	0x3ba87690	0.005141087
145	0xbbb5c9ad	-0.0055477233
146	0xbd24da55	-0.04024728
147	0xbc0fade4	-0.008769486
148	0x3ca065a1	0.01957971
149	0xbc6c1e7f	-0.014411568
150	0x3cbdcb31	0.023168178
151	0x3d6b9bd0	0.05752164
152	0x3d248ffd	0.04017638
153	0xbbde1224	-0.006777065
154	0x3bbd46a9	0.0057762456
155	0x3c51f30a	0.012814293
156	0xbb2edcbb	-0.0026681859
157	0x3c9fbaba	0.019498218
158	0xbcb8976c	-0.022533141
159	0x3c09854d	0.008393598
160	0xbc977cee	-0.018492188
161	0x3d254140	0.04034543
162	0xbd119581	-0.03554297
163	0xbc4043c9	-0.011734911
164	0x3cea8665	0.028628537
165	0xbca54adb	-0.020177295
166	0x3b5412f1	0.0032359923
167	0x3d24860d	0.040166903
168	0x3a1326ab	0.0005613367
169	0x3b2d41f0	0.0026437007
170	0x3c535cce	0.012900544
171	0xbd3904d0	-0.045170605
172	0xbc853e5e	-0.01626509
173	0xbd300b02	-0.042979248
174	0x3c2894e7	0.010289407
175	0x3c97f198	0.018547818
176	0xbcdf3b7f	-0.02725005
177	0x3cf1e92c	0.02953013
178	0x3d37918b	0.044816535
179	0x3c887b14	0.01666025
180	0x3b9ef690	0.00485117
181	0xbd2ef4a6	-0.042713784
182	0x3b9bfc1b	0.004760278
183	0xbd41d52b	-0.047322433
184	0xbcc6407b	-0.024200669
185	0x3d23fb49	0.040034566
186	0x3c932087	0.017959846
187	0x3d017d05	0.03161337
188	0x3bef9397	0.0073112953
189	0x3b862c5c	0.0040946435
190	0xbcdf308f	-0.027244834
191	0xbd677f57	-0.056517925
192	0xbd27f72a	-0.0410072
193	0xbbc96f0f	-0.0061472724
194	0x3c7a123c	0.0152631365
195	0x3c94a84d	0.018146658
196	0x391055ee	0.00013764921
197	0x3d15c256	0.036562286
198	0xbcadb1fb	-0.021203032
199	0x3cf14fe0	0.029457033
200	0x3b375d3b	0.0027979154
201	0xbcd7bd8c	-0.0263355
202	0xbd20d7a5	-0.039268155
203	0xbbe8fe83	-0.0071104183
204	0xbc55433f	-0.013016521
205	0x3d067f4d	0.032836247
206	0x3cec0094	0.02880887
207	0xbd33418c	-0.043763682
208	0x3cab9c1e	0.020948466
209	0xbcf5e0cc	-0.030014418
210	0x3ceea410	0.029130965
211	0xbc2471db	-0.010036911
212	0xb9ff7d8e	-0.00048730936
213	0x3d438731	0.04773635
214	0x3b2e52b2	0.0026599583
215	0xbcffcc95	-0.031225482
216	0xbd4c9a77	-0.049951997
217	0xbbcf050b	-0.00631774
218	0xbcac1ebd	-0.02101075
219	0xbcbec035	-0.02328501
220	0x3cea024f	0.028565554
221	0xbc672b7d	-0.0141094895
222	0xbb9634b5	-0.00458392
223	0x3bd14edc	0.0063875746
224	0xbc6d30a5	-0.01447693
225	0x3c67a69a	0.014138842
226	0x3c8eb875	0.01742194
227	0xbd21522f	-0.039385017
228	0xbd09f5ef	-0.033681806
229	0x3cf1004c	0.029419087
230	0xbd25e424	-0.040500775
231	0x3d07a876	0.03311964
232	0xbc984dbe	-0.018591758
233	0x3ceb3ee3	0.02871651
234	0xbd39fc83	-0.04540683
235	0xbd058312	-0.0325957
236	0xbb658af1	-0.0035025442
237	0xbcfecdde	-0.031104024
238	0x3cdf40cf	0.027252583
239	0xbbdd6165	-0.006755995
240	0x3a1197b0	0.0005553914
241	0xb7b1af5a	-2.1181699e-05
242	0x3b88821c	0.004165901
243	0xb8b21f82	-8.49357e-05
244	0xbccec81e	-0.025241908
245	0xbd03ebf1	-0.032207433
246	0xbc04fa29	-0.008116283
247	0xbd1e5c75	-0.038662393
248	0x3d0e3dfa	0.034727074
249	0x3bd74c45	0.0065703713
250	0x3c44fb6f	0.012022837
251	0xbc7f3775	-0.015577187
252	0x3d0a1bde	0.033717982
253	0x3bed2c99	0.0072379825
254	0x3d56f342	0.052478082
255	0x3c13cecd	0.009021473

conv3.bias f4 [128]
0	0xbca8b83e	-0.020595666
1	0x3c52cc50	0.012866095
2	0xbd18178f	-0.037131842
3	0xbbcfd821	-0.0063429032
4	0xbda35bf6	-0.079765245
5	0x3d0cdd15	0.034390528
6	0xbbe38a67	-0.006943989
7	0x3c663f52	0.014053183
8	0xbc848d56	-0.016180675
9	0xbbc4622b	-0.005993148
10	0xbcc8c940	-0.024510026
11	0x3ceeb7c5	0.029140363
12	0x3c237c9d	0.009978441
13	0xbd1327f5	-0.035926778
14	0x3d4ade3f	0.049528357
15	0xbbb37bf2	-0.005477422
16	0x3c96f214	0.018425979
17	0xbaf8fd98	-0.0018996475
18	0xbcb26c01	-0.021780016
19	0xbc954659	-0.018222021
20	0xbb340a90	-0.0027472116
21	0x3c83bbf0	0.016080827
22	0xbd0408e4	-0.03223504
23	0xbbc17b98	-0.005904626
24	0x3d017bff	0.031612393
25	0xbcc67c5d	-0.024229223
26	0x3b158326	0.0022813766
27	0xbd7387f1	-0.059455816
28	0x3c5b0d6f	0.013369902
29	0xbcd7c5eb	-0.026339492
30	0x3caac038	0.02084361
31	0x3d20098f	0.039071616
32	0xbd26d408	-0.040729553
33	0xbc8bee97	-0.017081542
34	0xbb69bf33	-0.0035666942
35	0x3cf3c85a	0.029758621
36	0x3d184fbd	0.03718542
37	0x3cd97718	0.026546046
38	0xbd52ce48	-0.051466256
39	0xbd144aca	-0.036204137
40	0x3cd31c81	0.025770428
41	0x3ba2f312	0.004972824
42	0x3d41879b	0.047248464
43	0x3ce11849	0.0274774
44	0xbcc4f17e	-0.024040934
45	0xbc0333e8	-0.008007981
46	0x3d179ce7	0.037014868
47	0x3d231bbb	0.039821368
48	0x3ce6e7ef	0.028186766
49	0x3c03b7d2	0.008039432
50	0xbd26f847	-0.04076412
51	0x3d1161e4	0.035493746
52	0x3d6fd8dc	0.058556423
53	0x3d4d65ec	0.05014603
54	0xbca6fdc4	-0.020384677
55	0x3d360777	0.044440713
56	0xbd35bc91	-0.044369284
57	0xba2aa24e	-0.00065091706
58	0x3b5de09f	0.0033855808
59	0x3d26c201	0.04071236
60	0x3d431ebb	0.04763673
61	0xbd5e62ec	-0.054293558
62	0x3d3fe36c	0.046847746
63	0xbd171a54	-0.036890343
64	0xbc01a0bf	-0.00791186
65	0xbc9f8caa	-0.019476254
66	0x3d0bfb86	0.03417542
67	0xbd2a00ca	-0.04150466
68	0xbce05d15	-0.027388135
69	0x3d019650	0.03163749
70	0xbcae81c0	-0.021302104
71	0x3b984c8c	0.004647797
72	0x3c2aded5	0.010429104
73	0xbcd15bac	-0.025556408
74	0x3cd9c2d9	0.026582168
75	0x3d2d1be0	0.04226291
76	0xbd10c4c2	-0.035343893
77	0x3d4cf41e	0.050037496
78	0xbc01be06	-0.00791884
79	0x3bb5aafe	0.0055440655
80	0xbcfea53e	-0.031084653
81	0xbce7f9fd	-0.028317446
82	0xbbd57339	-0.0065139798
83	0x3d505c7c	0.05086945
84	0x3c01503f	0.007892667
85	0xbd6a7ec7	-0.05724981
86	0xbcf96db7	-0.030447824
87	0xbc5b4b67	-0.013384677
88	0xbd2f1ad5	-0.0427502
89	0x3ceec67b	0.029147377
90	0x3ce33dfe	0.027739521
91	0xbc915c56	-0.017744225
92	0xbcb1fb94	-0.021726407
93	0x3d7ffb00	0.06249523
94	0xbc868775	-0.016422013
95	0x3c9220c3	0.017837888
96	0x3a85bd63	0.0010203536
97	0x3ba992a1	0.00517495
98	0x3d35c659	0.044378612
99	0x3d496ff8	0.049179047
100	0x3cf7c543	0.030245429
101	0x3d94db72	0.07268418
102	0x3c486304	0.012230638
103	0xbc96d260	-0.018410861
104	0xbd318f9a	-0.04334984
105	0xbd447be4	-0.047969714
106	0xbd76e09c	-0.060272798
107	0xbad866e0	-0.0016510151
108	0xbba77728	-0.00511064
109	0x3d49a096	0.049225412
110	0x3d485b96	0.04891547
111	0x3d1bb090	0.03801018
112	0xbd080caf	-0.03321522
113	0xbd02a763	-0.031897914
114	0xbcdf8da7	-0.027289225
115	0xbc809352	-0.015695248
116	0x3905c5d1	0.00012757561
117	0xbb9c7d1a	-0.0047756555
118	0x3c101573	0.008794176
119	0x3d510b9d	0.051036466
120	0xbcd92c75	-0.026510457
121	0x3d65f59a	0.056142427
122	0xbca07cc7	-0.019590748
123	0x3c7cbb16	0.015425464
124	0x3d2a9fbc	0.04165624
125	0x3d524ab3	0.05134077
126	0xbcdcccdd	-0.026953155
127	0xbcbd6d8a	-0.023123521

fc1.weight f4 [512, 128]
0	0xbccc063b	-0.024905315
1	0x3a018f6c	0.0004942331
2	0x3da92ceb	0.082605205
3	0x3d2813fd	0.041034687
4	0x3da222b7	0.079167776
5	0x3cf462db	0.029832294
6	0xbcb2cd71	-0.021826478
7	0xbd10417a	-0.035218693
8	0x3b3ac7bf	0.0028500406
9	0xbd5fae2e	-0.05460947
10	0x3d41770b	0.04723267
11	0x3dce480c	0.100723356
12	0xbd4c99d4	-0.04995139
13	0xbd061d81	-0.03274298
14	0xbcb1ed79	-0.021719681
15	0xbd9dd1c6	-0.07706027
16	0xbc0d3de1	-0.00862071
17	0xbbceae62	-0.006307409
18	0x3d35e905	0.044411678
19	0xbc7c3299	-0.015392923
20	0x3d7f2880	0.062294483
21	0x3d882446	0.066475436
22	0x3ba4f5a8	0.0050341673
23	0xbd7d9073	-0.061905336
24	0xbcdba000	-0.026809692
25	0x3b02474c	0.0019878922
26	0x3d513d7d	0.05108403
27	0x3beec241	0.0072863405
28	0x3d782262	0.060579665
29	0x3be6368e	0.0070255464
30	0xb7b87341	-2.1988179e-05
31	0xbd9a69f7	-0.075397424
32	0x3d9608ac	0.07325873
33	0xbd33622a	-0.04379479
34	0xbd8c16fa	-0.0684032
35	0xbd5804fc	-0.05273913
36	0x3d547529	0.051869545
37	0x3da1268f	0.078686826
38	0x3c8616e8	0.016368344
39	0x3ca98bd8	0.020696566
40	0x3dcffae7	0.10155278
41	0xbda8f372	-0.082495585
42	0x3da01060	0.07815623
43	0xbb4e8fe9	-0.0031518883
44	0xbd6fb829	-0.05852524
45	0x3bd0d0d6	0.0063725514
46	0xbd370bd4	-0.044689015
47	0x3d3b60a0	0.045746446
48	0x3d29ba38	0.041437358
49	0xbdaa892f	-0.08326947
50	0xbdad0a5d	-0.08449242
51	0xbd98c0f8	-0.07458681
52	0xbd8f5a32	-0.06999625
53	0xbd435391	-0.047687117
54	0xbbb5a529	-0.0055433703
55	0xbb870b4d	-0.00412122
56	0x3d79e024	0.061004773
57	0x3cbf2573	0.023333287
58	0x3d8f2212	0.0698892
59	0x3d501dbf	0.050809618
60	0x3cc5261c	0.024066024
61	0xbb6c5c27	-0.003606567
62	0xbcc766ad	-0.024340952
63	0x3d0cd10f	0.03437906
64	0xbd3c78d2	-0.04601366
65	0x3cc03507	0.023462785
66	0xbdc07bc9	-0.0939861
67	0xbd8e451d	-0.06946776
68	0x3bc8b627	0.00612523
69	0xbd054729	-0.032538567
70	0x3d932601	0.07184983
71	0xbbf263c8	-0.0073971488
72	0x3d81616f	0.06317412
73	0xbc2551fa	-0.0100903455
74	0x3caa014c	0.020752572
75	0xbcd1f584	-0.025629766
76	0x3d036bf9	0.032085393
77	0xbd5c4db5	-0.053785045
78	0x3de21a9f	0.11040234
79	0xbd7fcf50	-0.062453568
80	0x3d56f1ec	0.05247681
81	0x3caeb7c5	0.021327863
82	0xbcfa78f6	-0.030575257
83	0xbd169cea	-0.03677074
84	0x3bceb8ab	0.006308635
85	0xbd181bef	-0.037136015
86	0xbd9b4ce4	-0.07583025
87	0x3dcaa97d	0.098956086
88	0x3d9e6569	0.07734186
89	0xbbfc3b37	-0.0076974886
90	0xbc3fe398	-0.011711977
91	0x3d6afbe4	0.057369128
92	0xbd31105d	-0.043228496
93	0x3d9dcb21	0.077047594
94	0xbd4b8a75	-0.04969259
95	0x3daad9a7	0.08342295
96	0xbdad7638	-0.08469814
97	0x3d1c0764	0.038092986
98	0x3d88a26a	0.06671603
99	0xbd858377	-0.065192156
100	0xbcde4953	-0.027134573
101	0xbda28d9d	-0.07937167
102	0x3cd94a16	0.026524585
103	0xbcb066ab	-0.02153333
104	0xbd13e375	-0.03610559
105	0xbd4bd373	-0.0497622
106	0xbaafca56	-0.0013411741
107	0xbd8b63d6	-0.068061516
108	0x3d4f60b7	0.050629344
109	0x3d8af6b8	0.06785339
110	0xbc13d432	-0.009022759
111	0x3dca9093	0.098908566
112	0x3b35665f	0.0027679426
113	0x3d95a963	0.073076986
114	0xbcd568c8	-0.02605094
115	0x3d8800a5	0.06640748
116	0xbc45256d	-0.012032849
117	0xbd1c3846	-0.038139604
118	0x3dafb3a8	0.085791886
119	0xbc36a414	-0.011147518
120	0x3d3b94d6	0.045796238
121	0xbd0eae04	-0.034833923
122	0x3db5bae7	0.088735394
123	0x3c1d9556	0.009618124
124	0x3d77313c	0.060349688
125	0x3d880b81	0.06642819
126	0xbd1aae98	-0.03776416
127	0x3d11cf46	0.035598062
128	0xbd0fd6d5	-0.03511699
129	0x3d5b4eb6	0.05354186
130	0x3c7ab99a	0.01530304
131	0xbda5e574	-0.08100405
132	0xbda52b6d	-0.080649234
133	0x3c4abcaa	0.012374083
134	0x3da6d1c0	0.081454754
135	0x3da07d89	0.07836444
136	0x3bdc7e31	0.0067289104
137	0x3ca67b37	0.020322425
138	0x3cb38296	0.021912854
139	0x3d47745d	0.048694957
140	0x3d6ebddc	0.058286533
141	0xbda7d8f6	-0.08195679
142	0xbc2522f9	-0.010079139
143	0x3c5278cd	0.012846184
144	0xbc62ab4b	-0.013834785
145	0xbbeda892	-0.007252761
146	0x3d43f75a	0.047843315
147	0xbd1109be	-0.03540968
148	0xbda4ed62	-0.0805309
149	0x3cc70fd2	0.024299536
150	0x3ace372e	0.0015732998
151	0x3d6bfa05	0.057611484
152	0x3d609cbe	0.05483698
153	0x3bc8b393	0.0061249225
154	0xbc8ff7ab	-0.017574152
155	0xbd2acaec	-0.041697428
156	0xbda44daa	-0.08022626
157	0x3d851ec0	0.06500006
158	0xbda55566	-0.08072929
159	0x3d5f5f32	0.054534145
160	0xbd1742a8	-0.036928803
161	0xbc80e98e	-0.015736368
162	0xbd9bd621	-0.07609201
163	0xbd9e4487	-0.07727914
164	0x3d57df40	0.052703142
165	0x3d8597bf	0.06523084
166	0xbd9b4f13	-0.075834416
167	0xbd354926	-0.044259213
168	0xbd46eb60	-0.048564315
169	0x39a34695	0.0003114237
170	0xbd001b23	-0.03127588
171	0xbc8f0826	-0.01745994
172	0xbb57022d	-0.0032807693
173	0xbd696866	-0.056984328
174	0x3d8edd77	0.06975835
175	0x3d34b56d	0.044118334
176	0x3d81f905	0.06346325
177	0xbd9b3b9f	-0.07579731
178	0x3d27a1eb	0.0409259
179	0x3d150ec2	0.036391027
180	0x3bfdd8e0	0.007746801
181	0xbd6aeae9	-0.057352934
182	0x3d9e84f5	0.07740203
183	0xbd9a1864	-0.075241834
184	0xbd13f121	-0.03611863
185	0x3db3f8ea	0.08787711
186	0xbcaeb98c	-0.02132871
187	0x3cd882e9	0.02642961
188	0xbc988665	-0.018618772
189	0x3cf5872d	0.029971683
190	0x3c193c9b	0.009352828
191	0x3d0658f5	0.03279968
192	0xbd3190f2	-0.04335112
193	0xbda2c947	-0.07948547
194	0xb99e0c3d	-0.00030145227
195	0xbd303dd7	-0.043027725
196	0x3d98d370	0.074622035
197	0x3c93703e	0.017997857
198	0x3cee9e13	0.02912811
199	0x3d650167	0.05590954
200	0xbd969efd	-0.07354543
201	0xbd876271	-0.06610573
202	0x3cd667f9	0.026172625
203	0xbd446259	-0.047945354
204	0xbd769c08	-0.060207397
205	0x3d7ad7c9	0.061240945
206	0xbb78cf0d	-0.0037965209
207	0x3be6151c	0.0070215594
208	0x3cfff81a	0.031246234
209	0xbcf0f1c4	-0.029412158
210	0xbc6c9bc9	-0.014441439
211	0x3d6c7a20	0.057733655
212	0xbc403c7f	-0.011733173
213	0xbd8e8d6d	-0.069605686
214	0xbccf8c00	-0.025335312
215	0xbd41b939	-0.047295783
216	0xbd8d411b	-0.068971835
217	0xbdad594a	-0.08464296
218	0x3d15fada	0.036616184
219	0xbdaaba5e	-0.08336328
220	0xbd8e09fe	-0.069354996
221	0x3daaf6b0	0.08347833
222	0xbd77bf67	-0.06048527
223	0x3d4b1189	0.04957727
224	0xbd5eb5ad	-0.05437248
225	0x3d756853	0.059913944
226	0x3ceace66	0.028662872
227	0x3c9e6e27	0.019339634
228	0xbd137d6d	-0.036008287
229	0x3c56442c	0.013077777
230	0xbd9f0f94	-0.07766643
231	0x3d982fbe	0.07430981
232	0xbd99c0a9	-0.0750745
233	0xbd23da9e	-0.04000341
234	0xbd230c93	-0.039806914
235	0x3d89d3af	0.067298286
236	0xbc89d07d	-0.016823048
237	0xbd8a0a13	-0.06740203
238	0xbd46dda6	-0.048551224
239	0x3db36d8f	0.08761131
240	0x3da291c6	0.0793796
241	0x3c45ed05	0.012080436
242	0x3d93d2b9	0.072179265
243	0xbd09f771	-0.033683244
244	0xbcd18340	-0.02557528
245	0x3db0cc95	0.08632771
246	0x3d0260ae	0.031830482
247	0x3d9dfcac	0.07714209
248	0xbc60c085	-0.013717775
249	0xbd256bf2	-0.040386148
250	0x3cb9a549	0.022661822
251	0xbdb1b223	-0.08676555
252	0x3b0261a3	0.0019894622
253	0x3b6be983	0.0035997338
254	0xbba84bc8	-0.005135987
255	0xbd88168b	-0.06644925

fc1.bias f4 [512]
0	0x3d03b9e3	0.032159697
1	0x3d78570f	0.0606299
2	0xbd460297	-0.048342314
3	0x3d98b527	0.07456427
4	0x3d4afabf	0.049555536
5	0xbdad7e36	-0.084713385
6	0x3d9a010c	0.07519731
7	0x3d5ec821	0.054390077
8	0xbd9ec5e9	-0.07752592
9	0x3d2672e4	0.040636912
10	0xbd532bad	-0.051555324
11	0x3da2e2a3	0.07953384
12	0x3bd3f04f	0.006467856
13	0xbcf8b18d	-0.0303581
14	0xbb4f53c7	-0.0031635629
15	0x3db8a80d	0.09016428
16	0x3d6af857	0.05736574
17	0xbd93d369	-0.07218058
18	0x3db7dd7c	0.08977792
19	0xbcce52ea	-0.02518602
20	0x3c3c4986	0.011492139
21	0xbd901b35	-0.07036439
22	0x3d23064b	0.039800923
23	0xbd8d166a	-0.06889041
24	0xbd493671	-0.049124185
25	0x3ca11260	0.019662082
26	0x3d7f55de	0.06233775
27	0xbbd99ae5	-0.0066407793
28	0x3d3bc53d	0.045842398
29	0xbd1e71a2	-0.038682587
30	0xbd4887dd	-0.048957694
31	0x3cf86a16	0.030324023
32	0xbd8e329f	-0.06943249
33	0x3d8bd60a	0.06827934
34	0xbd381f19	-0.044951532
35	0xbd30c77c	-0.043158993
36	0xbd64f7b6	-0.055900298
37	0xbccc1a13	-0.024914777
38	0x3d5784b5	0.052616794
39	0xbd8e129b	-0.069371425
40	0x3d44ca73	0.048044633
41	0xbaddc108	-0.001691849
42	0x3d930099	0.07177848
43	0xbb425d4e	-0.0029657665
44	0xbd3648b3	-0.044502925
45	0x3db1e2bd	0.08685825
46	0x3d34405c	0.04400669
47	0x3cc1d4ca	0.023661036
48	0x3d8b9cd8	0.06817025
49	0xbd01f8a9	-0.03173128
50	0xbda17928	-0.07884437
51	0x3c8a8114	0.016907252
52	0x3da357d9	0.0797574
53	0x3d3ce126	0.046113156
54	0xbdb513aa	-0.08841641
55	0x3ce0d9c8	0.027447596
56	0xba8a3819	-0.0010545283
57	0xbd3d8785	-0.04627182
58	0xbdb53521	-0.08848024
59	0x3d2df062	0.042465575
60	0xbd05eb4f	-0.03269511
61	0xbd62bd4e	-0.055356316
62	0xbdb0fdb3	-0.08642139
63	0xbbac6b15	-0.0052617886
64	0xbd4daf97	-0.050216284
65	0xbdaf6015	-0.08563248
66	0xbd8c030e	-0.0683652
67	0x3cb86129	0.022507267
68	0xbd06206c	-0.032745764
69	0xbd06b025	-0.03288283
70	0x3da11102	0.07864572
71	0x3dbcd727	0.092207246
72	0xbdabf89c	-0.08397028
73	0x3cf4dccd	0.029890442
74	0xbd2dcbfa	-0.042430855
75	0xbc45d3a1	-0.012074382
76	0xbdaf5ae0	-0.08562255
77	0xbcd89e22	-0.026442591
78	0x3c56846d	0.013093096
79	0xbdb0a21e	-0.086246714
80	0xbd87e254	-0.066349655
81	0xbd8f581a	-0.06999226
82	0xbdb4f314	-0.08835426
83	0xbcd21c5b	-0.025648287
84	0x3db827d8	0.089919746
85	0xbd4e2ff9	-0.05033872
86	0x3de1720b	0.1100808
87	0xbcf220c1	-0.029556634
88	0xbca30bb6	-0.019903045
89	0x3cf841e7	0.030304862
90	0x3d09b834	0.033622935
91	0xbdb2d31b	-0.087316714
92	0x3d703118	0.05864057
93	0xbd21bcd5	-0.039486725
94	0xbd1d0b76	-0.038341008
95	0xbc44257d	-0.0119718285
96	0xbc68cc4b	-0.0142088635
97	0x3ca13b33	0.019681549
98	0xbd153ded	-0.03643601
99	0xbda27d2d	-0.07934032
100	0xbd13ab7f	-0.036052223
101	0x3c46df97	0.012138269
102	0x3cce78ef	0.02520415
103	0xbd84026c	-0.064457744
104	0x3bd3ab87	0.0064596566
105	0x3dadc388	0.0848456
106	0xbc610d5e	-0.013736097
107	0xbbf4cf08	-0.007470969
108	0xbd9f3574	-0.07773867
109	0xbd825e25	-0.06365613
110	0xbd55154c	-0.052022263
111	0x3d88aeef	0.06673991
112	0xbd636061	-0.055511836
113	0xbccb2c68	-0.024801448
114	0x3ddc91bf	0.10769986
115	0x3d57e4a2	0.052708276
116	0x3cb5bc88	0.022184625
117	0x3d81a34b	0.06329974
118	0xbda76d4d	-0.08175144
119	0xbda499be	-0.080371365
120	0x3d1078d3	0.035271477
121	0x3d83d4d8	0.06437081
122	0x3d23f4a9	0.040028248
123	0xbcafd1e5	-0.02146239
124	0x3c60bc43	0.01371676
125	0xbd377286	-0.044786952
126	0x3cd843da	0.026399542
127	0x3ba841c0	0.005134791
128	0x3d6565e9	0.056005392
129	0xbc773477	-0.015088192
130	0xbd72c7b2	-0.059272476
131	0x3d0d7eff	0.03454494
132	0x3ca4a322	0.020097319
133	0x3da20210	0.0791055
134	0xbd855b95	-0.065116085
135	0x3c41e8c6	0.011835283
136	0x3d23674f	0.039893445
137	0x3dde7dd5	0.10863844
138	0xbd8be340	-0.06830454
139	0xbd6511dd	-0.05592524
140	0xbd0b73d2	-0.034046
141	0x3da0fadc	0.07860348
142	0xbbab3d80	-0.005225837
143	0xbd0b5f10	-0.034026206
144	0xbc51d9dd	-0.01280829
145	0x3dfc94de	0.12333082
146	0x3d1d6d3d	0.038434256
147	0x3d364525	0.044499535
148	0x3d6b0e00	0.0573864
149	0xbcd40dc7	-0.025885476
150	0xbda60b71	-0.08107651
151	0xbd87cbf5	-0.066306986
152	0xbc04121f	-0.008060961
153	0xbd169d44	-0.036771074
154	0xbd819ab9	-0.06328339
155	0x3cf5c70f	0.030002145
156	0xbcf83b1a	-0.03030162
157	0xbd07f06d	-0.033188272
158	0x3d8c0ea3	0.06838729
159	0x3cb37997	0.021908564
160	0xbd761bba	-0.060085036
161	0xbdb0a34f	-0.08624899
162	0x3c6e6140	0.014549553
163	0xbd2f10b3	-0.042740535
164	0x3d630ac4	0.05543019
165	0xbcb014ca	-0.021494288
166	0xbb8db877	-0.0043249684
167	0x3d949831	0.07255591
168	0xbd4ec3a5	-0.05047955
169	0xbd0f2ea1	-0.03495658
170	0x3d512bd5	0.051067192
171	0x397aaef3	0.00023907032
172	0xbd88caba	-0.06679292
173	0xbda77f2c	-0.08178553
174	0x3939605a	0.00017678869
175	0x3da69d04	0.08135417
176	0x3aa00ef2	0.0012211485
177	0x3d54402e	0.05181902
178	0x3c16ad1b	0.009196545
179	0xbd338fcf	-0.04383832
180	0x3d00c285	0.03143551
181	0xbc217d56	-0.009856543
182	0xbc66431b	-0.014054085
183	0xbcc250d6	-0.023720186
184	0xbcf0b100	-0.029381275
185	0x3d6ef2dd	0.05833708
186	0x3da30961	0.07960773
187	0x3d918a92	0.07106508
188	0x3ceb2e5b	0.028708627
189	0xbc8b142c	-0.016977392
190	0xbd889aa8	-0.06670123
191	0xbd6c7866	-0.05773201
192	0x3c0cb776	0.008588662
193	0xbc8db547	-0.017298354
194	0x3db6d80e	0.08927928
195	0xbd6d7022	-0.057968266
196	0x3cdfd65e	0.027323898
197	0x3caafe9d	0.020873362
198	0xbd4f9c46	-0.050686143
199	0x3c591c6c	0.013251405
200	0x3dbd0d55	0.092310585
201	0xbbf40847	-0.007447276
202	0xbd81adb9	-0.06331963
203	0x3d8008fc	0.06251714
204	0x3cadf6e6	0.021235894
205	0x3d17d254	0.03706582
206	0x3da897dc	0.0823209
207	0xbdb1ff79	-0.08691306
208	0xbdab7aff	-0.08373069
209	0x3dbc1fb5	0.09185735
210	0xbc813063	-0.015770143
211	0xbd15a8cf	-0.03653794
212	0x3d4466e0	0.04794967
213	0x3d9354e5	0.07193927
214	0x39adb07e	0.00033128628
215	0x3d9ef0c0	0.07760763
216	0xbd5d3647	-0.05400684
217	0x3cd302d1	0.025758179
218	0xbd4eec9a	-0.05051861
219	0x3afae9a5	0.0019143118
220	0xbdc59b61	-0.09648777
221	0xbd39a251	-0.045320813
222	0x3d71c92f	0.059029754
223	0x3dbbf52a	0.09177621
224	0xba9b2d8a	-0.0011839133
225	0x3d6b9482	0.057514675
226	0x3dbfc019	0.093628116
227	0x3d54d5e3	0.05196179
228	0x3c91d40d	0.017801309
229	0x3dd76439	0.10517163
230	0x3cdef705	0.027217397
231	0xbcf73c79	-0.030180203
232	0xbd30eafd	-0.043192852
233	0x3d2ed143	0.042680036
234	0xbd9b76c1	-0.0759101
235	0x3d012d00	0.031537056
236	0xbd88ef54	-0.06686273
237	0x3cad8aaa	0.021184284
238	0x3c9d8e5b	0.01923292
239	0xbd8d164e	-0.0688902
240	0xbd0e8b26	-0.03480067
241	0xbce055fe	-0.027384754
242	0xbd82b79d	-0.06382678
243	0x3d4a9d18	0.049466223
244	0xbd56bf8e	-0.052428775
245	0xbd4b2452	-0.049595185
246	0xbd6119fa	-0.054956414
247	0xbc5a1473	-0.01331054
248	0x3dd30b72	0.103049174
249	0xbcfe4c53	-0.031042254
250	0x3dcdd1d5	0.10049788
251	0x3d4a5826	0.04940047
252	0xbda1efe1	-0.079070814
253	0xbd0d6652	-0.03452141
254	0x3d2250c0	0.03962779
255	0x3da31300	0.07962608

fc2.weight f4 [10, 512]
0	0x3d0ace4e	0.033888154
1	0x3cb95182	0.022621874
2	0x3ce9d7a1	0.028545203
3	0x3dd1c61c	0.102428645
4	0xbd1b0252	-0.03784401
5	0xbd220426	-0.039554738
6	0x3d43070b	0.04761414
7	0x3d4df8d5	0.050286133
8	0xbd19233b	-0.037387114
9	0xbcd0a658	-0.025469944
10	0x3c2f7b7b	0.010710592
11	0x3c8dccf6	0.017309647
12	0xbd0194fb	-0.03163622
13	0xbdb67781	-0.08909512
14	0x3c223a12	0.00990154
15	0xbcc58660	-0.024111927
16	0x3db7d501	0.08976174
17	0xbd53a438	-0.051670283
18	0xbdcf7388	-0.10129458
19	0x3e09e9b6	0.1346806
20	0x3d345d06	0.044034027
21	0x3dbf8509	0.09351546
22	0x3d12460f	0.035711344
23	0xbd088dc3	-0.03333832
24	0xbd8eec73	-0.06978693
25	0x3c6bc2d5	0.014389713
26	0x3d2bd66a	0.041952528
27	0xbbff38a2	-0.0077887336
28	0x3cb4cea1	0.022071185
29	0xbcad1c08	-0.02113153
30	0x3cceb09d	0.0252307
31	0x3c9234c2	0.017847423
32	0x3d23f983	0.040032875
33	0x3d62015f	0.05517709
34	0xbd1c9d27	-0.03823581
35	0xbdf2e59d	-0.118602015
36	0xbdb15857	-0.086594276
37	0xbbed4774	-0.007241184
38	0x3c41f284	0.011837605
39	0xbb84f0e3	-0.0040570362
40	0x3d09892e	0.03357809
41	0xbd6c5a07	-0.057703044
42	0x3c25c1cc	0.010117006
43	0x3c88838c	0.016664289
44	0x3d22e029	0.039764557
45	0xbc927e76	-0.017882567
46	0x3d02990a	0.03188423
47	0xbd6ce111	-0.057831828
48	0x3d0ddabe	0.034632437
49	0x3d10dd8f	0.035367545
50	0xbd44b531	-0.04802436
51	0x3dd6b31b	0.104833804
52	0xbd32bea4	-0.04363884
53	0xbcbab9c1	-0.022793652
54	0xbd2b676a	-0.04184667
55	0x3d2fb72e	0.042899303
56	0x3c1a77f0	0.009428009
57	0x3da86c46	0.082237765
58	0xba6e0ef9	-0.00090812106
59	0x3de2552e	0.11051403
60	0xbcdc3bdb	-0.02688401
61	0x3d23e01b	0.040008646
62	0x3c83b562	0.016077701
63	0xbc279db5	-0.010230471
64	0xbc43960f	-0.011937632
65	0x3c3736ed	0.011182529
66	0xbbd64d89	-0.0065400046
67	0xbda0f455	-0.07859103
68	0xbc13c3ee	-0.009018881
69	0xbb924cba	-0.004464713
70	0x3ba5c3a1	0.005058721
71	0x3db6111a	0.088899806
72	0x3ca49557	0.020090742
73	0x3d04cf4b	0.032424252
74	0xbd703d09	-0.058651958
75	0x3cf65826	0.03007133
76	0xbc793395	-0.015210052
77	0xbd24c41a	-0.04022608
78	0xbdb6667c	-0.08906266
79	0xbddb4ad8	-0.10707635
80	0xbc716352	-0.014733152
81	0x3d962041	0.07330371
82	0x3cb9af66	0.022666644
83	0xbd12912d	-0.03578298
84	0xbdadf705	-0.08494381
85	0x3c8b4f38	0.017005548
86	0x3c481466	0.012211895
87	0x3ccb3bfe	0.02480888
88	0xbd37b49b	-0.044849973
89	0xbd0c73d7	-0.03429016
90	0xbc88d9ec	-0.016705476
91	0x3d035b0c	0.03206925
92	0x3ccd5999	0.025067138
93	0x3c6f6594	0.01461162
94	0xbc44499f	-0.011980443
95	0x3caf5126	0.021401
96	0x3d34ef32	0.044173427
97	0x3cfe580a	0.03104784
98	0xbc62de4f	-0.013846948
99	0x3b469d78	0.003030626
100	0xbd089f1d	-0.033354867
101	0x3c9fde62	0.01951522
102	0x3d808c60	0.062767744
103	0x3d390664	0.04517211
104	0xbd0f381b	-0.034965616
105	0xbd2e8548	-0.042607576
106	0x3d55bade	0.052180164
107	0xbcfa4ee5	-0.030555198
108	0xbcfaaf2a	-0.030601103
109	0xbc9e8443	-0.019350177
110	0x3d2224f1	0.03958601
111	0x3d0de31a	0.03464041
112	0xbc03f86e	-0.008054836
113	0x3bd63616	0.0065372093
114	0x3e09a6cc	0.13442534
115	0x3c3bd456	0.011464199
116	0xbd37c560	-0.044865966
117	0x3df5f16b	0.120089374
118	0xbb8367c5	-0.004010173
119	0xbd34cf81	-0.044143204
120	0x3cf3fb1c	0.029782824
121	0x3e087c63	0.133287
122	0xbd0b044f	-0.033939656
123	0x3bea69ba	0.007153717
124	0xbcb68450	-0.022279888
125	0x3cc71271	0.024300786
126	0x3c16ccab	0.00920407
127	0xbcb360b5	-0.0218967
128	0xbb65ccc6	-0.0035064681
129	0xbde31505	-0.110879935
130	0xbd211550	-0.039326966
131	0xbda7ec95	-0.08199421
132	0x3c864cff	0.016394136
133	0xbd02e6fc	-0.031958565
134	0x3d5d74ba	0.054066397
135	0x3d99d8a9	0.07512028
136	0xbc2b93dd	-0.010472265
137	0x3ce02e6e	0.02736589
138	0xbb245002	-0.0025072102
139	0xbd34b8f6	-0.044121705
140	0x3d34b930	0.04412192
141	0xbcadab64	-0.02119989
142	0xbd0419d6	-0.0322512
143	0xbd1a35d5	-0.037648994
144	0xbd72ab67	-0.059245493
145	0x3dbaf30e	0.0912839
146	0xbd94341c	-0.072365016
147	0xbd5b60e7	-0.05355921
148	0xbddcf01d	-0.107879855
149	0x3d2051a9	0.039140377
150	0xbd4bc409	-0.0497475
151	0x3ce42ffc	0.027854912
152	0xbcc5864f	-0.024111895
153	0xba8057f3	-0.0009791836
154	0xbafc14af	-0.0019232238
155	0xbc91e2f5	-0.017808417
156	0xbcc05c9a	-0.023481656
157	0x3bacd525	0.0052744322
158	0x3d875b7f	0.06609248
159	0xbd206fb9	-0.039169047
160	0xbd81424c	-0.06311473
161	0xbd361f21	-0.04446328
162	0x3baeea3c	0.0053379815
163	0xbca41145	-0.020027766
164	0x3cd45bc5	0.025922665
165	0x3b81b102	0.0039578686
166	0xbc938eba	-0.018012393
167	0xbbf4a547	-0.0074659917
168	0xbd733981	-0.059381012
169	0x3c8fb8db	0.0175442
170	0xbd9c1852	-0.07621826
171	0xbd3196f0	-0.043356836
172	0xbc4f8c17	-0.012667677
173	0xbd2ae3e0	-0.041721225
174	0x3caa3741	0.0207783
175	0xbced88d9	-0.028995918
176	0x3dc01084	0.0937815
177	0xbd51a5c7	-0.05118349
178	0x3d1b3f1d	0.037901986
179	0x3d2c102b	0.042007606
180	0xbd9ee501	-0.07758523
181	0x3ce17fcf	0.027526764
182	0xbc643971	-0.013929711
183	0x3d22f11e	0.03978073
184	0xbc8c4462	-0.017122451
185	0x3dab3509	0.08359725
186	0x3d23c9f4	0.03998752
187	0xbcc4afb0	-0.024009556
188	0xbdda4f18	-0.10659617
189	0x3c80d816	0.015728038
190	0xbc4c92db	-0.012486185
191	0x3d1688af	0.036751445
192	0xbb3bd9d1	-0.0028663764
193	0x3d99d919	0.07512111
194	0x3ab65ebf	0.0013913735
195	0x3d2efb03	0.042719852
196	0xbc9d622f	-0.019211857
197	0x3c6ce9a1	0.014459998
198	0xbcd114d9	-0.025522636
199	0x3dc0cdf5	0.09414283
200	0x3d84a7ff	0.06477355
201	0xbda93e69	-0.08263857
202	0xbbba65d3	-0.005688408
203	0xbbdbc157	-0.0067063975
204	0x3d85173e	0.06498574
205	0xbdee1700	-0.11625481
206	0x3dd2b0b4	0.1028761
207	0x3d8e3d6b	0.06945308
208	0x3ca00231	0.019532295
209	0x3d3f682d	0.04673021
210	0x3d7afde8	0.0612773
211	0x3c6e5860	0.014547437
212	0x3e099206	0.1343461
213	0x3dc4a1f6	0.09601204
214	0xbabe8c90	-0.001453774
215	0x3cb80f24	0.022468157
216	0x392586fe	0.00015785915
217	0x3d6ea9e5	0.058267493
218	0x3c9bd956	0.019024532
219	0x3de7d93e	0.113207325
220	0x3cfef1a8	0.03112109
221	0xbc916a55	-0.017750898
222	0xbcaf878b	-0.021426937
223	0x3d24df10	0.04025179
224	0x3c013f51	0.007888631
225	0xbc83730a	-0.016046066
226	0x3ceb84e8	0.028749898
227	0x3a9679eb	0.0011480426
228	0xbd87573e	-0.06608437
229	0x3d22f8b2	0.039787956
230	0xbbc586a6	-0.0060280142
231	0x3dae415b	0.08508559
232	0xbc90777b	-0.017635098
233	0xbd333567	-0.0437521
234	0x3c623116	0.013805648
235	0x3d80e310	0.06293309
236	0xbd96f2b7	-0.07370513
237	0xbd81d90d	-0.06340227
238	0xbd075913	-0.033043932
239	0x3c82d1f1	0.015969248
240	0xbd13f538	-0.03612253
241	0x3d905081	0.07046605
242	0xbcfce96b	-0.030873021
243	0xbd09f796	-0.033683382
244	0x3ce0e7f7	0.02745436
245	0x3d2a0b19	0.04151449
246	0x3c783e3b	0.015151556
247	0x3bffd7c6	0.0078077046
248	0xbd15d832	-0.036583133
249	0xbc0b9350	-0.008519009
250	0x3c2c00ff	0.010498284
251	0x3d4ae81b	0.04953776
252	0xbd264f00	-0.040602684
253	0x3c5c08bc	0.013429817
254	0xba0f98bb	-0.00054777757
255	0xbd40aed1	-0.047041718

fc2.bias f4 [10]
0	0x3c95ba31	0.01827726
1	0xbd4cb57b	-0.04997776
2	0x3d43b655	0.047781307
3	0xbd1fecf0	-0.03904432
4	0xbe0e2fd7	-0.13885437
5	0xbbfd184f	-0.007723845
6	0x3dff996a	0.12480433
7	0xbc1b4453	-0.009476739
8	0xb84477e0	-4.6841684e-05
9	0xbc15cce1	-0.009143085
