Parameters exploration/M(Red 1, ADAM, CEL)/model_scripted_1-ADAM-CEL.pt (torch, 671084 bytes, 10 tensors)

weight f4 [32, 1, 3, 3]
000000 9d 2d 17 3e 82 39 dc be c8 3b a9 3e 33 29 ed bd
       0.14763494 -0.43012625 0.33053422 -0.11580124
000010 45 a9 96 3e 2c 8a af bd 19 4c 03 3d e8 a3 a9 3e
       0.29426017 -0.08571276 0.032054994 0.33132863
000020 07 bf 9b be 2b c1 f6 3d 32 e1 42 3e 10 56 68 3e
       -0.3041918 0.120485626 0.19031218 0.2268908
000030 68 48 49 3e 4f 7e be bd 27 94 0c be f5 c5 50 3e
       0.19656527 -0.09301435 -0.1372839 0.20388015
000040 7a f4 6d 3e 12 68 76 3d 9b 58 00 bf 99 8c 84 be
       0.23237792 0.060157843 -0.501352 -0.25888517
000050 11 eb 26 3e 20 b2 91 be 86 12 dc 3c 23 ac e0 3e
       0.16300608 -0.2845621 0.026864301 0.4388133
000060 72 51 b4 3d ea 62 92 3e cc e7 a3 3d 2d c1 81 3e
       0.08804597 0.2859109 0.08003196 0.25342694
000070 f6 c6 96 bd 2c 47 99 be f6 4b 19 bd dd 7f c6 3e
       -0.073621675 -0.29937112 -0.037425958 0.38769427
000080 3c cd 07 be 98 47 26 be d0 f2 d1 3e 97 59 86 be
       -0.13261884 -0.16238248 0.41005564 -0.26240227
000090 a5 2b da 3c 3c bc bd 3e 10 f5 20 be b0 e0 5c 3e
       0.02663214 0.37057674 -0.15718484 0.21570086
0000a0 e0 a1 1b 3e 95 20 54 be c5 eb b2 bd 19 ee 22 3e
       0.15198469 -0.20715554 -0.08736376 0.1591114
0000b0 61 8d 52 bd 8d ee 91 bf de e5 ab bf d6 33 45 be
       -0.05140436 -1.1400925 -1.3429525 -0.19258055
0000c0 00 ba 63 3e a2 24 b0 bd 6e d1 92 be 36 26 cb bb
       0.22238922 -0.08600737 -0.28675407 -0.0061996235
0000d0 2a 53 e0 be 6e 01 0d 3f fb 3c 5f be f2 52 d5 bf
       -0.4381345 0.55080307 -0.21800606 -1.6665938
0000e0 c7 55 36 bf 93 95 f1 bd b2 37 fb 3d 12 44 13 3e
       -0.71224636 -0.11796107 0.122664824 0.14381436
0000f0 37 eb 8b 3e f9 f5 b1 3e 57 00 10 be 32 59 e4 bd
       0.27327892 0.34757975 -0.1406263 -0.11149825
000100 0c 99 98 be 7f f7 8d 3e 1e 21 e5 be 28 79 79 3e
       -0.29804265 0.27727887 -0.4475183 0.24362624
000110 2a 34 d1 3e cc 0d 53 3e a5 a2 c9 bd 55 a2 b1 3a
       0.4086011 0.20610732 -0.09845475 0.0013552407
000120 41 45 9f be d9 13 ed 3e 8a 94 7b bc d8 25 c0 be
       -0.31107524 0.46304205 -0.015355239 -0.37528872
000130 21 eb 17 3e 38 03 af 3e b7 b1 c8 be 48 a6 9d bd
       0.14835788 0.34182143 -0.39198086 -0.07697731
000140 55 01 60 3e 45 e1 43 be a3 ac ee be ff 09 8c bd
       0.21875508 -0.19128902 -0.46616086 -0.06837844
000150 ed 1d 57 3e 67 ac 15 3e e7 63 51 3e 04 04 cb 3c
       0.2100751 0.14616548 0.20448266 0.024782188
000160 e1 f7 6e be 07 d6 74 3e e3 ab e0 bd fd db e1 3d
       -0.23336746 0.2390977 -0.10970285 0.110282876
000170 cc 84 c0 3d fc 61 c3 3c 29 0b 95 3e d9 77 ac 3e
       0.09400329 0.023850434 0.29110077 0.33685187
000180 cc f3 bb 3e 9b a8 6c bc 94 d7 ac be 04 af 77 3e
       0.3670944 -0.014444496 -0.33758223 0.24187857
000190 1d cf 80 3e 56 2c ac 3e 15 b6 18 be e3 a1 3b 3e
       0.25158015 0.33627576 -0.14913209 0.18323474
0001a0 ee e6 08 3d 44 7e c7 bc 6f fd 47 3e 0c e3 d7 3d
       0.033423357 -0.0243522 0.19530271 0.10541353
0001b0 6e 14 fa bd 33 7c bf be 58 3a 90 3e 67 c7 d5 bd
       -0.12210928 -0.37399444 0.28169513 -0.104384236
0001c0 e1 73 f4 38 5d 06 09 3e ac 46 8e 3e 04 37 a9 3e
       0.00011656411 0.13381334 0.27788293 0.33049786
0001d0 67 fd c6 be 93 47 b8 be 99 e9 55 3e a1 32 40 be
       -0.38865206 -0.35992107 0.20889892 -0.18769313
0001e0 71 b4 8f 3d dc 09 fc bd 49 b7 ac 3d d7 6b d8 3d
       0.07016838 -0.12306568 0.08433396 0.10567444
0001f0 8b 1b a4 3e 25 fa b4 bd 7c 2d a2 bd e7 b9 2d 3e
       0.32052264 -0.08836774 -0.07918832 0.16965447
000200 38 9a b6 be 94 e0 e3 be cd c3 8d be d5 85 34 bd
       -0.35664535 -0.44507277 -0.27688447 -0.044072945
000210 bb a9 c4 3e 1a ca f9 3e ca 24 56 3e 4a f0 e9 be
       0.38410744 0.48787004 0.20912471 -0.45691139
000220 64 6c 7e 3d ac df d2 3e 34 04 31 3e e1 86 5e 3e
       0.062115088 0.41186273 0.1728676 0.2173114
000230 3f 4e c5 be cc 43 c3 be d9 86 04 be 47 d6 8e 3e
       -0.3853626 -0.38137662 -0.12942065 0.27897856
000240 0c 32 fe 3d 74 a4 a9 be fc 36 ec 3d 2d ca 63 3e
       0.124118894 -0.3313328 0.11533925 0.22245093
000250 bb b5 2a be ca 9d 21 3d 4d 7e ef 3d 84 56 90 3c
       -0.16670887 0.03945712 0.11694012 0.017619379
000260 27 a8 5e 3e ff e0 83 3d a7 f0 df 3e 44 de 8b be
       0.21743833 0.06439399 0.4373829 -0.27318013
000270 3b f8 40 be fe 0d ff 3e 5d 3f 95 be 3a 96 a8 3e
       -0.18844692 0.49815363 -0.29149905 0.32927114
000280 b9 f9 7c be 7f 1f 47 be 01 43 e6 3d af c0 b7 3e
       -0.24704637 -0.19445609 0.11243249 0.35889193
000290 55 92 86 3e 2d d9 ff 3d ef 83 2b be e8 c2 5f 3d
       0.26283517 0.12492595 -0.16749547 0.054629236
0002a0 d5 d6 90 bd c4 2e 96 3d 64 81 dd 3d 65 a0 10 be
       -0.07072226 0.073331386 0.10815695 -0.14123686
0002b0 07 74 9e 3e 77 e7 ba be 68 cd dd 3d d9 44 88 bc
       0.30947897 -0.3650472 0.10830194 -0.016634392
0002c0 fc 11 33 3e 09 4f 02 3e 5a 29 3b 3d 61 e1 24 3e
       0.17487329 0.12725462 0.045693733 0.161016
0002d0 aa c7 f7 3e 26 1c 46 be c7 e0 91 3d c7 00 86 be
       0.4839452 -0.19346675 0.07122951 -0.26172468
0002e0 83 f0 dc be 31 f9 da bd 98 11 a6 be 9b b0 f1 3e
       -0.43152246 -0.10692061 -0.32435298 0.47205052
0002f0 8f 48 b2 3e 70 08 52 be 83 c5 0c 3e 95 87 8e 3d
       0.34820983 -0.20511031 0.1374722 0.06959454
000300 93 b2 76 be 1e 22 c6 be d0 e6 88 be b7 f2 34 3e
       -0.24091558 -0.38697904 -0.26738596 0.17670713
000310 58 57 9a 3e 64 a6 9f 3e ed 47 d7 be cf 83 d3 be
       0.30144763 0.31181633 -0.42047063 -0.413115
000320 91 a2 1c 3e 3c 40 d4 bc e3 5a 00 be a9 bc 90 be
       0.15296389 -0.025909536 -0.1253467 -0.28268936
000330 5d 3b 07 3f d7 9e db 3e c5 8d 10 3e 00 08 86 3e
       0.52824956 0.42894623 0.14116581 0.2617798
000340 06 d0 9f be bf 3e a1 3e af f3 52 be 54 95 cb be
       -0.31213397 0.31493184 -0.2060077 -0.39762366
000350 9a 22 64 3e 63 61 59 be 23 89 aa bc 10 08 a1 3e
       0.22278824 -0.21228556 -0.020817345 0.31451464
000360 d8 4e 29 bf 1c d8 88 bf 99 75 76 3e 35 49 46 bf
       -0.6613593 -1.0690951 0.24068297 -0.77455455
000370 1b 08 86 bf 5d 93 71 bf fb 87 2c be b0 bd 75 bf
       -1.0471224 -0.94365484 -0.16848747 -0.95992565
000380 f2 75 38 bf 97 d0 0a be b6 6e 48 3e fd 06 43 3e
       -0.7205497 -0.13556133 0.19573483 0.19045635
000390 7e 77 fd 3d ba 43 af 3e 84 fd 8e be 7e c9 b0 be
       0.12376307 0.3423136 -0.27927792 -0.34528726
0003a0 87 aa 2a 3e 76 41 26 3e ac f2 fd bc c9 0c 45 be
       0.16666614 0.16235909 -0.030999504 -0.19243158
0003b0 4b 66 05 3e bb 75 8e bd fc fe be 3e 9d fc 81 be
       0.13027303 -0.06956049 0.37303913 -0.2538804
0003c0 e5 d2 09 3e 9d ba cd 3d 64 81 b9 3e f3 1e a2 3e
       0.13459356 0.10045359 0.3623153 0.31664237
0003d0 c1 e1 a4 bf 2b e4 e2 bf 2d f3 c3 bd 66 e2 9b bf
       -1.2881395 -1.7725881 -0.095678665 -1.2178466
0003e0 9d 3e 03 c0 ba b1 bd 3e a7 f9 2a be be 3c a5 be
       -2.0506966 0.37049657 -0.16696797 -0.32272905
0003f0 95 a7 ab 3e 81 61 e6 3e 36 99 01 bc a4 9f b9 3c
       0.33526292 0.44996265 -0.0079100635 0.02265913

bias f4 [32]
000000 c4 39 6d bd e7 5f b5 bd 3a e3 8e bc 2e 14 a4 bc
       -0.057916418 -0.088561825 -0.017442334 -0.020029154
000010 44 24 69 bd 34 24 14 3e b1 ba 3e 3e e7 be 54 bd
       -0.05691935 0.14466935 0.18625905 -0.05193987
000020 4a f2 d3 3b dd 1c 08 3e b8 28 90 be a4 eb 20 be
       0.006468092 0.1329226 -0.28156066 -0.1571489
000030 46 cd 98 bc dd bb 24 3c ae 0e 92 bd 64 53 48 3e
       -0.01865257 0.010054556 -0.07131706 0.19563061
000040 be d1 74 bd 97 04 cc bc a5 61 66 bd 83 a5 ab 3c
       -0.05977034 -0.024904532 -0.056245465 0.020952946
000050 ce 24 bb bd a6 e9 8a 3d 57 11 3d bc 07 30 e7 3c
       -0.09137879 0.06782846 -0.011539779 0.028221143
000060 c0 2e cd 3e d5 e7 60 3c 68 58 77 be 39 fe d6 3e
       0.4007473 0.013727148 -0.24154818 0.41990831
000070 83 ab 19 be 5f b0 6b bb 44 61 4a bc 36 66 45 3e
       -0.15006833 -0.003596328 -0.0123522915 0.19277272

weight f4 [64, 32, 3, 3]
000000 24 a5 d9 3b d8 31 72 3d d8 ab 00 3d f7 2e af bd
       0.0066420007 0.059129566 0.031413883 -0.0855388
000010 ef 7f 1c be 63 93 25 3d 70 07 79 3d 5d 3e 87 be
       -0.15283178 0.040423762 0.06079811 -0.26414767
000020 f0 29 0c be e1 bc a9 3d b2 a1 e9 3d 82 c6 c7 3d
       -0.13687873 0.08287979 0.11407794 0.09754659
000030 f1 fd 32 bd 49 20 07 bd 7a fc c9 3d a1 42 04 bd
       -0.04369921 -0.032989774 0.09862609 -0.032290105
000040 a4 a4 c8 bd 19 76 44 3d 2c c0 1e be bf 86 f7 3c
       -0.09797028 0.04796419 -0.15502995 0.03021562
000050 52 7b a1 bd fe a1 83 be 15 48 8b bd b2 1e f0 3b
       -0.078848496 -0.25709528 -0.06800858 0.007327878
000060 92 b4 22 bd 7e 11 8c 3d 6b 31 81 bd e9 f3 8c 3d
       -0.039722987 0.06839274 -0.06308254 0.0688246
000070 99 30 96 3d 67 e5 0b 3d c8 e9 92 be 36 bf ec bd
       0.07333488 0.034154322 -0.28693986 -0.11559908
000080 4c c6 91 3d 44 6a f5 3d 4a f1 60 be 28 ad 3f bd
       0.071179 0.11983159 -0.21967044 -0.046795994
000090 64 7b 2b 3d c4 36 76 3d 02 de e1 3d 1e 46 c8 bd
       0.04186572 0.060110822 0.11028673 -0.09778999
0000a0 b7 e5 bd bd 8b 0a a2 3d 97 6f c3 bb bc 64 08 be
       -0.0927233 0.07912167 -0.0059642303 -0.13319677
0000b0 af f1 85 3d 67 06 ff bd f7 78 25 be 6d 0d 34 be
       0.06540238 -0.12452393 -0.16159426 -0.17583247
0000c0 45 c9 8a bd 67 1a 12 bc b0 ff 59 3d 78 a0 aa 3d
       -0.0677667 -0.008917428 0.05322236 0.08331388
0000d0 ae 8b 76 3d 37 23 95 3b 17 0e 90 bd 0b 2a 56 be
       0.060191803 0.004551317 -0.070339374 -0.20914476
0000e0 48 4d cd bd 23 ca 8e 3d ca 73 0a 3e aa f6 77 3e
       -0.10024506 0.06972148 0.13520733 0.24215189
0000f0 09 d6 87 3e f2 b3 e2 3d ad 20 f0 bd 15 cf 16 bc
       0.26530483 0.11069478 -0.117249824 -0.009204646
000100 16 fc 23 3e f4 06 b4 bc fc da d6 bd c5 a9 67 3d
       0.16014132 -0.021975972 -0.10490987 0.05655839
000110 6d ff 05 3d 5f ab 79 be d3 2d c4 bc 9a 64 11 be
       0.032714296 -0.24381779 -0.023947632 -0.14198533
000120 78 4d c3 3d da 1a 5a 3d f9 9c 02 3e 5b a4 f5 bc
       0.0953626 0.053248264 0.12755193 -0.029985597
000130 38 b0 a1 3c c5 8c ab 3b 37 14 e8 3d cb 1b 98 3e
       0.019737348 0.005235287 0.11331981 0.29708704
000140 3a de 61 3d e5 da 17 3e bb d5 03 3e 9e a8 80 bd
       0.055143572 0.14829595 0.128745 -0.06282161
000150 ab 9d 38 bd d6 14 37 bd 31 3a af bc a2 43 c2 3b
       -0.04507224 -0.044697605 -0.021390053 0.0059284726
000160 9d e4 0b bd 92 ad 4f bd de 68 55 3d c5 1c 9d 3d
       -0.03415357 -0.05070264 0.052101962 0.07671503
000170 9f d0 08 3e 4f 45 d1 3b 8b 6a f9 bd 2d 65 0a 3e
       0.13360833 0.006386436 -0.121785246 0.13515158
000180 fe 99 66 bc 8e ea 2e be 5d 5f 8a bd 6a 27 aa 3d
       -0.014074801 -0.17081663 -0.0675647 0.08308299
000190 e1 94 88 3c 5e 69 de 3d 95 23 27 bc 75 84 6e bd
       0.016672553 0.10859941 -0.0102013545 -0.05823179
0001a0 5c 1f a4 bc a2 7b 66 bd 7a 68 d5 bd ed 39 9b bd
       -0.020034485 -0.05627025 -0.10420318 -0.07579408
0001b0 9c bf 72 be 81 8c 14 be a9 66 4a 3d f3 e1 9b 3c
       -0.23705906 -0.14506723 0.04941431 0.01902864
0001c0 63 1e 0e bf 0e 3b 4b 3d 5e 54 21 3e 00 7a 00 be
       -0.55515116 0.049616866 0.1575484 -0.1254654
0001d0 fe 2e c2 be db 6a 84 3c ec b9 c4 3c 93 0e b0 3d
       -0.37926477 0.016164234 0.024014436 0.0859653
0001e0 f5 d2 dc bd 16 a6 f6 bd 09 61 a9 3d 12 fc c2 bd
       -0.10782424 -0.12043397 0.08270461 -0.09520735
0001f0 a9 5d f2 bd af e4 a3 bd 33 e7 bd bd 38 2a 87 be
       -0.118342705 -0.08002602 -0.092726134 -0.26399398
000200 07 df f2 3c 08 07 ee bd 38 b3 ac be 91 89 07 3d
       0.029647363 -0.11622435 -0.33730483 0.033090178
000210 05 c3 a0 3e 79 64 f8 3b 7b 89 ae bd d0 72 12 3e
       0.31398788 0.0075803366 -0.08522316 0.1430161
000220 d0 ca b9 3d 0d 61 ac 3d e7 f9 2c 3d 51 19 b5 3c
       0.090718865 0.084169485 0.042230513 0.022106798
000230 45 f8 00 bd 3a 6a 23 bc 74 c4 97 3c 51 c6 bd bd
       -0.03148677 -0.009974057 0.018526293 -0.092663415
000240 31 6f 46 b8 58 3b de 3d 44 c7 b6 3c 22 90 8e 3c
       -4.7310434e-05 0.10851163 0.022311814 0.017402712
000250 45 87 57 bc 75 b4 0e 3d 50 ab e5 bc b4 79 48 bd
       -0.013154809 0.034840066 -0.02803579 -0.04894419
000260 cb cd 03 3c 6d 83 24 3d 51 2b cc 3d 43 03 b2 bc
       0.00804467 0.0401644 0.099691994 -0.021730071
000270 2b 7e 33 be c6 e3 14 be 89 88 b5 3d d4 f8 c3 3c
       -0.17528598 -0.14540014 0.08863933 0.023922361
000280 06 76 3b be 0a b0 60 3d cf 84 e6 3d fc 9f d4 3d
       -0.18306741 0.054855384 0.112558 0.10382077
000290 c7 e9 46 3d 6e c5 bd bb ca 9a 36 bc 4c e2 8e 3d
       0.04856279 -0.0057913577 -0.011145303 0.069767565
0002a0 81 97 19 bd c6 7e b0 bd 1e 85 62 bd d2 33 a6 3a
       -0.037498 -0.0861793 -0.05530273 0.0012680239
0002b0 36 56 ff 3d b7 32 20 bc cc 70 ab bb ed 11 bd 3a
       0.12467615 -0.009777716 -0.0052319523 0.0014424898
0002c0 8d 74 d8 3c bb 8d ef bd 30 ae d3 bd be f0 28 bd
       0.026422763 -0.11696955 -0.10335958 -0.041245215
0002d0 e5 f2 d1 be bc 57 42 be 26 c6 7b bb f9 fa b6 be
       -0.41005626 -0.1897878 -0.0038417666 -0.35738352
0002e0 b6 a6 b6 be 7c 07 d1 3c 87 1c 0c 3e d1 56 b9 bd
       -0.35674065 0.025516264 0.13682757 -0.09049762
0002f0 ac e9 f5 3e 6c eb 5b 3d 62 76 ba bd 50 e9 c6 3c
       0.4802984 0.053691313 -0.09104611 0.024281174
000300 96 5c 55 3d 87 3e 07 bd c6 3b 45 3c 60 a6 47 3e
       0.05209025 -0.033018615 0.012038177 0.19497061
000310 8b 78 6e 3d 8f eb a3 3d 11 d7 20 be f0 2e 8f 3a
       0.058220427 0.080039136 -0.15707041 0.0010924023
000320 4e ab 71 3d 84 ba f1 3e fa c3 cc be 3a a6 de 3d
       0.05900126 0.47212613 -0.39993268 0.10871549
000330 39 4b 6f 3f 16 0d 4e 3e a5 be 55 bc 7a ed 4d be
       0.93474156 0.2012218 -0.0130459415 -0.20110121
000340 46 c3 8e 3d 03 71 5f be 0c 12 50 be c8 b0 c3 3d
       0.06970839 -0.21820454 -0.20319384 0.09555203
000350 a7 f0 a4 bd f2 71 90 3c 01 43 3c 3e 61 7d 03 3d
       -0.08053713 0.017632458 0.18384935 0.032101993
000360 0b 69 c6 bd 41 7b c0 bd 4f a0 e1 bd 11 35 ac bc
       -0.09688004 -0.09398509 -0.110169046 -0.021021398
000370 2c f5 09 bc 41 7e 4f bd 63 d9 64 39 8b 94 68 3d
       -0.00842027 -0.050657514 0.00021824757 0.056782287
000380 72 0b 9f be 58 44 af 3d 8c 77 7e 3d 35 98 cb 3d
       -0.3106342 0.085579574 0.062125728 0.099411406
000390 46 d5 f6 bd bd d4 0d 3d 30 4b 59 3d 78 63 93 bd
       -0.120523974 0.03462671 0.05305022 -0.071967065
0003a0 3e 42 d9 bd 10 bf f3 3b 0e aa 7b 3d a4 73 8b bd
       -0.10608338 0.007438548 0.061441474 -0.06809166
0003b0 ae 19 e2 bb 91 cb f4 bd ea f2 82 bd 00 e3 cc bd
       -0.006900034 -0.1195289 -0.063939884 -0.10004234
0003c0 e9 d5 0b bd fc 9e 6a be e6 9b 0e be 67 0e 9b bd
       -0.034139547 -0.2291221 -0.13926658 -0.075711064
0003d0 b6 46 2d be ed ac 1a be cd 36 7d 3d 16 df 0e 3d
       -0.16921505 -0.15105028 0.06181984 0.03488072
0003e0 d4 16 16 be a7 6c 18 3e e3 da eb 3d 03 4a a9 be
       -0.14657146 0.14885198 0.11516359 -0.3306428
0003f0 58 23 7a 3e 02 5a 9f 3e b1 01 8e 3e 82 62 29 3e
       0.24427545 0.31123358 0.27735665 0.16541484

bias f4 [64]
000000 0b f6 36 3c 04 a2 34 bd 82 da 0c 3d bf aa f9 bd
       0.01116706 -0.044099823 0.034388073 -0.1219077
000010 35 82 a2 bd f2 ac 47 bd ed 9d 14 3d 62 87 d2 3c
       -0.07934991 -0.048748918 0.036283422 0.025699321
000020 78 43 1f 3d 89 73 5c 3d eb 37 8d bd 51 eb e3 3b
       0.038882703 0.05382112 -0.06895431 0.006955542
000030 fc 60 d3 bc 67 fa b6 bd 39 a5 bc bd 6f ac f9 bb
       -0.025803082 -0.08934479 -0.09211201 -0.0076194326
000040 e1 56 bb bc 1a a2 60 3d 81 ba db 3c 95 29 70 3d
       -0.022868576 0.054842092 0.02682233 0.058633406
000050 0f 85 2d 3e db cd 0c bd 69 59 24 3d 21 48 1e bd
       0.16945289 -0.034376007 0.04012433 -0.038643006
000060 d2 8f fb bd 9b b0 72 bd d1 5f b2 bd c3 92 e5 3d
       -0.12283291 -0.059250455 -0.08709682 0.11209633
000070 2e 03 0d be a9 ae b6 bd dd d5 97 3b c3 cf 8c bd
       -0.13770744 -0.089200325 0.004633649 -0.06875565
000080 89 82 d4 3b fd cc a1 bd 9a a3 ef 3d e1 6e d7 bd
       0.0064852876 -0.079004265 0.117011264 -0.10519195
000090 a8 5a c3 3d ea 4a 93 bc a3 52 02 3d c6 6c 00 bd
       0.09538776 -0.017980058 0.03181709 -0.031353734
0000a0 66 ec 2b 3e 9c 23 0c be f6 fe ff bd 13 58 31 bd
       0.16789398 -0.13685459 -0.12499802 -0.043296885
0000b0 53 03 60 bd 54 b7 76 bd 94 8f 9a 3d 36 7d 8e bc
       -0.05469067 -0.06023343 0.075469166 -0.01739369
0000c0 7c 6c fa 3c 6b 3e 4b bd 0f e7 e6 bd 91 c4 c4 bd
       0.030569308 -0.049620073 -0.1127454 -0.096078046
0000d0 a7 ce ae bb b5 5d 5e 3e 52 0c 03 be 15 e9 13 3d
       -0.0053346935 0.21715434 -0.12797669 0.036110956
0000e0 fc f0 8c bd ae b6 76 3b 30 5a 62 3c e9 7f d6 bc
       -0.068819016 0.0037645507 0.013815448 -0.02618404
0000f0 fe bf ae 3d 73 4e b3 bd ad c5 b5 3c 4f 58 16 bd
       0.08532713 -0.087551974 0.022188986 -0.03670531

weight f4 [128, 64, 3, 3]
000000 46 03 12 bc ef bf ee bb 5e 28 fd 3a 2c 25 b0 bc
       -0.008911913 -0.007286064 0.0019314399 -0.0215021
000010 95 a9 f2 bc dd de 04 bd 87 df 85 bc 8a 7f f2 bc
       -0.029621879 -0.0324391 -0.016341938 -0.029601831
000020 36 aa 2d bd 20 5c 6a bc ce f4 25 bd d5 db 8b bd
       -0.042398654 -0.014304191 -0.040516667 -0.06829039
000030 b9 c5 65 bd c5 7d bf bc 3a 02 1d bd ff de 2f bc
       -0.056096766 -0.023375401 -0.0383322 -0.010734319
000040 c1 75 98 bc 15 33 91 bc 9f af 47 3c 3d 10 1c bc
       -0.018610837 -0.017724553 0.012187867 -0.009525356
000050 c8 04 45 bd c8 37 4c bd 5e a5 01 bd 75 3b 24 bd
       -0.048100263 -0.049857885 -0.031651847 -0.040095765
000060 9e 38 22 3c fa e1 45 bd d3 fb fa 3b 52 eb ec bb
       0.009901194 -0.04831121 0.0076594143 -0.007230201
000070 31 4a 88 bb 92 4e 4b 3c 2b b8 4e bd 62 7e 32 bd
       -0.004159235 0.012408869 -0.050468605 -0.04357756
000080 08 6d 17 bd be dc 02 bd 96 87 9e bc d3 d2 41 bc
       -0.036969215 -0.031948797 -0.019351762 -0.01183005
000090 67 14 a1 3b e6 eb 42 bd ec f7 e9 bc fc 4e 79 bd
       0.004915762 -0.04758825 -0.028560601 -0.06086634
0000a0 dc 66 1e 3c 29 c6 0b bd 6f 11 98 ba ff 64 4c bd
       0.009668078 -0.034124527 -0.0011601875 -0.049901005
0000b0 ec d2 44 bd dd 12 81 bd e0 1f 9e bb 1d 78 82 3c
       -0.048052713 -0.06302426 -0.004825577 0.015926415
0000c0 5b 58 27 3c c1 bb d0 bc 47 d4 4b bd 2a a3 68 3c
       0.010213937 -0.025480153 -0.04976299 0.014199058
0000d0 e6 a4 2c b7 8f 5e 85 bb f0 fb 64 bd 53 0e 55 bc
       -1.0290392e-05 -0.00407011 -0.05590433 -0.013003903
0000e0 94 8c 60 bd c5 99 e6 bc 47 0a 0d bd 61 b4 1c 3b
       -0.054821566 -0.028149495 -0.03443363 0.0023911225
0000f0 b3 4b 0a bd 94 9c 6a bd 34 8a 46 bd 4a 5a 5a bd
       -0.0337636 -0.05727823 -0.048471645 -0.053308763
000100 c4 9d 62 bd a5 df 69 bd ed b2 b6 bc ba c3 89 bd
       -0.05532624 -0.05709805 -0.022302115 -0.06726785
000110 8f db ec bc a4 9d 4b 3c f7 12 65 bd 0c 47 df bc
       -0.028913287 0.012427721 -0.05592629 -0.027255557
000120 e4 f1 75 bd f3 e0 85 3b d3 8c 37 bd 35 f8 32 3c
       -0.060045138 0.004085654 -0.044812035 0.010923435
000130 cc f6 d9 3b 6a c5 7e bd 3a d1 62 bd c9 f7 6c bc
       0.006651735 -0.062199987 -0.055375315 -0.014463373
000140 58 f0 f3 3a 5a 16 62 bc 0e 1c 10 bd 06 7d 43 bd
       0.0018611057 -0.013799274 -0.035183005 -0.047726654
000150 0e 69 04 3c 29 59 83 bd 8a 26 65 bd 53 67 8c bc
       0.008081688 -0.0641349 -0.055944957 -0.017139113
000160 c9 5e 85 bd 81 a6 7c 3b 7e 6b 80 bd 1e a0 8f bb
       -0.065122195 0.0038551392 -0.062705025 -0.004383101
000170 54 07 a6 bc c3 01 2d bd ca f6 74 bd 54 03 80 bc
       -0.020267166 -0.04223801 -0.05980567 -0.015626587
000180 1c 15 3f bc 12 8e d4 bb 70 b0 7d bd 85 0d 26 bd
       -0.011662748 -0.0064866627 -0.061935842 -0.040540237
000190 10 4b ca bc a1 ff 17 bd d0 ab 89 bd fc 46 e6 bc
       -0.024693996 -0.03710902 -0.06722224 -0.02811002
0001a0 aa 2a 37 bd 92 62 83 bd 00 f9 00 3c 45 93 40 bd
       -0.044718422 -0.06415285 0.007871866 -0.047015447
0001b0 3a 3c 2c bd e9 a8 c7 bc bc 46 03 3d 34 64 3d bd
       -0.042049624 -0.024372535 0.03204988 -0.04623814
0001c0 1c 1a 0b 3d b6 f0 fd 3c 0b 1f 7a bd 14 f0 29 bc
       0.033960447 0.030998569 -0.06106476 -0.0103721805
0001d0 86 b5 2e bb c3 f5 e4 bc 6d 2d 46 bd fe 94 b7 bc
       -0.002665849 -0.02794922 -0.048383165 -0.022409912
0001e0 9b f3 c6 bb 0f 77 3b bd f4 e0 4e bb 18 79 28 3c
       -0.0060715205 -0.04576784 -0.0031567188 0.010282777
0001f0 80 e1 35 bd cf a4 af bc dc 0e c7 bc 37 5e 2e bd
       -0.044404507 -0.021440892 -0.024299078 -0.04257032
000200 38 0a 06 bd 45 06 0d bd b6 bc 44 bd bb ba 0a bc
       -0.03272459 -0.034429807 -0.04803153 -0.008467372
000210 b5 47 55 3c 39 3b 8e bc cf 55 4f bd 68 42 9f 3c
       0.013017585 -0.017362224 -0.050618943 0.019440845
000220 74 c5 1d 3d 84 82 71 3c 41 db 07 3d f3 6b 48 bc
       0.038518384 0.01474059 0.03316808 -0.012232768
000230 dc 66 08 3c 8f ee 09 bd 5a 16 26 bd c1 ee 1d 3d
       0.008325305 -0.033674773 -0.04054866 0.03855777
000240 43 3c 9f bc 56 38 e8 bc 2b 42 02 3d 5a 83 cd 3c
       -0.019437915 -0.028347176 0.031801384 0.025087047
000250 ea 1a 0d bd 0a c4 d6 3c f6 40 89 3c e2 da f9 3c
       -0.034449495 0.026216526 0.016754609 0.03049988
000260 00 d4 8b 3a 0d 7a a4 ba 70 d3 93 ba 8b 4a 0f bd
       0.0010668039 -0.0012548581 -0.0011278223 -0.0349832
000270 d2 42 d1 3c ef 5d 4e 3c 7e eb d6 bb 20 5f c0 3c
       0.025544558 0.012595638 -0.0065588346 0.02348286
000280 69 3f df bc 38 7b a2 38 02 e1 6b bd 14 0f 2c bd
       -0.027251916 7.747713e-05 -0.05758763 -0.042006567
000290 5b da 31 bd d7 84 e4 3c f1 25 20 bd 79 f5 13 bd
       -0.04342113 0.027895374 -0.039098684 -0.036122773
0002a0 99 17 31 bd cb 4c b9 bc 6b 27 fd bc 46 33 0e bd
       -0.043235395 -0.022619626 -0.030902585 -0.034716867
0002b0 8c cd 18 3c fa 11 04 bd 27 41 0a bd 18 99 ac bc
       0.00932635 -0.032243706 -0.03375354 -0.021069095
0002c0 cc b3 03 3d 5a 4c 6b bc 31 7f c1 bc 89 03 02 3c
       0.03215389 -0.014361465 -0.02362022 0.007935413
0002d0 69 2f 40 bc c9 72 87 bd 8e a1 16 3b b3 c7 63 bd
       -0.011730053 -0.066136904 0.0022984478 -0.05561037
0002e0 3c 29 88 bd 92 60 6e bd 72 29 0e bd ea 8a de bc
       -0.0664849 -0.058197565 -0.034707494 -0.027165849
0002f0 3a bd ea bc c0 11 61 bd b4 69 81 bd 39 d3 4a bc
       -0.028654683 -0.05494857 -0.063189894 -0.012379461
000300 a0 da 5d bd bf e4 21 bc 93 7a 0d bd 33 df 13 bd
       -0.054163575 -0.0098811975 -0.034540724 -0.03610153
000310 fb fd 5f bd 61 b4 f9 3b 20 35 33 bd c1 2f 86 bd
       -0.054685574 0.00762038 -0.043751836 -0.06552077
000320 41 2d e3 3b 7e 0e 58 bd 8a f4 30 3c a9 c1 bc bc
       0.006932885 -0.052748196 0.01080049 -0.023041563
000330 4f 41 49 3c 49 ce 31 bd 6a ea 8c bd cb e1 d1 bc
       0.012283637 -0.04340962 -0.068806484 -0.025620362
000340 5a 84 a0 3c fa 10 8e bc 11 38 5e 3c 63 92 9d bc
       0.01959436 -0.01734208 0.013563172 -0.019234842
000350 c8 32 cb bc 98 fc b8 bb 68 c2 00 bd 33 4b fb 3b
       -0.024804488 -0.005645346 -0.0314354 0.0076688766
000360 6b 92 93 bc 82 f7 21 3d 02 fe b1 bc 35 e2 9c bc
       -0.018014153 0.039542682 -0.021727566 -0.019150833
000370 b0 ae f6 3c 1b 01 10 3d eb ad 0d bd ef e5 81 bb
       0.030112594 0.035157304 -0.03458969 -0.003964178
000380 d7 39 e5 bb a5 6b 29 3d 14 fe 47 3c 40 f9 82 bb
       -0.0069954204 0.041362423 0.012206573 -0.003996998
000390 26 29 fb 3c 7b 76 f0 bc 86 da 92 3c 16 9c ef 3c
       0.03065927 -0.02935337 0.017926466 0.029249232
0003a0 bf cf 05 bd 06 1d ee 3c da f4 38 bd bf be 11 3c
       -0.032668825 0.029066574 -0.045155384 0.008895575
0003b0 ba 29 fc 3c 45 5d 1d b9 b2 f2 07 3d 26 96 8b bc
       0.030781616 -0.00015007432 0.033190437 -0.01703937
0003c0 1e 3b 57 bd c8 21 1a bd b7 56 b1 bc b1 70 a9 bb
       -0.052546613 -0.037629873 -0.021647794 -0.0051709046
0003d0 c8 46 03 bd 9a 56 19 bd 54 d9 40 bd 41 27 84 bc
       -0.032049924 -0.037436105 -0.04708226 -0.016131999
0003e0 14 2c e7 3c d0 36 11 3d 6c da 3a bd f0 1f 26 3c
       0.02821926 0.035452664 -0.04561846 0.01013945
0003f0 ab d7 56 bd f7 48 d1 bb 52 fc 3f 3c da 59 85 3b
       -0.05245177 -0.006386872 0.011717873 0.004069549

bias f4 [128]
000000 02 c5 01 3c 19 79 b1 bd c0 f8 30 3c 62 b5 ac 3d
       0.0079205055 -0.08665676 0.010801494 0.084330335
000010 d2 0c 47 bd a9 20 eb bc 8d 48 be bb f9 b5 61 bd
       -0.04859621 -0.028702097 -0.0058069886 -0.055105183
000020 dc c7 05 3d 3c b5 2b 3c 30 e6 0d 3e 98 20 4d bd
       0.032661304 0.010480221 0.13857341 -0.050079912
000030 7e 6f 24 3d 30 68 2e 3c 03 52 44 bd 94 5b 1a 3c
       0.04014539 0.010644957 -0.047929775 0.009421248
000040 83 0e 01 be 13 c4 d3 3a e5 5b fb ba e1 9c 44 3d
       -0.12603192 0.0016156457 -0.0019177167 0.048001174
000050 f0 72 7a 3d 14 9c 29 3e ba 9e 06 bd e9 39 03 be
       0.06114477 0.16563445 -0.032866217 -0.1281506
000060 1d 15 69 bd 61 84 c5 3d c2 e5 24 3c b4 a7 42 bc
       -0.0569049 0.0964439 0.010064544 -0.011880804
000070 c0 50 80 bc c6 57 b1 bc 25 d3 8a 3d 77 59 39 3b
       -0.015663505 -0.021648299 0.06778554 0.0028282085
000080 8f a6 67 bd c4 ff cc 3b a3 17 0d bd 8d 47 9b bd
       -0.056555327 0.0062560756 -0.03444637 -0.075820066
000090 ef 31 cc bb d0 96 4c 3c cf bf 1c bc f0 42 7d bd
       -0.0062315385 0.012487128 -0.009567215 -0.061831415
0000a0 b9 84 b5 bd 25 f7 c0 3d 4b e8 ef bb 28 f9 6a bd
       -0.088632055 0.09422139 -0.0073213927 -0.05736652
0000b0 d4 8f 12 3d b9 a9 cc 3c c0 65 83 bd 00 20 f1 bc
       0.035781696 0.024983274 -0.06415892 -0.029434204
0000c0 4c 19 ad bd 93 54 74 3b 3b 40 91 bd 6e b8 a8 bc
       -0.084520906 0.0037281855 -0.07092329 -0.020595755
0000d0 ad f3 81 bd e4 ea 45 bd 1e fd da bb e6 46 df bc
       -0.063453056 -0.048319712 -0.006683006 -0.027255487
0000e0 2c 31 bc 3c 8e 51 d2 3c 19 a7 f7 3c 6c 87 b3 bd
       0.022972666 0.025673654 0.030231046 -0.08766064
0000f0 64 78 9e 3d 11 aa c1 bd fa 83 2d bd 68 e0 a3 bd
       0.077378064 -0.09456266 -0.04236219 -0.080017865
000100 4a 3d 97 bd c2 18 40 3b 82 71 7b bc 75 66 74 3c
       -0.07384737 0.0029311632 -0.015346887 0.014917006
000110 44 12 10 3d d7 ce 65 bd 2c 79 f3 3c 8b b3 2c bd
       0.03517367 -0.05610546 0.029720865 -0.042163413
000120 9a ce 01 3d 0e 3e 7d bd 56 f3 b4 bb ab 30 c7 3d
       0.03169117 -0.061826758 -0.005522172 0.097260796
000130 82 32 e1 3c 67 43 b1 3c 34 eb 31 3d 00 da 89 bc
       0.027489904 0.021638585 0.043437198 -0.016827583
000140 3f cd 30 bc 64 aa 8f bd 0e 38 62 bd 58 17 09 bd
       -0.010791122 -0.07014921 -0.05522924 -0.033469528
000150 d7 8d 90 3c 59 4c 95 3c d2 cd a0 bc 8f fd 8a 3d
       0.01764576 0.018224882 -0.019629393 0.06786644
000160 18 9f 57 bd d8 20 5f 3d ff 2d e9 bc b5 26 a6 bc
       -0.052641958 0.05447468 -0.028464315 -0.020282129
000170 1e d0 a8 3c df b3 b7 3d f9 12 3d 3d 5b fe 17 3e
       0.02060705 0.089698546 0.04616067 0.14843123
000180 5f c0 cd 3d ec de 06 3b f3 ab 4b bd 1c 6d 5e bd
       0.100464575 0.002057965 -0.04972453 -0.054303274
000190 f9 a3 05 3e a2 6c bb 3d a1 c1 8b 3d 39 39 07 3d
       0.13050832 0.091515794 0.06824041 0.033013556
0001a0 bc 65 b5 3d e0 c1 2f bc 4f bf 28 3c ba 8f 7c bd
       0.08857295 -0.010727376 0.010299518 -0.061660506
0001b0 cd 8b b2 bd b4 8a b3 bd df 1b 89 bc a7 2d 1d bb
       -0.08718071 -0.0876669 -0.016736923 -0.002398351
0001c0 e1 27 f1 bc 30 cb ce 3c 0f c1 a2 3b f8 eb 4f be
       -0.029437961 0.025243372 0.004966862 -0.20304859
0001d0 b3 a1 3e 3d e6 5d dc bd e3 f9 9f bc 2d 9e 1e 3d
       0.046540927 -0.10760097 -0.019528335 0.038725067
0001e0 c6 f0 b3 bc e1 31 4e bd f9 11 73 3c 1a db 6e 3d
       -0.021965396 -0.050340537 0.014835828 0.05831442
0001f0 44 13 31 3c 1e 74 26 bc a8 55 0b 3e 70 db 90 bd
       0.010807816 -0.01015952 0.13606894 -0.070731044

weight f4 [512, 128]
000000 2e 6d 54 3d 2b 7f 9e bb a5 72 05 be df 1e 4b bc
       0.051861934 -0.004836937 -0.13032015 -0.012397497
000010 77 29 64 bc 84 58 61 3d 1f 3b 86 bc 8f 2f 0a 3e
       -0.013925902 0.055016056 -0.016385613 0.13494705
000020 69 19 04 be 3e ba ba 3c 0e c8 d0 3c 80 2d 96 3d
       -0.12900318 0.022793885 0.025486019 0.07332897
000030 e1 2c e0 bc 22 e2 82 bc 1c e2 04 be 7f 42 90 3a
       -0.02736515 -0.01597697 -0.12976879 0.0011006146
000040 66 67 16 bd b4 32 90 bd 08 21 c5 bb a7 84 f7 3d
       -0.036719702 -0.07040921 -0.0060159005 0.12085848
000050 91 96 e7 bd 41 20 08 3e b8 28 25 3d b0 ca 3d bd
       -0.11308015 0.13293554 0.040322036 -0.046335876
000060 3c 2b c3 bd 41 24 f9 bd 39 72 84 3d 04 b5 ea 3c
       -0.09529731 -0.12165118 0.06467099 0.028650768
000070 fb cd 19 3e 20 ce 35 3c 9d ae 67 3d 99 4e b9 3c
       0.15019982 0.011096507 0.05656301 0.022620486
000080 0b 4d 88 3c 90 49 e2 3d 3d 3a 93 bc 90 11 8e 3c
       0.0166383 0.11049187 -0.017972106 0.017342359
000090 e5 5b 66 bc a2 54 87 3d 90 47 a5 3d 9b f4 3b bd
       -0.014059995 0.06607939 0.0807029 -0.04588757
0000a0 bf 48 f0 bd 3b 4e 22 bc 53 a3 33 bd 3d ef c9 3d
       -0.11732625 -0.009906347 -0.04385693 0.09860084
0000b0 ee ec 49 be ae 0c ca 3d cb 53 3e bd 8e b2 3b be
       -0.19719288 0.098657 -0.04646663 -0.18329832
0000c0 0a 85 fe bd a8 65 32 bc fa e3 80 bd 67 99 28 be
       -0.12427719 -0.010888495 -0.06293483 -0.16464768
0000d0 29 cd 3b 3d 27 2e 07 bd 11 7c 11 be 40 8d b6 3d
       0.045849953 -0.033003 -0.14207484 0.0891366
0000e0 b3 e6 8d 3c de 07 e5 bb fc 51 bf 3a 99 a1 0c be
       0.01732192 -0.006989463 0.0014596577 -0.1373352
0000f0 2f 21 68 3c b0 b6 30 3c 11 23 94 3c 49 de 8b 3d
       0.014168068 0.010785744 0.018083127 0.06829507
000100 36 f5 62 3e e9 e4 f0 3d ec 7a bf 3d 63 6d bc bd
       0.22163853 0.11762411 0.09349617 -0.09200551
000110 1a d4 f2 bc bc 9e ba bd 72 f2 af 3d 5c 4f b2 bc
       -0.029642154 -0.091123074 0.08591165 -0.021766357
000120 c8 9c 06 bd 26 09 66 3b ca 65 07 bd 59 0e 01 3e
       -0.032864362 0.0035100668 -0.033056058 0.1260313
000130 9b fa 09 3e 8c ee 90 bc 47 7e bc 3e 67 e4 59 bb
       0.13474505 -0.017691873 0.36815092 -0.003324771
000140 e1 18 db bd 53 dc 30 be 85 94 ca 3c 3f f1 30 3d
       -0.10698105 -0.17271547 0.024729023 0.04319882
000150 02 c7 b6 bd d9 e4 5f 3c 65 c1 32 3e a9 54 95 bd
       -0.089246765 0.013665401 0.17456587 -0.07291538
000160 af c7 b0 3d 7b 70 04 3e d9 c9 97 bc 3b b9 90 be
       0.086318366 0.12933533 -0.018528866 -0.2826632
000170 ac 25 eb 3c c0 a5 57 3d ee 4f 9e 3d e6 82 f3 3d
       0.028704487 0.052648306 0.07730089 0.11890201
000180 29 01 46 bc 2d 51 23 bd 0a 18 42 3d f1 c0 47 bd
       -0.012085238 -0.039872337 0.047386207 -0.048767988
000190 a5 d1 99 3d 44 d9 b3 3c 69 fe 78 bd d2 a7 55 bd
       0.0751069 0.021954186 -0.0607895 -0.052162
0001a0 03 82 3f 3e a5 12 9d 3d ed db 8a bd b2 98 a8 3c
       0.1870194 0.07669572 -0.06780229 0.020580623
0001b0 69 12 9f bd 5d 7f 7f bd c4 81 11 3e 4c 59 36 3d
       -0.07767183 -0.062377322 0.14209658 0.044518754
0001c0 df 09 65 bd 9c b5 9a bd 42 b1 1c 3e c8 58 45 bc
       -0.055917617 -0.075541705 0.15301993 -0.012045093
0001d0 70 82 b8 3d 49 51 8a 3d 43 b6 b7 bc d2 3e 5c bd
       0.09009254 0.06753785 -0.022425776 -0.053770848
0001e0 9f c1 41 bd c8 03 fb bd a0 74 12 be 2a 92 22 3e
       -0.047303792 -0.122565806 -0.14302301 0.1587607
0001f0 f8 19 3d bd 0b 1b 3e be eb 37 58 3c 32 be 56 3d
       -0.046167344 -0.18565004 0.013196926 0.052427478
000200 dc 83 9f bd 28 d7 93 bc e6 ad 48 3c 7a bb 42 3d
       -0.07788822 -0.01804693 0.012248492 0.047542073
000210 da 62 d0 bc 85 81 24 be c1 1d 94 3d 1e 5a 5b 3d
       -0.025437761 -0.16065033 0.072322376 0.05355274
000220 a1 5f 62 bd aa ec c1 3d bf d1 08 bd 32 b3 4b bd
       -0.05526698 0.09468968 -0.033403154 -0.04973144
000230 62 1d 4a bd f1 38 29 bd 17 af d5 bc 13 88 50 bd
       -0.049344428 -0.04131407 -0.026084466 -0.05091102
000240 71 54 6c bd 23 89 6e 3d c7 d2 92 3d 7f b9 d0 3d
       -0.057697717 0.058236253 0.07169109 0.101916306
000250 76 a8 80 3d 44 6f 5a 3d 5f 67 25 bd df ef 94 3c
       0.062821314 0.053328767 -0.040381785 0.018180786
000260 ee 11 47 3c dc 8f d6 bd 16 bc d1 bc 0a fd 92 3d
       0.012150271 -0.10476658 -0.025602382 0.071771696
000270 60 6c ae 3d f1 39 b4 3c db 2c dc bc 80 b1 cc 3c
       0.08516765 0.022000285 -0.026876858 0.024986982
000280 57 9f 75 bd 87 c0 d3 3c 5a 5c 78 bc 04 53 66 bc
       -0.05996641 0.02584864 -0.015158737 -0.014057878
000290 e5 ae 0f bd 22 99 99 bc 52 a8 0f bd 68 47 83 bd
       -0.0350789 -0.018749777 -0.035072632 -0.06410104
0002a0 f5 11 a0 3d 05 04 3c bd c1 d3 b5 3d 17 32 c3 bd
       0.07815925 -0.04590227 0.088782795 -0.09531038
0002b0 2d 07 47 3d 2d f2 3c be 20 3e 95 bd b9 af 5c 3e
       0.048590828 -0.18451758 -0.0728724 0.21551408
0002c0 ba 8f 20 3e 2b 95 6e bd 7a 43 9a 3d 0b cd 39 3d
       0.15679827 -0.058247726 0.075324014 0.04536156
0002d0 ca e4 96 bd 65 43 08 3e 56 99 a6 bd b4 a0 ad 3b
       -0.07367857 0.13306959 -0.08134715 0.0052986983
0002e0 9c 91 8a 3d a1 9e c4 bc 08 21 0b 3e b5 cf 30 3d
       0.06766054 -0.024001421 0.13586819 0.043166835
0002f0 23 cd 8e bd 68 e3 19 3d 58 64 39 bd 0c 91 85 bd
       -0.069727205 0.037570387 -0.04526171 -0.06521806
000300 39 53 08 be 38 3c 22 bc 97 b9 68 3e d0 68 7e 3c
       -0.13312997 -0.009902053 0.22727047 0.015527919
000310 a6 94 b0 bd 7c e0 96 3d 50 34 16 3c 7a c9 b3 bd
       -0.086221024 0.07367036 0.009167746 -0.08778663
000320 29 18 66 bc ab 77 30 3c 67 cf 40 bd 1b 59 4d 3d
       -0.014043846 0.010770719 -0.047072794 0.050133806
000330 e9 5a 8a 3d 58 77 b0 3d 9e a5 25 3c 89 2d dc 3c
       0.06755621 0.08616513 0.010110287 0.026877182
000340 3d 74 3e 3d 73 8d 41 bb 6f cc 59 3d 5a c1 4d bd
       0.046497572 -0.0029533773 0.05317348 -0.050233223
000350 a3 6a 8c bd 39 90 c1 bd 48 4f da bd a2 69 74 bd
       -0.06856277 -0.094513364 -0.10659653 -0.05967105
000360 01 36 82 3a 1a e9 e6 ba 90 3c 53 3d bb 6e 70 bc
       0.0009934307 -0.0017617077 0.05157143 -0.014674838
000370 c8 6c b0 bc 26 78 c9 3d 14 53 04 bd c0 f7 81 3d
       -0.021536246 0.098373696 -0.032305792 0.06346083
000380 d1 7c 1e 3d 97 f9 80 bd 7f 31 5d bd 41 56 df bc
       0.038693253 -0.062976055 -0.05400228 -0.027262809
000390 b7 04 fe 3c 9a a2 17 bb d3 79 5d 3c 1c 8e 48 3e
       0.031008108 -0.002313769 0.013517815 0.1958546
0003a0 f8 97 1c be 6d 63 64 bc 20 1b f6 ba 3f 7e 43 3d
       -0.15292346 -0.013939721 -0.0018776394 0.04772782
0003b0 86 7f bf bd 2e 97 4b 3d 20 d8 e8 3b da ec ba 39
       -0.09350495 0.049704723 0.007105842 0.00035653153
0003c0 2e 4e 72 bc 67 10 9b bd 35 92 09 be b0 fb 13 bb
       -0.014789147 -0.07571488 -0.1343468 -0.0022580437
0003d0 d0 ec a6 bd e5 60 90 bd 36 0e 58 bc 18 b8 11 be
       -0.08150637 -0.07049731 -0.013186982 -0.14230382
0003e0 60 17 98 3d 43 06 34 bd f0 86 8f 3c b3 d6 18 bd
       0.074263334 -0.043951284 0.017520398 -0.037314128
0003f0 fb de 85 3c ef 0a c2 3d 7d 21 98 3c be 25 19 bd
       0.016341677 0.09474742 0.018570656 -0.03738951

bias f4 [512]
000000 b9 cd f6 3d 35 a8 0c 3d 3e f7 18 3e de a8 9d 3c
       0.12050957 0.034340102 0.14938065 0.019245561
000010 6f 5e 27 bd 53 c1 fc bb 77 d7 87 3d 27 7b 98 3d
       -0.040861543 -0.0077134757 0.066328935 0.074453644
000020 d8 72 e8 3c ee ab 6f bd 8f 32 7f 3d 80 17 ec bd
       0.028375074 -0.058513574 0.062304076 -0.1152792
000030 70 94 db 3d 4c f0 c7 bc ea 50 0a 3e 7d 51 75 3c
       0.107216716 -0.024406575 0.13507429 0.014973042
000040 54 f3 0b be 15 e3 20 3b 92 c7 0d be 05 0f b5 3d
       -0.13667041 0.0024549414 -0.13845661 0.088407554
000050 02 87 b3 bd 84 b9 c2 3d 08 27 42 bd fb a0 a3 3d
       -0.08765985 0.095080405 -0.047400504 0.07989689
000060 3f 9d aa 3d c2 16 91 3c ad 70 04 3e e8 b4 ac 3c
       0.083307736 0.017711047 0.12933607 0.021082357
000070 66 d8 d3 bd 45 b3 f1 3d a8 2a 57 3c 0d 7a 9e bc
       -0.10344009 0.11801771 0.013132729 -0.019345308
000080 ef e1 1e be d1 3e d6 bd 4c 66 c1 3d 90 df 09 3e
       -0.15515874 -0.104612 0.0944334 0.13464189
000090 c8 49 6e 3d 36 0f 20 bc 7e ea 90 bd 8b 74 96 3c
       0.058175832 -0.009769252 -0.07075976 0.018366119
0000a0 49 62 29 bd 8f 81 20 3d 64 81 06 3e b3 be 20 bc
       -0.041353498 0.039186057 0.13135296 -0.009811091
0000b0 0d 67 13 be 56 ae 84 3d 14 e7 1f bd 9c 89 86 bd
       -0.1439478 0.064785644 -0.039038733 -0.06569216
0000c0 59 92 5d bd 96 b3 63 3e eb 2f 32 3e 7e 54 58 3c
       -0.054094646 0.22236475 0.17401092 0.013203738
0000d0 cf e5 4a be 23 e3 f3 bd b7 75 30 3e 8d 59 55 bd
       -0.19814228 -0.11908557 0.17232405 -0.052087355
0000e0 c7 26 de bc 60 69 a9 bc 35 ee a0 bd 73 73 a7 bd
       -0.0271181 -0.02068013 -0.078579344 -0.08176317
0000f0 4d 07 42 3d 5c 84 a2 bd b2 1f 02 3d 5e 03 b5 bc
       0.047370244 -0.07935402 0.03176851 -0.022096332
000100 d2 5f c2 3d 68 c7 fa 3d 07 28 99 bd 0e c4 5f 3c
       0.094909325 0.12245065 -0.07478338 0.013657583
000110 a1 d9 cd bd ff de 45 3e 24 11 30 bd 8f b9 d9 3d
       -0.10051275 0.19323348 -0.042985097 0.106310956
000120 59 60 8a bc ac 1a a1 3c 42 94 26 3e a3 6c 9f 3d
       -0.016891645 0.019666038 0.16267493 0.07784393
000130 26 72 93 bc c2 6b bc 3b 23 d7 8b bd 2d 14 05 3e
       -0.017998766 0.0057501504 -0.068281434 0.12995978
000140 06 93 1e 3e c5 38 29 3b d7 c2 de 3c 61 50 d6 bc
       0.15485772 0.002582119 0.027192516 -0.026161375
000150 5c 26 05 3e ed 2f 9a 3c 97 ec 7c 3d 93 a7 9e 3d
       0.13002914 0.01882168 0.061749067 0.07746806
000160 95 8a 6d bc 76 d9 0d 3e dc 06 41 bc 0b f9 97 bc
       -0.014498373 0.13852486 -0.011781421 -0.01855137
000170 1c 17 ce bd 62 99 5b 3d 0e 1d 59 bc 27 90 e4 3d
       -0.100630015 0.053613074 -0.013251556 0.111603074
000180 c7 a4 b6 bd a5 72 21 3e 12 5b 75 3d 47 e1 2f 3d
       -0.089181475 0.1576639 0.059901305 0.04293945
000190 7e 86 ab bd d0 b5 1b bd 99 25 84 bb 49 dc 0b bb
       -0.08375262 -0.038015187 -0.0040328023 -0.0021341017
0001a0 8e 01 ab bc 40 c4 bb bc 83 2c 52 3d 59 d1 0b bb
       -0.020874765 -0.022920728 0.05131198 -0.0021334498
0001b0 01 8e 24 be 7a 6f e8 bd bd 3e ae bd a2 50 2c 3e
       -0.16069795 -0.113493875 -0.0850806 0.16827634
0001c0 8e c8 d5 3d ef 21 45 3e 40 08 05 3e 55 47 1f 3c
       0.104386434 0.19251226 0.12991428 0.009721597
0001d0 ac e0 4f 3d e6 d5 a6 3d ac 50 6e bd 25 83 4e 3e
       0.050751373 0.08146267 -0.058182403 0.20167215
0001e0 2b 1c cb bc 3b 19 e0 bd 49 25 1f 3d 03 af c2 3b
       -0.024793705 -0.10942312 0.038853917 0.005941273
0001f0 59 c1 0f 3c be 08 ab bd 15 8b f4 bd 9a b0 a8 3c
       0.008774125 -0.08351277 -0.1194059 0.020592023
000200 b8 aa 1d 3e c2 59 ac 3d 2d 26 8a bc 53 56 4c bc
       0.15397155 0.084155574 -0.016863907 -0.012471753
000210 c8 b0 6d 3e ba c8 d4 ba 7c 99 e9 3d d1 0c fc 3c
       0.23211968 -0.0016234138 0.11406228 0.03076783
000220 43 2f 71 bd 3f c7 6d 3d 38 ad 67 3c 4d d8 3b 3d
       -0.058882963 0.058051344 0.01414042 0.045860577
000230 9c c2 03 bc 18 6b 0c 3e 33 89 ed 3d 2f 5e e4 3c
       -0.008042004 0.13712728 0.11598434 0.027876941
000240 13 92 1d bc b2 cd 81 bc 77 b7 cf 3d 53 b2 9b 3d
       -0.009617346 -0.015845153 0.10142415 0.07602372
000250 7e c1 fd bc 93 da 92 bd 2f 77 8d bc d1 6b c2 bd
       -0.030976053 -0.07170596 -0.017268745 -0.094932206
000260 24 89 a7 bc 63 8c 92 bd 14 cb 0f be a3 01 62 3e
       -0.020451136 -0.07155683 -0.14042312 0.22070937
000270 bc c0 ad bd a9 1d f9 3a cd 85 4f 3d e6 3f a4 3d
       -0.08484027 0.0019006032 0.05066471 0.0802
000280 c8 9b 9c bc 33 1b a5 bd 04 97 e0 bd 1c f9 86 bb
       -0.019117251 -0.080618285 -0.10966304 -0.0041190516
000290 96 fa 39 3c 6a 2e e1 bc e3 2f 1d 3e 93 99 fd 3d
       0.011351248 -0.027487952 0.15350299 0.123828076
0002a0 a5 6f 5a 3d 79 c8 23 3c e9 3a 59 bc 3f 4d 6f bd
       0.05332913 0.009996527 -0.013258674 -0.058423277
0002b0 f0 22 0a 3c a8 e6 0d 3e 4b 44 33 3e 8c f4 9c bd
       0.008431181 0.1385752 0.1750652 -0.07663831
0002c0 fa e8 59 bd 88 b0 2c bd bf 2a c2 bd b9 4a 2a 3e
       -0.0532007 -0.04216054 -0.094808094 0.16630067
0002d0 01 c4 12 be 65 dd 24 bc 48 8a 48 3e fd b5 f7 bd
       -0.14332582 -0.01006255 0.19584 -0.120952584
0002e0 0e 00 e3 bb 96 be 41 3e 72 f4 d9 bc 79 dc ec bd
       -0.0069274968 0.18920359 -0.026605818 -0.11565489
0002f0 f0 0c 7b 3d f9 c9 35 3e 43 4f 20 3d 49 00 55 bd
       0.061291635 0.17752828 0.03913809 -0.052002225
000300 82 ff 61 3d 59 52 95 3c fe ac 0d bd 4c 86 49 3c
       0.055175312 0.018227743 -0.034588806 0.012300085
000310 3c 24 0c bc 51 b3 89 bd 99 46 88 bd c9 1f 84 bb
       -0.008553561 -0.06723655 -0.066540904 -0.0040321094
000320 f5 42 0a 3e e8 b0 4a 3d 9c d0 11 3d f2 1d e8 3c
       0.13502105 0.049485117 0.035599336 0.028334592
000330 ea c3 f7 3d 71 d7 a3 3d 1f 67 92 bc 05 94 29 3d
       0.120979145 0.080000766 -0.017871438 0.041400928
000340 85 3e 88 bd a8 57 4c bc 3c 03 c0 3d 75 25 a4 3e
       -0.0665255 -0.012472071 0.09375617 0.32059827
000350 f1 43 d5 bc 3c 8e 1c bd b6 04 b3 bd 8c 93 a5 3d
       -0.026033374 -0.038221583 -0.08741133 0.08084783
000360 39 0d c7 bd f5 31 4a bc 38 29 05 be 0d 30 82 bd
       -0.09719319 -0.012341012 -0.13004005 -0.06356821
000370 78 75 6e 3d 02 ae ed bd a4 11 8c bd 94 37 15 bd
       0.058217496 -0.11605455 -0.06839302 -0.036429957
000380 79 45 e2 bd 77 c1 f4 3d 7d 44 b9 bd 38 45 13 3e
       -0.11048407 0.11950963 -0.09046266 0.14381874
000390 ae 38 a9 3d 76 1d 11 bd 9e d3 99 bb 66 ae 22 3d
       0.08262764 -0.035428487 -0.004694416 0.0397171
0003a0 7c 1a 67 bd b8 08 41 bd a3 b0 f6 3a c2 b5 cd 3c
       -0.05642174 -0.047127455 0.0018820952 0.025111083
0003b0 3a 66 17 bd 40 75 ee 3d e7 0d 80 bd b0 5e 69 bd
       -0.036962725 0.116434574 -0.06252652 -0.056975067
0003c0 15 bb 21 bd 60 1b 08 3e 92 40 14 3e b4 51 94 bd
       -0.039485056 0.13291693 0.14477757 -0.07242146
0003d0 10 66 b5 bd 1a e2 17 be 2e b9 9b 3d 68 6c 65 bc
       -0.088573575 -0.14832345 0.076036796 -0.014002897
0003e0 d2 55 d4 bc b7 07 46 bd cd c7 b4 bd 09 20 4c bd
       -0.025919829 -0.0483472 -0.088271715 -0.04983524
0003f0 ab e8 80 3d da 82 01 3c 82 c1 c9 3d fb cb 31 3e
       0.06294378 0.007904733 0.09851362 0.17362969

weight f4 [10, 512]
000000 0e 62 0c 3d 38 59 70 3d 8c e6 46 be 2a af 4c 3d
       0.0342732 0.058678836 -0.19423884 0.049971737
000010 c7 08 11 bd ec 15 bd bc 7f a0 0d 3d 0a 91 a4 bc
       -0.03540876 -0.023081742 0.03457689 -0.020088691
000020 53 e0 47 be 12 56 b4 3c e8 07 ad be 6f 8b 85 3d
       -0.19519167 0.022013698 -0.33795094 0.065207355
000030 e8 c0 f7 3d 62 84 5a bd 08 06 0c be 83 ae 95 3c
       0.12097341 -0.053348906 -0.13674176 0.01827169
000040 e0 5b eb bd 75 c6 0b bf d0 5d 01 be ee a7 03 be
       -0.11492133 -0.54599696 -0.12633443 -0.12857029
000050 2e 7b ee 3c 23 8d fd bc 75 d9 db 3d 28 82 42 3d
       0.029111471 -0.030951088 0.10734836 0.047487408
000060 7f f0 46 3e d0 f0 9c bd 0c e3 5f bd 7f bb 13 bc
       0.1942768 -0.07663119 -0.05465989 -0.0090168705
000070 09 c2 a6 bc 85 10 20 be 0e 5e 55 bd 51 47 3a bd
       -0.020356195 -0.15631302 -0.05209165 -0.04547817
000080 a6 31 50 bd 89 18 82 bb 59 21 06 bd 95 34 25 3d
       -0.0508286 -0.00397021 -0.032746647 0.04033335
000090 98 8a 80 bd 76 37 9f 3d e8 ba 0b bd 7a 1c aa bd
       -0.06276435 0.0777425 -0.034113795 -0.08306213
0000a0 b8 25 cd bd 6b 4e a1 3c a9 e2 87 3c 5a 0c 16 3e
       -0.1001696 0.019690713 0.016587572 0.14653149
0000b0 ec df 64 3d 51 c8 e0 bc 49 99 03 3e 5c 90 78 3d
       0.05587761 -0.027439268 0.12851442 0.060684547
0000c0 d4 52 d0 be 43 2b 5a be 36 2d b9 3c d4 ec 79 bd
       -0.40688193 -0.21305566 0.022604566 -0.061016873
0000d0 1c 40 9b 3d ff fa b0 bb 6f 36 9d be 0e 27 ba 3c
       0.07580587 -0.005401015 -0.30705592 0.0227237
0000e0 5e a9 85 bd 6f 6f d3 3c 6b 0b d0 bd 3f 22 97 3d
       -0.06526445 0.025809972 -0.10158428 0.07379579
0000f0 6c 06 62 3b f7 8f 95 bd a5 59 8d bd 23 1a 3c 3d
       0.003448869 -0.0730285 -0.06901864 0.045923363
000100 72 c9 8b be 4e e1 84 be 0b 3f 51 bd c7 cf 3d 3d
       -0.27302128 -0.25953144 -0.051085513 0.04634073
000110 60 3a 8d bc 06 c4 b9 3e 62 af 3b 3e 53 c7 01 bb
       -0.01723975 0.36282367 0.18328622 -0.0019802644
000120 90 57 b7 3d 8e 9e 4b bd bf 85 09 be 83 ea b1 bd
       0.08952248 -0.049711756 -0.13429926 -0.08687308
000130 02 cc b4 3c f1 b0 9a 3d e6 f4 17 3d 2c 96 91 be
       0.022069935 0.0755328 0.037098788 -0.28434885
000140 70 d8 98 3d 35 2a 86 3d 78 58 fa bc 1e 16 0e 3c
       0.07463157 0.06551019 -0.030559763 0.008672265
000150 cf ca 83 3c a2 48 8e 3d be 76 aa 3e 0b 16 bf bc
       0.016087918 0.06947447 0.33293718 -0.02332594
000160 b6 4f be 3c 31 6b ac 3d 49 d8 aa bc 99 db e0 bc
       0.023231369 0.08418883 -0.020855086 -0.027448462
000170 18 f6 fb 3c 06 20 8c be 1a 5b be 3d 47 8c 79 3d
       0.030756995 -0.27368182 0.0929472 0.060924795
000180 e9 67 2b bc 22 2c d1 3d 38 82 ad 3d a3 dd 09 3e
       -0.010461786 0.10213496 0.08472103 0.13463454
000190 6c 40 ea bd 4d 51 65 be af 75 91 bd 5b de 58 bc
       -0.11438069 -0.22394295 -0.071025245 -0.013236607
0001a0 3f a8 d2 3c eb 68 1f bd 4c b5 62 3d f7 23 bf be
       0.025714992 -0.038918417 0.05534868 -0.37332126
0001b0 44 dc 14 bd c3 03 4f bd 14 27 05 3e e8 d5 92 3d
       -0.036342874 -0.050540697 0.13003188 0.07169706
0001c0 dc 7a dc 3d f9 29 15 bd 24 a2 cf be 34 2d 78 3c
       0.10765621 -0.03641698 -0.4055339 0.015147496
0001d0 1b 84 05 3d 04 7e 9d be b6 bf de 3d 9f 56 d7 3d
       0.03259669 -0.30760205 0.1087641 0.105145685
0001e0 a3 df 0f bd 4c 38 16 be 4d 9c e2 bd 6b d7 39 3d
       -0.035125386 -0.14669913 -0.11064968 0.045371454
0001f0 4a c1 96 3d ac de 56 3c c3 48 ff 3d b9 fc 8b 3e
       0.07361086 0.013114613 0.1246505 0.2734125
000200 a4 0a 4f 3d bf 52 a8 be e1 6a 8e be 61 e1 52 bd
       0.050547257 -0.3287563 -0.27815917 -0.05148447
000210 87 5c 38 bc f7 ea a1 bd 31 79 a3 3c 56 87 cc bd
       -0.011252529 -0.07906144 0.01995525 -0.09986751
000220 10 eb ef bc 90 16 10 be fb 52 6c 3e 6f 09 00 bc
       -0.029286891 -0.14071107 0.2307853 -0.007814749
000230 4f 25 e4 bc a7 a3 77 bc 62 08 7c be 1d dc be bd
       -0.027849821 -0.015114701 -0.24612573 -0.09319327
000240 f1 7c 6f 3d 96 b4 6b bd dc 83 32 bc 72 e7 2f 3e
       0.058468763 -0.057545267 -0.010895696 0.17178133
000250 21 b0 7d bd ff ff 37 bb c2 0b 27 3d 18 16 84 3d
       -0.061935548 -0.002807617 0.040782697 0.064495265
000260 7e 34 41 bd fc ae a1 3d 61 c2 d5 3d 0c 71 12 bf
       -0.0471692 0.07894704 0.104374655 -0.57203746
000270 2a e2 3d be 17 f5 3a bd 07 fe 16 be af 7c 06 3d
       -0.18543306 -0.045643892 -0.14745341 0.03283375
000280 e0 43 90 bc 1f 73 4c 3d c9 1d 95 bc 4f d9 28 bc
       -0.01761049 0.049914476 -0.01820268 -0.010305717
000290 e6 52 7a 3d f7 8f 24 bd 1a db 9c 3d 90 c3 e5 3c
       0.061114214 -0.040176358 0.07658978 0.028047353
0002a0 06 52 49 ba 3a d1 32 3d 2e 85 d8 3c 44 48 69 3e
       -0.0007679764 0.043656565 0.026430693 0.22781473
0002b0 b6 fd 2f bd a8 7d c1 bc 31 8e 2f 3d ee cf 94 bc
       -0.042966567 -0.023619488 0.042860214 -0.018165555
0002c0 9d b7 ae 3c 26 4d 85 be 56 7b a5 bc 0a 71 c2 bd
       0.021327788 -0.26035422 -0.020200413 -0.09494217
0002d0 cd cc de 3e 9a 24 c7 3c 44 99 90 be 58 6b fb 3b
       0.43515626 0.024309445 -0.28241932 0.0076727085
0002e0 14 48 89 3d 24 e8 a1 be 7e 6b 88 bd f7 6d 68 bb
       0.06703201 -0.31622422 -0.066611275 -0.0035465935
0002f0 e0 02 68 be f7 2a 41 3d a7 c2 50 be f7 01 e8 bb
       -0.22657347 0.047160115 -0.20386754 -0.0070803124
000300 90 91 b0 be 34 b1 a1 3d 8a ff bf bd 22 58 8b bc
       -0.34486055 0.07895127 -0.09374912 -0.017009798
000310 aa 89 56 3c 56 8f 8d 3d da a8 84 3d 40 3a c4 3d
       0.013094345 0.06912105 0.064775184 0.09581423
000320 48 0b da be a5 a2 6d 3d 42 ed 3f be b7 58 2e 3d
       -0.42586732 0.058016438 -0.1874285 0.042565074
000330 d6 2c 85 3e 1b eb 7c be 68 c9 89 bd 3c a5 fb 3d
       0.2601077 -0.2469906 -0.06727868 0.12287375
000340 d9 4e a1 bb da 63 26 be ff 38 c6 3e 96 ec 1e bf
       -0.0049227295 -0.16249028 0.3871536 -0.6207975
000350 40 b9 8a 3c 33 a1 ff bc 3f 14 7e 3d 14 52 bb bc
       0.016934037 -0.031204795 0.062031027 -0.022866286
000360 73 f7 f9 bb c4 60 cc 3c 32 75 20 bb 7c c0 98 3b
       -0.007628375 0.024948485 -0.0024483916 0.004661618
000370 06 8c 7b bd 37 93 42 3d fe 32 b2 bd 62 8e 4e 3d
       -0.061412834 0.047503676 -0.08701132 0.050428756
000380 f2 d3 a0 bc 65 ac 4d bd 1d 71 aa 3d be e6 24 bd
       -0.019632313 -0.050213236 0.08322356 -0.040259115
000390 a1 5c 69 bd 46 1e 49 3d 86 d3 24 3c 94 88 a6 3e
       -0.056973103 0.049101137 0.010060197 0.32526076
0003a0 ce 6f 11 3c b6 63 45 be 89 46 bc bd c7 b4 83 be
       0.008876754 -0.19276318 -0.09193141 -0.2572386
0003b0 af a9 76 3d dc de 93 be 85 5d 2a 3d 87 8d 1e be
       0.060220417 -0.28880966 0.041593093 -0.15483676
0003c0 cf ed 19 bf 1b 8e 77 bd 90 aa 54 3b 7b 47 ce 3d
       -0.6012849 -0.060438257 0.0032450296 0.100722276
0003d0 bc 97 c6 3e 9d bb 27 bd 4b 01 5e 3d 5b 67 b9 be
       0.3878764 -0.040950406 0.05420045 -0.36211666
0003e0 c8 1e 63 3e f6 82 94 bd 87 03 cc 3c 17 37 63 3d
       0.22179711 -0.07251541 0.024904026 0.05547246
0003f0 ba b7 36 bd 5c 22 e1 3d a5 18 a3 3d 8f b9 8a be
       -0.04460881 0.10992882 0.07963685 -0.27094695

bias f4 [10]
000000 c9 d1 a1 bd 88 8d 2e bd 3c 63 a5 3b 21 7d ac 3c
       -0.079013415 -0.042615443 0.00504723 0.02105576
000010 e8 2b 07 be 6f 03 41 3c 67 d5 2b 3e 4a 75 82 3c
       -0.13200343 0.011780604 0.16780625 0.015925068
000020 e4 fa 2b 3d ed 9e 00 3d
       0.041987315 0.031401563
