Parameters exploration/M(Red 1, SGD, CEL)/1-SGD-CEL_save.pt (torch, 658183 bytes, 10 tensors)

conv1.weight f4 [32, 1, 3, 3]
0	0x3f0f1ee4	0.5590651
1	0xbdb5d1fd	-0.08877943
2	0xbe8eb0a1	-0.27869132
3	0x3ef383d3	0.4756151
4	0xbdf009ab	-0.11720594
5	0x3dbf10d9	0.09329385
6	0x3e819163	0.25306234
7	0xbef7698c	-0.48322713
8	0x3dc3ffd1	0.095702775
9	0x3f17d626	0.5931114
10	0x3e978dbd	0.29600325
11	0xbf2bd545	-0.671223
12	0x3f24a62c	0.6431606
13	0x3f2980a4	0.66211915
14	0xbe5cde98	-0.21569288
15	0x3ec4ac3a	0.38412648
16	0x3f20baae	0.6278485
17	0xbe2fbe61	-0.17162468
18	0x3e8f7318	0.28017497
19	0x3f0f6eae	0.5602826
20	0x3f7a818e	0.97853935
21	0x3e850d1c	0.25986564
22	0x3e45a655	0.19301732
23	0x3ed3e789	0.41387585
24	0x3e498b7c	0.19682115
25	0x3f3c9ae4	0.73673844
26	0xbde560a8	-0.11200076
27	0x3e97ea59	0.2967098
28	0xbdfcc8e5	-0.12343005
29	0xbe947426	-0.28994864
30	0x3e8623f9	0.2619932
31	0xbe97ce7c	-0.29649723
32	0x3ece5b47	0.40304014
33	0x3f0650fd	0.5246733
34	0xbeeb6ea8	-0.45982862
35	0x3e3eba09	0.18625654
36	0x3eb18e5d	0.34678927
37	0x3f02fa04	0.51162744
38	0x3eee25a8	0.46513104
39	0xbe8561f2	-0.2605129
40	0x3e8fe0f5	0.28101316
41	0x3ead1589	0.33805493
42	0x3d83950a	0.06424911
43	0xbe1214c3	-0.14265732
44	0x3e60ef47	0.21966277
45	0x3e507bf2	0.20359781
46	0x3e0fb8d4	0.1403535
47	0xbed12383	-0.40847406
48	0x3e476b6a	0.19474569
49	0xbe931238	-0.28724837
50	0xbe6079ca	-0.21921459
51	0xbe75bc46	-0.23997602
52	0x3ec67b51	0.38765958
53	0xbe135f08	-0.1439172
54	0x3eaf3f83	0.34228143
55	0x3e135550	0.14388013
56	0xbf3353fe	-0.70050037
57	0x3f37e8b6	0.71839464
58	0xbe56632f	-0.20936273
59	0xbf4085c8	-0.75204134
60	0x3f13652b	0.57576245
61	0xbe64b58c	-0.2233488
62	0xbf0c3930	-0.5477476
63	0x3eaf2f46	0.34215754
64	0x3f2cd854	0.6751759
65	0x3f1803d5	0.5938085
66	0xbe7b5348	-0.24543488
67	0x3cfbdc0c	0.030744575
68	0x3f053a2c	0.5204189
69	0xbdb703a7	-0.089362435
70	0x3e26874f	0.16262554
71	0xbe1c7283	-0.15278058
72	0xbe8f4931	-0.27985528
73	0xbe88dc17	-0.26730415
74	0xbd95f13e	-0.07321404
75	0xbe71a14a	-0.23596683
76	0xbe6eb785	-0.23312195
77	0xbe61b92c	-0.22043294
78	0xbd0b3965	-0.033990283
79	0xbe7e6a04	-0.24845129
80	0x3ee8b6df	0.4545202
81	0xbe9e98b0	-0.30975866
82	0x3eb8b6a3	0.3607684
83	0xbcb62742	-0.022235516
84	0xbdc058b9	-0.093919225
85	0xbe9305cd	-0.28715363
86	0xbeb8bfc9	-0.3608382
87	0x3eadff43	0.33983812
88	0xbcf22b95	-0.029561797
89	0x3ecbe980	0.39826584
90	0x3ed45779	0.41472986
91	0xbe9240c6	-0.28565043
92	0x3ead6015	0.33862367
93	0xbda8defd	-0.08245657
94	0xbe925021	-0.28576759
95	0xbd2cee39	-0.042219374
96	0x3ebee27f	0.37282178
97	0xbf222a20	-0.6334553
98	0x3d8be349	0.068304606
99	0x3e33d1c4	0.17560488
100	0x3f0d453d	0.55183774
101	0x3d3fa843	0.046791326
102	0xbe572c05	-0.21012886
103	0x3de2c53c	0.11072776
104	0xbe244da2	-0.1604524
105	0x3ec3aa8d	0.38216057
106	0x3d0c20bd	0.03421091
107	0xbecfb2b4	-0.40566027
108	0x3ec9d9c0	0.39423943
109	0xbe8179bb	-0.25288185
110	0x3e9bf515	0.3046042
111	0x3ec0e8b5	0.3767754
112	0xbeb7b76b	-0.35882124
113	0x3eae9f15	0.34105745
114	0x3dac3ca2	0.08410002
115	0xbd24249d	-0.04007398
116	0x3e8292b2	0.25502545
117	0xbf0f2744	-0.5591929
118	0xbf3cf75d	-0.73814946
119	0xbf2dcaf1	-0.6788779
120	0x3f059a84	0.521889
121	0x3eabdc12	0.33566338
122	0x3e695f64	0.22790295
123	0x3f0dd7d7	0.5540747
124	0xbc277c44	-0.010222498
125	0xbe0aa858	-0.1354078
126	0x3e59c9f6	0.21268448
127	0xbea19a87	-0.31563208
128	0xbecd330d	-0.4007801
129	0x3db4aeb5	0.08822385
130	0xbed579db	-0.4169453
131	0x3e900427	0.28128168
132	0x3f0485fa	0.5176693
133	0x3d9467d2	0.07246365
134	0xbea91143	-0.33020982
135	0xbf2f20b7	-0.68409294
136	0xbe9d08a5	-0.30670658
137	0xbefeb9f0	-0.49751234
138	0xbe3527f0	-0.17691016
139	0xbed67947	-0.41889402
140	0xbe12c361	-0.14332344
141	0x3d8fc49a	0.07019921
142	0x3e074d0b	0.13212983
143	0x3f144f32	0.5793334
144	0x3c4cc034	0.012496997
145	0xbe6a450c	-0.22877902
146	0xbd99fc83	-0.07518866
147	0x3ddfb22d	0.10922656
148	0x3dbbfe41	0.091793545
149	0x3d24a41f	0.04019558
150	0xbd971389	-0.07376773
151	0x3e413452	0.18867615
152	0xbe535803	-0.20639043
153	0x3f0f8b9c	0.560724
154	0x3e9b4515	0.30326143
155	0x3f3d08b4	0.73841405
156	0x3f2a2fe3	0.6647932
157	0x3db4b6ca	0.08823927
158	0x3ee1ffc1	0.44140437
159	0x3d903a67	0.07042389
160	0x3f82a58a	1.0206769
161	0xbdee952a	-0.116495445
162	0x3f188b8a	0.5958792
163	0xbe8be101	-0.27320102
164	0x3ebb3d00	0.36569977
165	0x3d452aa6	0.048136376
166	0xbefea2d0	-0.4973359
167	0x3e265037	0.16241537
168	0x3f0c30ac	0.5476177
169	0xbf5f38fc	-0.87196326
170	0xbef5138b	-0.47866473
171	0x3ae4bc00	0.0017451048
172	0x3dc32534	0.0952858
173	0xbcc143c0	-0.023591876
174	0xbd4a0aa8	-0.04932657
175	0xbe6df593	-0.2323821
176	0x3ddd5700	0.108076096
177	0xbe3bf5e0	-0.18355513
178	0xbc146d00	-0.009059191
179	0xbe732826	-0.23745784
180	0xbe3cb097	-0.18426739
181	0x3f1d89dd	0.6153849
182	0xbe021f20	-0.12707186
183	0x3e9980a6	0.29980963
184	0x3ef3cd45	0.47617546
185	0xbe97c8a6	-0.2964527
186	0xbeeef63e	-0.46672243
187	0x3f127ff2	0.5722648
188	0x3e6ded2c	0.23235005
189	0xbe66ff08	-0.22558224
190	0x3e7b5a2f	0.24546121
191	0xbd26dfac	-0.040740654
192	0xbe86eb6b	-0.26351485
193	0xbe48ebe0	-0.19621229
194	0x3e6892fc	0.2271232
195	0x3c42a6dc	0.011880603
196	0xbe99404c	-0.29931867
197	0x3e772ee1	0.24138977
198	0x3d56292f	0.05228537
199	0xbe28c388	-0.16480839
200	0xbe531c60	-0.20616293
201	0xbe38c88e	-0.18045256
202	0x3e83ceb6	0.25743645
203	0xbe2c18da	-0.16806355
204	0x3e91867c	0.28422916
205	0xbdbb4128	-0.09143287
206	0xbd6889e9	-0.056772146
207	0x3ee7f13f	0.45301244
208	0x3e8250e6	0.25452346
209	0xbe58571f	-0.21126984
210	0x3ea6e241	0.32594493
211	0x3e45dee5	0.19323309
212	0x3f0a819d	0.54104024
213	0xbeba255b	-0.36356625
214	0xbe83d9bb	-0.25752053
215	0x3c9fafd3	0.01949302
216	0x3e661e48	0.22472489
217	0xbe461b79	-0.19346417
218	0xbe9bec40	-0.30453682
219	0xbe0a39e2	-0.13498643
220	0x3e99de3a	0.30052358
221	0xbe9b96ac	-0.3038839
222	0xbe7a5772	-0.2444742
223	0xbe98f037	-0.2987077
224	0x3dd68d09	0.10476119
225	0x3f3877e3	0.7205793
226	0x3f01ca27	0.50699085
227	0xbefbec66	-0.49203795
228	0x3f18b5ff	0.59652704
229	0xbe8c36ce	-0.27385563
230	0xbf337b09	-0.7010961
231	0x3ef47a8b	0.47749743
232	0xbf046e24	-0.5173056
233	0xbf5d018f	-0.86330503
234	0x3ea6bb41	0.32564738
235	0x3f60ddb1	0.87838274
236	0x3f16df0c	0.5893409
237	0xbda8501b	-0.08218404
238	0xbead8d21	-0.33896735
239	0x3eb19a64	0.34688103
240	0x3ce90d73	0.028448796
241	0xbda732a1	-0.081639536
242	0xbd499c19	-0.049221132
243	0xbeb2ed87	-0.34946844
244	0x3d9055fc	0.0704765
245	0xbebd1c91	-0.36935857
246	0xbec8d482	-0.3922463
247	0xbe4541f1	-0.19263436
248	0x3ef1f70b	0.4725879
249	0x3e0a022e	0.13477394
250	0x3ec1fc56	0.3788783
251	0x3f081d22	0.53169453
252	0xbe22f1c0	-0.15912533
253	0x3f91d4a4	1.1393018
254	0x3f5689b6	0.8380388
255	0x3f2ac054	0.6669972

conv1.bias f4 [32]
0	0xbe1f86bc	-0.15578741
1	0xbbba3257	-0.0056822705
2	0x3a71e552	0.0009227592
3	0xbe2c7d7f	-0.16844748
4	0xbd0265c9	-0.03183535
5	0x3eae7d92	0.34080178
6	0x3f1735e5	0.5906661
7	0xbaee20f2	-0.0018167777
8	0x3e3bbf01	0.18334581
9	0xbc993d82	-0.018706087
10	0x3dff1960	0.12456012
11	0xbe37f85c	-0.17965835
12	0x3dd9acfd	0.10628698
13	0x3e8f3f0e	0.27977794
14	0x3e878cb3	0.26474532
15	0x3e9562e1	0.29177
16	0xbea910ac	-0.33020532
17	0xba0da6b8	-0.0005403566
18	0x3ec0afb9	0.37634066
19	0xbe9451ae	-0.28968567
20	0xbe9ad5c8	-0.30241227
21	0xbdcddcd6	-0.10051887
22	0xbe889fcc	-0.26684415
23	0xbe31eab1	-0.17374684
24	0xbe735f0d	-0.23766728
25	0x3efa3686	0.48869723
26	0xbbe01e7d	-0.006839572
27	0xbd65da88	-0.05611661
28	0xbbd142c2	-0.006386132
29	0xbe64b59c	-0.22334903
30	0xbdb89f6b	-0.090147816
31	0x3f423f09	0.75877434

conv2.weight f4 [64, 32, 3, 3]
0	0xbc6fba4a	-0.014631817
1	0xbc05acd1	-0.008158878
2	0x3c03b6ee	0.008039219
3	0x3c3ecd09	0.011645564
4	0xbd12f8e0	-0.035881877
5	0xbca827a8	-0.020526722
6	0xbcb01ae6	-0.021497201
7	0xbc3f36b7	-0.01167076
8	0x3c58bd94	0.013228793
9	0x3d27a6de	0.04093062
10	0xbd3febda	-0.046855785
11	0x3c0838e2	0.008314343
12	0xbbc57ddd	-0.006026967
13	0x3d2cb662	0.04216612
14	0xbd35aeac	-0.044356033
15	0x3d6b96eb	0.057516973
16	0xbc4b9fe5	-0.012428259
17	0xbd83ba0c	-0.0643197
18	0x3d35a3fb	0.044345837
19	0xbd6042d5	-0.054751236
20	0xbd8cc2c9	-0.0687309
21	0xbc5df229	-0.013546505
22	0xbc4dae39	-0.012553745
23	0xbd6f6ded	-0.058454443
24	0x3d060885	0.03272297
25	0x3be1cef1	0.0068911244
26	0x3d028afa	0.03187082
27	0x3c82e8e9	0.0159802
28	0xbcd71a36	-0.026257616
29	0xbc7025c3	-0.014657441
30	0xbc7f398b	-0.015577684
31	0xbd202573	-0.039098214
32	0xbd09c7c2	-0.03363777
33	0x3c4cd3a2	0.012501629
34	0x3c63610e	0.01387812
35	0x3cf46cb2	0.029836986
36	0x3ca3d05e	0.019996818
37	0x3d502077	0.05081221
38	0xbcb59e8f	-0.022170333
39	0x3cf6a287	0.030106796
40	0x3d4838f3	0.048882436
41	0x3d1e7eeb	0.038695257
42	0x3d36d6be	0.044638388
43	0xbd799a2c	-0.060938045
44	0x3921d133	0.0001543209
45	0xbd086c81	-0.033306602
46	0x3d57418d	0.05255275
47	0xbd2a3c78	-0.041561574
48	0xbd1d4cc7	-0.0384033
49	0x3cece0b6	0.028915744
50	0xbb9df44e	-0.004820383
51	0x3cf6a571	0.030108185
52	0xbcf7d82e	-0.03025445
53	0x3d27b733	0.040946197
54	0x3a35e9a1	0.00069394155
55	0xbd42a2e7	-0.047518637
56	0x3d8291b1	0.06375445
57	0xbb3da845	-0.0028939408
58	0x3ca6bdbd	0.020354146
59	0x3c64ae9a	0.013957644
60	0x3d306901	0.04306889
61	0x3d124b24	0.03571619
62	0x38c5e808	9.436911e-05
63	0xbd2b13cb	-0.041766923
64	0x3d6c9838	0.057762355
65	0xbd74cf7c	-0.059768185
66	0x3cf5ccc0	0.030004859
67	0xbb606ce5	-0.0034244594
68	0xbc4db4e3	-0.012555334
69	0x3d57319e	0.052537553
70	0xbba8dbc7	-0.0051531526
71	0x3d40ed57	0.047101345
72	0x3c6a28d2	0.014291959
73	0xbd2cca38	-0.04218504
74	0x3c9b61c2	0.018967513
75	0xbd348aac	-0.04407756
76	0x3d57cea6	0.05268731
77	0xbc40f17c	-0.011776324
78	0xbd09f642	-0.033682115
79	0x3d3223ee	0.043491296
80	0xbcdd0203	-0.026978498
81	0x3d6a42c5	0.057192583
82	0xbca007e1	-0.019535007
83	0xbd65aa92	-0.05607087
84	0x3d3dee38	0.04636976
85	0x3d4b787a	0.049675442
86	0x3b9be5f1	0.0047576358
87	0xbd4cdc2a	-0.050014652
88	0xbcd5de16	-0.026106875
89	0xbcd84825	-0.026401589
90	0xbc0497a2	-0.008092793
91	0x3c2c8195	0.010528942
92	0xbd5b3b7c	-0.053523526
93	0xbd20b59e	-0.039235704
94	0x3ca62524	0.020281382
95	0x3d447d10	0.04797083
96	0x3b824be5	0.0039763325
97	0x3d0cb036	0.034347735
98	0x3c81e55a	0.015856434
99	0xbd218652	-0.03943474
100	0x3d5e9fbd	0.054351557
101	0x3d4026b7	0.04691192
102	0x3cbc185b	0.022960832
103	0x3d38095a	0.044930793
104	0xbbfe3ad1	-0.0077584763
105	0x3c3f33d3	0.011670071
106	0xbb6a9961	-0.0035796987
107	0xbc497505	-0.012295966
108	0xbbca484a	-0.0061731683
109	0x3cde4600	0.027132988
110	0x3d064125	0.03277697
111	0x3d685c73	0.05672879
112	0xbd4a61f3	-0.049409818
113	0xbd2bd251	-0.04194862
114	0xbd0c4c0d	-0.034252215
115	0xbd1f28bf	-0.038857218
116	0xbd635f73	-0.05551095
117	0xbce03a76	-0.027371626
118	0xbd7b1b93	-0.061305594
119	0x3d25fe5b	0.040525775
120	0xbce49317	-0.02790217
121	0xbd76db90	-0.060267985
122	0xbd08d277	-0.03340384
123	0xbb8be55f	-0.0042692865
124	0xbd24fc84	-0.04027988
125	0xbc33b555	-0.010968526
126	0x3b41bca3	0.00295619
127	0x3ca397f0	0.01996991
128	0xbcdb9fc9	-0.02680959
129	0x3cf954f6	0.03043602
130	0x3cc37154	0.02385775
131	0xbd468423	-0.04846586
132	0x3d577204	0.05259897
133	0xbc461006	-0.012088781
134	0xbd0b102d	-0.033950973
135	0xbc5f088d	-0.0136128785
136	0x3bb5e316	0.0055507524
137	0xbd7f50bc	-0.062332854
138	0xbcebd734	-0.02878914
139	0xbc3f162f	-0.011663004
140	0x3d09165d	0.033468593
141	0x3cc6f9af	0.02428898
142	0xbd3c513d	-0.045975912
143	0xbd53d7ab	-0.05171935
144	0xbc81a74f	-0.01582685
145	0x3d5b8129	0.053589974
146	0x3d076a67	0.033060458
147	0xbcb6f263	-0.022332376
148	0xbd172d25	-0.036908288
149	0xbd285db5	-0.04110499
150	0x3d1f44b1	0.03888387
151	0x3d2c07ce	0.04199963
152	0xbc372946	-0.011179274
153	0xbcfdbaa7	-0.030972792
154	0xbd0ea104	-0.034821525
155	0xbcf50c81	-0.029913189
156	0x3d30de9d	0.04318105
157	0xbbad3d85	-0.0052868747
158	0xbd2b8788	-0.0418773
159	0xbcc66e45	-0.024222502
160	0x3d2c1d2e	0.042020015
161	0xbd69808a	-0.05700735
162	0xbd53c3a0	-0.051700234
163	0xbd6494d2	-0.05580599
164	0x3d31c6de	0.043402545
165	0x3b808381	0.0039219265
166	0x3c806146	0.015671384
167	0x3c49e03d	0.012321529
168	0x3bf747eb	0.007546415
169	0x3ac472bd	0.0014987808
170	0xbd57420b	-0.052553218
171	0xbd7142af	-0.058901485
172	0x3d4655e1	0.048421744
173	0x3bb72728	0.0055893846
174	0xbcce57bc	-0.02518832
175	0x3d1b693b	0.037942152
176	0x3d45c0fb	0.048279744
177	0x3d616815	0.0550309
178	0xbb8a8698	-0.0042274706
179	0xbd70161f	-0.058614846
180	0x3d0fbeb5	0.03509398
181	0x3bb25653	0.0054424196
182	0xbc5153f7	-0.012776366
183	0x3d417da4	0.04723896
184	0xbce656b2	-0.028117511
185	0xbc463c07	-0.012099273
186	0xbd247a83	-0.0401559
187	0xbb884cb3	-0.004159534
188	0x3d0629e0	0.03275478
189	0x3d54a89b	0.051918607
190	0xbc5cad28	-0.013469018
191	0xbcf6319b	-0.03005295
192	0xbcc6a88b	-0.02425029
193	0xbd448f67	-0.04798832
194	0x3c683b40	0.014174283
195	0x3bf5080b	0.0074777654
196	0x3ab561e2	0.0013838375
197	0xbd00f887	-0.031487014
198	0xbce7c41c	-0.028291754
199	0x3d5d7fcd	0.05407696
200	0xbc1eae69	-0.009685137
201	0xbd359fe3	-0.044341933
202	0x3c834efd	0.016028875
203	0x3d5ff8b2	0.054680534
204	0x3ca9888a	0.02069499
205	0x3cc50c3b	0.024053684
206	0xbd33d205	-0.043901462
207	0x3d74c6f0	0.059760034
208	0xbc12bd08	-0.008956201
209	0xbc380c2c	-0.011233371
210	0xbca607a0	-0.020267308
211	0x3d512f27	0.05107036
212	0x3cb6b320	0.02230221
213	0xbcce61b8	-0.02519308
214	0xbca22d07	-0.019796861
215	0x3d82a5f7	0.063793115
216	0x3cf54705	0.029941091
217	0xbcb0f3a0	-0.021600544
218	0x3a9e169e	0.0012061184
219	0xbd3ca2ef	-0.046053823
220	0x3d1c76ad	0.038199116
221	0xbd54b358	-0.051928848
222	0xbcd6dbcc	-0.026227854
223	0xbbe8df8b	-0.0071067265
224	0xbd539c44	-0.0516627
225	0xbd4de9bd	-0.05027174
226	0x3d1552ac	0.036455795
227	0xb9d2b452	-0.0004018867
228	0xbd8c9a65	-0.06865386
229	0x3d8185cc	0.06324348
230	0x3d3049ed	0.04303925
231	0x3d224838	0.039619654
232	0x3d55f806	0.052238487
233	0x3cc8aa4f	0.024495272
234	0x3ce7ba33	0.028287029
235	0x3ba307ec	0.0049753096
236	0x3d4181a5	0.04724278
237	0xbb4cc2bc	-0.0031244
238	0x3caaf325	0.020867893
239	0xbd1b06ff	-0.03784847
240	0x3d3c482a	0.04596726
241	0xbd3dc78d	-0.046332885
242	0x3c1747a3	0.009233388
243	0x3d0bf922	0.03417314
244	0xbacc3d61	-0.0015582257
245	0x3cccc8aa	0.024998028
246	0x3c31b102	0.010845425
247	0x3d4525ca	0.04813174
248	0x3c0c938e	0.008580102
249	0xbd4c80b9	-0.049927447
250	0xbd780dd8	-0.060560077
251	0x3d36406f	0.044495042
252	0x3cd168bf	0.025562642
253	0x3c81fa3f	0.015866397
254	0xbd54384d	-0.051811505
255	0x3d716649	0.058935437

conv2.bias f4 [64]
0	0xbd07682b	-0.033058327
1	0xbdb02f5c	-0.08602783
2	0xbdce6f8d	-0.100798704
3	0xbca00ef3	-0.019538378
4	0xbdbe7223	-0.092991136
5	0x3d44e09d	0.04806577
6	0xbd123f85	-0.03570511
7	0x3b4b6cc2	0.0031040167
8	0x3dff8eed	0.12478433
9	0x3c816722	0.015796248
10	0x3d08f5af	0.033437427
11	0xbdb9958e	-0.090617284
12	0xbc5da153	-0.013527232
13	0xbe076c06	-0.13224801
14	0xbc1c89c3	-0.009554329
15	0x3d9e2018	0.07720965
16	0xbe004265	-0.12525328
17	0xbcb50580	-0.02209735
18	0x3e485ed0	0.19567418
19	0xbbacc6a6	-0.005272704
20	0xbdbaa8b1	-0.091142066
21	0xbdafadac	-0.08578047
22	0xbd77c25c	-0.06048809
23	0xbe09b830	-0.13449168
24	0xbd9953f2	-0.074867144
25	0x3dc0c8c8	0.09413296
26	0x3baba0de	0.0052376827
27	0x3d870352	0.0659243
28	0xbc9f5701	-0.019450666
29	0xbd8d844b	-0.069099985
30	0xbd551072	-0.052017637
31	0x3d90a158	0.07062024
32	0xbc7799a1	-0.015112312
33	0xbcb1281f	-0.021625577
34	0x3d440cd2	0.04786379
35	0xbce0f1f2	-0.027459119
36	0x3d07bc9a	0.03313885
37	0xbd6c9514	-0.05775936
38	0x3d53b36c	0.051684782
39	0xbd62bdd6	-0.055356823
40	0xbd120b66	-0.0356554
41	0xbcfe030e	-0.031007316
42	0xbcd36cfa	-0.0258088
43	0xbdab9d9c	-0.08379671
44	0x3e0bbbeb	0.13645904
45	0xbd531518	-0.05153379
46	0xbd87002a	-0.06591828
47	0x3dfae795	0.12251202
48	0xbd310998	-0.04322204
49	0xbd55c441	-0.052189115
50	0x3dd8f1fe	0.10593031
51	0x3d643ada	0.055720188
52	0xbd8243f4	-0.06360617
53	0xbdc57cdf	-0.09642958
54	0xbd5df2ff	-0.054186817
55	0xbd447e55	-0.047972042
56	0xbc3603de	-0.01110932
57	0xbd9f71df	-0.07785391
58	0xbdad665f	-0.08466791
59	0xbd82683f	-0.063675396
60	0x3c2c6b1b	0.010523583
61	0x3dc04807	0.09388738
62	0xbcb30c59	-0.021856474
63	0x3d072de9	0.033002768

conv3.weight f4 [128, 64, 3, 3]
0	0x39d32de7	0.00040279256
1	0x3c6e380d	0.014539731
2	0xbd16fa52	-0.036859818
3	0x3cd04143	0.025421744
4	0xbcb32f80	-0.021873236
5	0x3a8c785d	0.0010717023
6	0xbc810988	-0.015751615
7	0x3c97c037	0.018524272
8	0xbce28112	-0.027649436
9	0x3d0ae1d7	0.033906784
10	0x3ce1efb6	0.027580123
11	0x3cdee2ae	0.027207699
12	0xbcca787d	-0.024715656
13	0xbcc080dd	-0.023498947
14	0x3ca867b8	0.02055727
15	0x3c7fb484	0.015607003
16	0x3d3b9477	0.045795884
17	0x398238df	0.00024837904
18	0x3c346263	0.011009785
19	0xbd04c2ce	-0.032412343
20	0xbcffffa1	-0.031249823
21	0xbc9a891b	-0.018864205
22	0x3a283b70	0.0006417548
23	0xbcde0030	-0.027099699
24	0xbd092bf0	-0.033489168
25	0xbd23a280	-0.039949894
26	0x3ceadbfd	0.028669352
27	0xbd1cfeb8	-0.038328856
28	0x3d402d30	0.046918094
29	0xbd7f38d7	-0.062310066
30	0xbdcbf511	-0.09958852
31	0x3ac5ed45	0.0015100619
32	0x3c6721f2	0.014107214
33	0xbe15de27	-0.14635526
34	0xbc1f3ecd	-0.009719563
35	0xbc8c1495	-0.017099658
36	0xbd038d35	-0.032117087
37	0xbd83baa3	-0.064320825
38	0xbc229de6	-0.009925341
39	0xbbcdccec	-0.006280532
40	0x3b864bdb	0.004098398
41	0xbd2fa8bf	-0.04288554
42	0x3e046c43	0.12931924
43	0xbdad8f5d	-0.0847461
44	0xbbfec64e	-0.0077751046
45	0xbb63c871	-0.0034756924
46	0x3cfaf217	0.030633016
47	0xbd2e2d6a	-0.04252378
48	0x3cccce85	0.02500082
49	0x3c8b9f3b	0.0170437
50	0x3c5fce0f	0.013659968
51	0x3bfc8229	0.007705946
52	0xbbada848	-0.0052996017
53	0xbc95749e	-0.018244084
54	0x3c85eab2	0.016347263
55	0x3d2dd21d	0.042436708
56	0xbc04a0d9	-0.00809499
57	0x3c330f0b	0.0109288795
58	0x3d37dc70	0.04488796
59	0xbd52f017	-0.0514985
60	0x3cc207e3	0.023685401
61	0xbb743183	-0.0037260957
62	0xbc64165d	-0.013921347
63	0xbce3a9f2	-0.027790997
64	0xbcbceb34	-0.023061372
65	0xbd1ba1b6	-0.037996016
66	0x3c17da2a	0.009268323
67	0xbc772762	-0.015085073
68	0xbd1cff83	-0.038329612
69	0x3bb9d484	0.005671086
70	0x3b1df8c3	0.0024104572
71	0x3d749a82	0.059717663
72	0x3d951999	0.07280273
73	0xbcce3585	-0.025172004
74	0xbd297385	-0.041369934
75	0xbc137ffa	-0.00900268
76	0x3d46b5b6	0.048513137
77	0x3ce619ac	0.028088413
78	0xbb97ae70	-0.004628949
79	0x3d5ea8df	0.054360267
80	0xbb09d8db	-0.0021033797
81	0x3c4e9c6b	0.012610535
82	0xbc566f80	-0.013088107
83	0x3cebc3d6	0.028779905
84	0xbbe6bca3	-0.00704153
85	0x3d38b87c	0.045097813
86	0xbca94bf1	-0.020666094
87	0x3d1baf27	0.038008835
88	0xbb8ecd83	-0.004357995
89	0xbd31a978	-0.04337451
90	0x3ccf99a3	0.025341814
91	0x3d17c24d	0.037050534
92	0x3b4c6cab	0.00311927
93	0x3cd5e1f6	0.026108723
94	0x3dbebe48	0.09313637
95	0xbd5872e6	-0.05284395
96	0x3b1710e1	0.0023050832
97	0xbad35315	-0.0016122783
98	0xbcfd0868	-0.030887797
99	0xbd9c9bfb	-0.076469384
100	0x3c59aad3	0.013285357
101	0x3c5ab44a	0.013348648
102	0xbd8ee953	-0.06978097
103	0xbd05cb79	-0.03266475
104	0x3d93738b	0.071997724
105	0xbd5101e2	-0.051027186
106	0x3d551a9c	0.05202733
107	0x3d9391c8	0.0720554
108	0xbd743bcd	-0.059627343
109	0xbb385081	-0.0028124156
110	0x3d04ab89	0.03239015
111	0xbc847129	-0.01616724
112	0xbd2d6309	-0.042330775
113	0x3d6b2cc4	0.05741574
114	0xbd8e9c3f	-0.06963395
115	0x3d12fc29	0.03588501
116	0x3d30056c	0.04297392
117	0xbd01ecd1	-0.031719986
118	0xbc73f6b6	-0.014890363
119	0xbd30b382	-0.043139942
120	0xbd0b8197	-0.034059133
121	0xbc2078d4	-0.009794433
122	0xbd02f985	-0.03197624
123	0xbdcf85df	-0.10132956
124	0x3d3bebb8	0.045879096
125	0x3d39d35a	0.045367576
126	0x3d20f661	0.039297465
127	0xbbf6ff71	-0.007537775
128	0xbce29bbf	-0.027662156
129	0x3ba1b020	0.004934326
130	0xbcfa4603	-0.030550962
131	0xbb44d488	-0.0030033905
132	0xbdbd77a3	-0.092513345
133	0x3d1ff187	0.039048698
134	0x3d52feeb	0.05151264
135	0xbccd4860	-0.025058925
136	0x3c79d0ad	0.015247506
137	0x3d0cd1c7	0.034379747
138	0xbca11d3f	-0.019667266
139	0xbbd0ce89	-0.006372277
140	0x3c9aa632	0.018878076
141	0xbcb8eb62	-0.022573177
142	0xbd698637	-0.057012763
143	0x3dcf0655	0.101086296
144	0x3c01d7e7	0.00792501
145	0x3de084fb	0.10962864
146	0xbcacb60a	-0.021082897
147	0xbd10e4f4	-0.035374597
148	0x3ce55f54	0.027999558
149	0x3d01d61f	0.031698342
150	0x3b86a614	0.0041091535
151	0xbd1fc9f7	-0.039010968
152	0x3c9c7883	0.019100433
153	0x3cadf783	0.021236187
154	0x3aa0175a	0.001221399
155	0x3b90cb6c	0.004418781
156	0xbd04a2c8	-0.032381803
157	0xbd2819ef	-0.041040357
158	0x3d2d8daa	0.04237143
159	0xbcb7f320	-0.022454798
160	0xbc99a10d	-0.018753553
161	0x3c2ce363	0.01055226
162	0xbd65a8a5	-0.056069035
163	0xbd18e08d	-0.037323523
164	0xbca05b35	-0.01957474
165	0xbe082d49	-0.13298525
166	0xbdc09228	-0.09402877
167	0x3d426285	0.047457237
168	0xbdcd4b4a	-0.10024126
169	0x3c8fc685	0.017550716
170	0x3d381258	0.04493937
171	0xbd0bb654	-0.03410943
172	0x3c0feb9a	0.008784199
173	0xbd20d824	-0.039268628
174	0x3ccb9e86	0.024855863
175	0x3cc7da2c	0.024396025
176	0xbcadc282	-0.021210913
177	0x3cd08173	0.025452351
178	0xbbba8c6d	-0.0056930096
179	0x3cd1b1a0	0.025597394
180	0xbc49edbd	-0.012324748
181	0x3d0ee6a3	0.03488792
182	0xbbb5a0b0	-0.005542837
183	0xbcb86b61	-0.02251214
184	0x3ccf8d05	0.025335798
185	0x3d30bc2e	0.043148212
186	0xba4a0096	-0.0007705776
187	0xba0134f3	-0.00049288495
188	0x3cc57918	0.024105594
189	0xbb1b48ff	-0.0023694632
190	0x3c2af247	0.01043374
191	0xbdabd162	-0.08389546
192	0xbc8a8679	-0.016909825
193	0xbcaee47a	-0.02134918
194	0x3b84f722	0.004057781
195	0xbdf03051	-0.117279656
196	0x3cfa6c2e	0.030569162
197	0xbd1c56eb	-0.03816883
198	0xbc7a5d9e	-0.015281109
199	0xbcc2b4e7	-0.023767902
200	0x3c3a79e8	0.011381604
201	0xbcd5c322	-0.026094023
202	0xbb9867cf	-0.004651047
203	0xbbd3e883	-0.0064669265
204	0xbc834e47	-0.016028536
205	0xbd939351	-0.07205833
206	0xbd3815a5	-0.044942517
207	0x3d27e71f	0.0409919
208	0x3d90db8d	0.07073126
209	0xbd667084	-0.056259647
210	0xbda5793b	-0.080797635
211	0x3d3cf183	0.04612876
212	0x3c741890	0.014898434
213	0xbde05de7	-0.109554105
214	0x3c5ec9f0	0.01359795
215	0x3ce7fa06	0.028317463
216	0xbceece7b	-0.029151192
217	0x3a9b6216	0.0011854793
218	0xbcb475ca	-0.022028822
219	0x3cec5c30	0.028852552
220	0xbc34b2e3	-0.011028978
221	0xbd0e5407	-0.034748103
222	0xbbf2c37b	-0.007408557
223	0x3cd87f89	0.026428001
224	0x39f24861	0.00046211763
225	0xbc33c3b9	-0.010971957
226	0x3d78aebc	0.060713515
227	0x3b093d2f	0.002094101
228	0xbd18e273	-0.037325334
229	0xbc6fb331	-0.014630125
230	0x3c92bdc9	0.017912762
231	0x3bb7d323	0.0056098863
232	0xbd1259f5	-0.03573032
233	0x3d1de17a	0.03854511
234	0x3d0af0ed	0.03392117
235	0xbca1bf21	-0.019744458
236	0x3c87a7eb	0.016559562
237	0x3c8457c9	0.01615514
238	0xbc93c6ff	-0.018039225
239	0xbb9345fd	-0.0044944272
240	0x3d7be9ef	0.061502393
241	0xbd9f9d02	-0.07793619
242	0xbd3b5ddc	-0.04574381
243	0x3cb2272f	0.0217472
244	0x3c7014f3	0.014653432
245	0x3d1654b7	0.036701884
246	0x3c9272c0	0.017876983
247	0x3bb6fafe	0.00558412
248	0xbb98f04e	-0.0046673184
249	0xbcd897a5	-0.026439497
250	0xbc7f9db0	-0.0156015605
251	0x3cd438d5	0.025906006
252	0x3d066faa	0.032821335
253	0xbc5dbf18	-0.01353433
254	0xbd5f060c	-0.054449126
255	0x3d17eca4	0.037090912

conv3.bias f4 [128]
0	0xbce47cf5	-0.027891615
1	0x3cbe8d8b	0.023260852
2	0x3c67d767	0.014150477
3	0x3d064cf7	0.032788243
4	0xbd4f47ae	-0.05060547
5	0x3c9f83ae	0.01947197
6	0x3d085816	0.03328713
7	0xbd1a34a1	-0.037647847
8	0xbd856322	-0.06513049
9	0xbd013797	-0.031547155
10	0x3d634d25	0.055493493
11	0xbdd967dd	-0.106155135
12	0x3d008225	0.031374115
13	0x3dc16511	0.09443105
14	0xbd56b5c2	-0.05241943
15	0x3d09ab42	0.03361059
16	0x3d21527c	0.039385304
17	0xbd0ab119	-0.0338603
18	0xbca4fb92	-0.02013949
19	0x3cfcbfb3	0.030853128
20	0x3a5e4313	0.0008478623
21	0x3c0e883b	0.008699472
22	0xbb16e8dd	-0.002302698
23	0xbcecdde7	-0.028914405
24	0xbd412268	-0.047151953
25	0x3da8333e	0.08212899
26	0xbd1bc6cb	-0.03803138
27	0x3d964dec	0.07339081
28	0x3bfc76dc	0.007704599
29	0xba160f9d	-0.00057243725
30	0xbd80d371	-0.06290329
31	0x3c4da5e5	0.012551759
32	0xbd103e82	-0.035215862
33	0x3d3d4cfb	0.046215992
34	0xbd96646e	-0.07343374
35	0xbccc2f93	-0.024925029
36	0xbd1448eb	-0.036202352
37	0x3d65405f	0.055969592
38	0x3c18f169	0.0093349
39	0x3c20dc38	0.009818129
40	0x3bd72951	0.0065662046
41	0x3d3b2afc	0.04569529
42	0x3c313cdd	0.010817734
43	0x3d3106e8	0.043219477
44	0xbc319a18	-0.0108399615
45	0xbcbf1a0e	-0.023327854
46	0x3cbe4f42	0.023231152
47	0x3e12e0df	0.14343594
48	0x3da2e66c	0.07954106
49	0x3c47b468	0.012189008
50	0xbcf01523	-0.029306954
51	0x3c918269	0.01776238
52	0x3c08e276	0.008354774
53	0x3d2e1b99	0.042506788
54	0xbd0949f7	-0.033517804
55	0x3d114e06	0.0354748
56	0x3c31a90e	0.010843528
57	0xbd13218a	-0.035920657
58	0xbc90242d	-0.017595375
59	0xbd19bd1b	-0.03753386
60	0x3cfbf8e6	0.030758332
61	0xbc8f5a22	-0.017499033
62	0xbd1fd221	-0.039018754
63	0xbbea9e93	-0.007160017
64	0x3ca8aeb0	0.02059111
65	0xbc810922	-0.015751425
66	0x3df1e803	0.11811831
67	0xbc950865	-0.01819248
68	0x3c941e9b	0.018081
69	0x3da9afe3	0.08285501
70	0xbccf3719	-0.025294827
71	0xbb83c062	-0.0040207366
72	0x3d608cf2	0.054821916
73	0x3d447e5d	0.047972072
74	0xbc4cd02d	-0.012500805
75	0x3b16c41b	0.0023005072
76	0xbd143099	-0.03617916
77	0x3d334376	0.043765508
78	0xbd1a98b5	-0.03774329
79	0x3ca77de2	0.020445768
80	0xbccc378c	-0.02492883
81	0xbccd3f65	-0.025054643
82	0xbb5472ff	-0.0032417176
83	0x3d03e5c9	0.032201562
84	0xbd0261b2	-0.03183145
85	0x3d957a41	0.07298709
86	0x3d2b2943	0.041787397
87	0xbd2b6acd	-0.0418499
88	0xbc235c04	-0.009970669
89	0xbc17d80e	-0.00926782
90	0xbd417cec	-0.047238275
91	0xbcdca275	-0.026932934
92	0x3ca57be6	0.020200681
93	0x3d9b9138	0.07596058
94	0x39852cc2	0.00025401084
95	0xb956705a	-0.00020450485
96	0x3d470b22	0.0485946
97	0xbc48c33e	-0.012253581
98	0xbc58084b	-0.013185571
99	0xbe1bc26f	-0.1521089
100	0x3d26398f	0.040582236
101	0xbc78156c	-0.015141826
102	0xbd55c147	-0.052186277
103	0x3d5b81cc	0.05359058
104	0xbc309158	-0.01077684
105	0xbd0cc29c	-0.03436528
106	0xbc7068a3	-0.014673385
107	0x3d03d19b	0.032182317
108	0x3cb0a6b9	0.021563875
109	0xbc00f0ef	-0.007869943
110	0xbd6e1839	-0.05812857
111	0x3d73e3ac	0.059543297
112	0x3b93d31e	0.004511251
113	0x3c5598b5	0.0130368965
114	0x3dcbe923	0.09956577
115	0xbcdde788	-0.027087942
116	0x3bf8caba	0.0075925263
117	0x3cf62d39	0.03005086
118	0xbcf4e308	-0.029893413
119	0x3dd15c2f	0.10222661
120	0x3d016e43	0.031599294
121	0x3cb67c14	0.022275962
122	0xbcf0feb2	-0.029418323
123	0xbd05921c	-0.032610044
124	0xbd9b9955	-0.07597605
125	0x3b655552	0.0034993482
126	0xbd26e120	-0.04074204
127	0xbc02e97b	-0.007990236

fc1.weight f4 [512, 128]
0	0xbc941ba1	-0.01807958
1	0x3db1008e	0.08642684
2	0xbda543cd	-0.080695726
3	0xbd302561	-0.043004397
4	0xbd06c475	-0.0329022
5	0xbd8c6cec	-0.06856713
6	0xbd8409dc	-0.06447193
7	0xbd336ead	-0.04380672
8	0xbdae1053	-0.08499207
9	0x3d638cec	0.055554315
10	0x3db2c806	0.08729558
11	0xbd9f5c8c	-0.07781324
12	0xbd381565	-0.04494228
13	0x3da72d48	0.081629336
14	0x3da58eba	0.080838636
15	0xbd82d8d0	-0.0638901
16	0xbd611aed	-0.05495732
17	0xbd6ace50	-0.05732566
18	0x3d35c21b	0.044374567
19	0xbb73f3df	-0.0037224216
20	0xbd06fedf	-0.032957908
21	0xbd59fe7f	-0.053221222
22	0xbdadef13	-0.084928654
23	0xbd926d04	-0.07149699
24	0x3d0903b8	0.033450812
25	0xbd1ace3a	-0.03779433
26	0x3d5b716f	0.053574976
27	0x3d440786	0.047858737
28	0x3d10cbb3	0.035350513
29	0xbdb32575	-0.08747379
30	0xbdb31c87	-0.087456755
31	0x3d539263	0.051653277
32	0xbc00efd8	-0.007869683
33	0xbc86ea17	-0.016469045
34	0x3d295add	0.04134642
35	0xbc6df306	-0.014523273
36	0x3d88be3c	0.06676909
37	0xbd293491	-0.041309897
38	0x3c9850e1	0.018593254
39	0xbda704f5	-0.08155242
40	0x3afb3cbe	0.0019167883
41	0xbd8e8024	-0.06958035
42	0xbd6e04f3	-0.05811019
43	0x3c6c9798	0.01444044
44	0x3d6166f0	0.05502981
45	0xbd4c7828	-0.049919277
46	0xbd9a7352	-0.07541527
47	0xbcf3c3f1	-0.029756518
48	0xbd89561a	-0.06705876
49	0xbd214800	-0.039375305
50	0x3c3a0ea4	0.01135603
51	0xbd513af5	-0.051081616
52	0x3d735074	0.059402898
53	0xbd0c5265	-0.034258265
54	0xbd3814fb	-0.044941884
55	0xbcf1dc1c	-0.029523902
56	0xbd36a456	-0.044590317
57	0xbd9ffd65	-0.07812003
58	0x3c8d2bc8	0.01723279
59	0xbc12ed22	-0.00896767
60	0xbd84bbb7	-0.06481116
61	0xbd698073	-0.057007264
62	0xbd445cb7	-0.047939982
63	0xbce78294	-0.028260507
64	0xbdaed21a	-0.085361674
65	0x3d6f4bf3	0.05842204
66	0x3d4b5ae8	0.04964724
67	0xbcf3ccd4	-0.029760756
68	0x3c4f269e	0.012643484
69	0x3d84c41d	0.06482718
70	0xbc373e39	-0.011184269
71	0x3dad6318	0.08466166
72	0x3d38ab54	0.045085266
73	0xbd024892	-0.03180749
74	0xbd3ab049	-0.045578275
75	0xbd9bbfe5	-0.0760496
76	0x3cf81064	0.030281253
77	0xbda80824	-0.08204678
78	0x3b478d18	0.0030449089
79	0x3d80ab39	0.06282658
80	0x3d637b74	0.055537656
81	0xbb3456ac	-0.002751748
82	0x3d7a4b5e	0.061107032
83	0xbcb26927	-0.021778656
84	0x3b7cee35	0.003859413
85	0x3a8a1ec9	0.0010537739
86	0xbd55a0fc	-0.05215548
87	0xbd344f86	-0.044021152
88	0x3d543661	0.051809672
89	0x3ce83cfa	0.028349388
90	0x3bfda902	0.0077410946
91	0xbd7b933c	-0.06141971
92	0x3daf705f	0.08566355
93	0xbd34a46a	-0.04410211
94	0x3d8a7d05	0.06762127
95	0xbd0ad594	-0.03389509
96	0xbd4175c7	-0.04723146
97	0x3c750fa6	0.014957344
98	0x3c538508	0.012910135
99	0x3c8da694	0.017291345
100	0x3d562e12	0.05229003
101	0xbd8d5e2d	-0.06902728
102	0xbda93f32	-0.08264007
103	0x3cbb85ad	0.02289089
104	0x3dac5e94	0.08416477
105	0x3d327b6e	0.043574743
106	0xbc40f83c	-0.011777934
107	0x3d4d244f	0.050083455
108	0x3d9d193c	0.07670829
109	0xbd5e07a2	-0.054206498
110	0xbd7622d1	-0.060091797
111	0xbd66648d	-0.056248236
112	0x3cb3f429	0.02196701
113	0x3d234aa2	0.039866097
114	0x3d9d0e84	0.07668784
115	0x3c34841c	0.011017825
116	0x3cde97c5	0.027171979
117	0x3dad1fb3	0.08453312
118	0x3d320039	0.043457244
119	0x3d9aa37f	0.07550716
120	0x3c315561	0.010823579
121	0xbd21f409	-0.03953937
122	0x3da92f89	0.0826102
123	0xbdadf4ca	-0.084939554
124	0xbd8454fc	-0.06461522
125	0x3d20b8dc	0.039238796
126	0x3d13f6bd	0.03612398
127	0x3cc0090c	0.023441814
128	0xbd6a1e5c	-0.05715786
129	0x3db8c7db	0.090224944
130	0xbd42cc15	-0.04755791
131	0xbc867bee	-0.016416516
132	0xbbc6335a	-0.006048602
133	0x3d7c9304	0.061663643
134	0xbdbd166d	-0.09232793
135	0x3dac3de2	0.08410241
136	0xbb1a0043	-0.002349869
137	0x3b984243	0.004646571
138	0x3d8f31f1	0.069919474
139	0x3d98eaae	0.074666366
140	0x3bd90d2d	0.006623885
141	0xbd9cedbf	-0.07662534
142	0xbc098e8c	-0.008395802
143	0x3da57457	0.08078831
144	0x3e17a84f	0.14810298
145	0x3d3aaa5b	0.04557262
146	0x3d7fdc83	0.062466156
147	0x3cc9440f	0.024568586
148	0x3de26016	0.11053483
149	0x3c80a5fe	0.015704151
150	0x3d2a504a	0.041580476
151	0x3aed47d1	0.0018103068
152	0xbcb2517c	-0.02176737
153	0xbda8eb63	-0.082480215
154	0x3de3e9fd	0.11128614
155	0xbce8f914	-0.028439082
156	0xbd2aae08	-0.041669875
157	0x3d06d68a	0.032919444
158	0x3dbab60f	0.09116756
159	0xbc853302	-0.016259674
160	0x3d10dac7	0.035364892
161	0xbd612cd8	-0.054974407
162	0x3d9b2505	0.0757542
163	0x3cd44a62	0.025914375
164	0x3d8620a6	0.06549196
165	0x3d701a33	0.058618736
166	0xbc86b820	-0.01644522
167	0xbc5c76c0	-0.013456047
168	0x3ce19a2b	0.027539333
169	0xbde3942e	-0.111122474
170	0xbd7e1ca4	-0.062039033
171	0x3dc9067f	0.09815692
172	0xbd4a8b7d	-0.049449433
173	0xbd695933	-0.056969833
174	0xbdbadfc9	-0.09124715
175	0x3d1db6a1	0.038504247
176	0x3d11be36	0.03558179
177	0xbd966459	-0.073433585
178	0xbdaa7a3e	-0.08324097
179	0x3ce86649	0.028369086
180	0x3da3e7d1	0.080032
181	0x3ca7f69e	0.020503338
182	0xbd3c5795	-0.045981962
183	0x3b4ceb09	0.0031268022
184	0xbd03a03e	-0.03213524
185	0x3cc6f019	0.02428441
186	0xbd4ce208	-0.050020248
187	0xbcb1e879	-0.021717297
188	0x3d022874	0.03177686
189	0xbd591dcf	-0.053006943
190	0x3db1bcde	0.08678602
191	0x3d4a339f	0.049365636
192	0xbbfbe989	-0.0076877517
193	0x3d9e8759	0.07740659
194	0xbda361d5	-0.07977644
195	0xbd216108	-0.039399177
196	0xbc6fa399	-0.014626407
197	0x3d8e64be	0.06952809
198	0xbcf14ae6	-0.02945466
199	0x3dc9c495	0.09851948
200	0x3da0e44c	0.07856044
201	0xbdb3ad35	-0.08773271
202	0x3bd3eb17	0.006467234
203	0xbd3d73e2	-0.046253093
204	0x3dc6b21a	0.09701939
205	0xbe3aa258	-0.18225992
206	0x3d7c0438	0.06152746
207	0xbdb0b186	-0.0862761
208	0xbc08288e	-0.00831045
209	0x3dd41692	0.103558674
210	0x3d94ab71	0.07259262
211	0x3d9c31bb	0.07626673
212	0xbd9eb154	-0.077486664
213	0xbc33e91b	-0.01098087
214	0xbca55630	-0.020182699
215	0xbaae4ec0	-0.0013298616
216	0xbdc10a58	-0.09425801
217	0xbc49225d	-0.012276259
218	0xbd5d0bad	-0.053966213
219	0xbd2ba14d	-0.041901875
220	0x3d937fac	0.07202086
221	0x3d149a8c	0.0362802
222	0x3dd37366	0.10324745
223	0xbd351671	-0.044210855
224	0xbcd9649e	-0.026537236
225	0xbcf73986	-0.030178796
226	0x3cfe83be	0.031068679
227	0x3da4a3f4	0.08039084
228	0xbdd3c3d0	-0.10340083
229	0x3b864d62	0.00409858
230	0x3d4b237a	0.04959438
231	0xbc00a54c	-0.00785191
232	0xbd84da1b	-0.06486913
233	0xbc082ff0	-0.00831221
234	0x3d05da7c	0.032679066
235	0xbc1d19a6	-0.009588635
236	0x3dc98b39	0.09841008
237	0x3afdb5ef	0.0019356589
238	0x3dc8fddc	0.09814045
239	0x3c8ebb87	0.017423404
240	0x3b6ab3fc	0.0035812845
241	0x3b89a5c7	0.0042006704
242	0xbd79a32a	-0.06094662
243	0x3d9bd925	0.076097764
244	0x3d247e5e	0.040159576
245	0xbc727386	-0.014798051
246	0x3da4cc77	0.08046811
247	0x3d97c10b	0.07409867
248	0xbc7b0a80	-0.015322328
249	0xbde4581f	-0.1114962
250	0xbcebe6c7	-0.028796567
251	0xbd42dcdd	-0.047573913
252	0x3de58da1	0.11208654
253	0xbdd21379	-0.1025762
254	0x3d031b37	0.032008376
255	0xba12bafc	-0.0005597321

fc1.bias f4 [512]
0	0xbd6e1109	-0.058121715
1	0x3c3f2800	0.011667252
2	0xbd8e2542	-0.069407
3	0x3dd19c98	0.10234946
4	0xbd440057	-0.047851887
5	0xbd998842	-0.07496692
6	0x3e036002	0.12829593
7	0xbd0ed620	-0.034872174
8	0x3de30436	0.110847875
9	0xbdaf7b92	-0.08568491
10	0x3d17f596	0.037099443
11	0xbd1d1ce9	-0.03835765
12	0x3e04044d	0.12892266
13	0xbdb4aaca	-0.08821638
14	0x3bca236a	0.0061687725
15	0x3d485051	0.04890472
16	0x3dade760	0.08491397
17	0x3c3a688c	0.011377465
18	0x3d1767f8	0.036964387
19	0x3cc5fbb0	0.024167866
20	0xbd85fd2c	-0.06542429
21	0x3d14386b	0.036186617
22	0x3cada8de	0.021198686
23	0xbd3e22ed	-0.046420027
24	0x3bd32823	0.0064439937
25	0xbcfdd13a	-0.030983556
26	0x3c0aa82a	0.008462945
27	0x3d924ca7	0.071435265
28	0x3db8cf3c	0.09023902
29	0xbd03da21	-0.032190446
30	0x3d3b21e5	0.04568662
31	0xbbd1a896	-0.006398271
32	0xbd8822be	-0.066472515
33	0x3d3fabbd	0.04679464
34	0x3d808724	0.06275776
35	0x3dad18cc	0.08451995
36	0x3cda5a62	0.026654426
37	0x3b9495da	0.0045344653
38	0xbdb91f2a	-0.09039147
39	0xbd8deb5d	-0.069296576
40	0xbbcd3f43	-0.006263645
41	0x3b82d343	0.0039924695
42	0xbd7e3e51	-0.06207115
43	0xbb76167a	-0.0037550018
44	0xbdbac8b1	-0.0912031
45	0xbd4be676	-0.04978033
46	0x3c4c3826	0.012464559
47	0x3d94a89f	0.072587244
48	0xbd344428	-0.04401031
49	0xbb948b54	-0.004533211
50	0xbcbdb235	-0.023156265
51	0xbd7634d1	-0.060108963
52	0xbd2e5e2b	-0.042570274
53	0x3c812667	0.015765382
54	0x3db3ce09	0.087795325
55	0xbd7a5e7d	-0.061125267
56	0xbd533188	-0.05156091
57	0x3cc643b0	0.024202198
58	0x3d5cb0d9	0.053879593
59	0xbafa2ce4	-0.0019086865
60	0x3d8b75b8	0.068095624
61	0x3d10d4f0	0.035359323
62	0x3d44e00a	0.048065223
63	0x3d3f4f74	0.04670663
64	0x3d2d95f1	0.042379323
65	0x3d91f893	0.0712749
66	0x3d1f57df	0.03890216
67	0xbcc53c47	-0.024076594
68	0x3d57dcac	0.052700683
69	0xbb9588e8	-0.0045634396
70	0xbc9f5a43	-0.01945222
71	0xbcc31330	-0.02381286
72	0xba4f497b	-0.0007907373
73	0xbdc0beb6	-0.09411375
74	0x3da10047	0.07861381
75	0x3dc653ea	0.09683974
76	0x3d90e4af	0.07074868
77	0x3c83b2fc	0.016076557
78	0x3d90b9f3	0.07066717
79	0xbdddd758	-0.10832089
80	0xbc81ff55	-0.015868822
81	0xbd74a5c7	-0.05972841
82	0xbd26b957	-0.040704098
83	0x3db96c72	0.090538874
84	0xbd86b8e4	-0.06578234
85	0x3da4d7f6	0.08049004
86	0xbc337102	-0.010952236
87	0xbb835e7c	-0.004009066
88	0xbd08fce9	-0.03344432
89	0x3dbacb9d	0.091208674
90	0xbd82577d	-0.06364343
91	0x3ced92de	0.029000696
92	0xbd9e0d2e	-0.077173576
93	0x3d902bcb	0.07039603
94	0xbd434e8a	-0.047682323
95	0x3be157fd	0.006876944
96	0xbc2095ff	-0.009801387
97	0xbbeddaa9	-0.0072587323
98	0xbd0c22c4	-0.034212843
99	0x3c86c61b	0.016451886
100	0x3d52a2a4	0.051424637
101	0xbc76e68c	-0.015069615
102	0xbc940739	-0.01806985
103	0x3ce3fad6	0.027829569
104	0xbca9fc63	-0.02075023
105	0x3d9400fc	0.0722675
106	0xbdb6bf9f	-0.089232676
107	0xbd48e3f7	-0.04904553
108	0x3c2c89d5	0.010530909
109	0xbd72d67a	-0.059286572
110	0xbd260632	-0.040533252
111	0x3b6f3f9c	0.003650642
112	0x3d350959	0.044198368
113	0xbca45993	-0.020062244
114	0x3d4d809c	0.05017148
115	0xbc96ca5f	-0.018407045
116	0x3d8ec572	0.069712535
117	0xbcb6a45d	-0.022295171
118	0x3d3ba807	0.04581454
119	0xbda40f20	-0.08010697
120	0xbcb4cf5a	-0.02207153
121	0xbd7f7b2a	-0.062373318
122	0xbd1a0b9b	-0.037608724
123	0xbd0e1637	-0.034689154
124	0xbca80027	-0.020507885
125	0x3c4e58e5	0.012594436
126	0xbd1ee560	-0.038792968
127	0x3dc120f1	0.09430111
128	0xbd8d89e0	-0.06911063
129	0xbd77caf4	-0.060496286
130	0x3d963569	0.07334406
131	0xbd7f1fa6	-0.06228604
132	0x3d26dc01	0.040737156
133	0x3dae9167	0.08523827
134	0x3c48c2e8	0.0122535005
135	0x3d6c20cd	0.05764847
136	0xbdd56b64	-0.10420874
137	0xbd11cbb3	-0.035594653
138	0x3c96b9d0	0.01839915
139	0xbd97422b	-0.073856674
140	0xbd9d08a4	-0.07667664
141	0xbda184ab	-0.078866325
142	0xbd5104a1	-0.051029805
143	0xbcbcc2fd	-0.023042196
144	0xbd7dca82	-0.061960705
145	0x3df2c8ec	0.11854729
146	0xbdb0587a	-0.086106256
147	0x3d92cbfa	0.07167812
148	0x3d17a8da	0.037026264
149	0xbd067c8e	-0.03283363
150	0x3d9c648e	0.07636367
151	0x3ba6d723	0.0050915643
152	0xbda15745	-0.078779735
153	0x3d29893f	0.041390654
154	0xbd98d158	-0.07461804
155	0x3c672fa0	0.014110476
156	0x3d05aaa6	0.032633446
157	0x3d0b6a66	0.034037016
158	0xbaed2c1f	-0.0018094814
159	0x3d004c21	0.031322602
160	0x3c34239f	0.010994821
161	0x3db28597	0.087168865
162	0x3d084b7c	0.033275113
163	0xbc932362	-0.017961208
164	0x3bd2afd8	0.0064296536
165	0xbd9c2209	-0.07623679
166	0x3daf78a4	0.08567932
167	0x3d03972c	0.03212659
168	0xbc985c7e	-0.018598791
169	0xbd2290c0	-0.039688826
170	0x3da57f73	0.0808095
171	0xbcbe626f	-0.023240296
172	0x3d1e7d97	0.03869399
173	0x3c4d12e6	0.012516713
174	0x3daba0ce	0.083802804
175	0xbd4bd680	-0.04976511
176	0xbd745276	-0.059648953
177	0x3cd5c709	0.026095884
178	0xbd06c14c	-0.032899186
179	0x3d9936e7	0.07481175
180	0xbd2b6a29	-0.04184929
181	0x3d858bd6	0.06520812
182	0xbdbbe2b0	-0.091740966
183	0x3dafc682	0.08582784
184	0xbdc794b2	-0.09745158
185	0xbd0ade63	-0.03390349
186	0x3d6ff8a4	0.05858673
187	0x3d08d056	0.03340181
188	0x3d989da1	0.0745194
189	0xbcdbe8f3	-0.026844477
190	0xbd5c0928	-0.05371967
191	0xbd862585	-0.06550125
192	0x3da19b64	0.078909665
193	0xbda400c1	-0.08007956
194	0x3d2e250d	0.042515803
195	0x3d0066ca	0.031348027
196	0x3d0becfd	0.034161557
197	0x3d3ba3f2	0.045810647
198	0xbd198ad7	-0.037485924
199	0x3d11c4f8	0.035588235
200	0xbda4f506	-0.08054547
201	0xbc2553a5	-0.010090743
202	0xbbd272ab	-0.006422361
203	0x3d32702f	0.043564018
204	0xbd764ba4	-0.06013073
205	0x3d2d416d	0.042298723
206	0xbd0558b7	-0.03255531
207	0xbd9fb493	-0.07798114
208	0x3d8e5b87	0.06951051
209	0xbd0ac81b	-0.03388224
210	0x3c8ea350	0.017411858
211	0xbd9fe74c	-0.07807788
212	0xbcabf6f3	-0.020991778
213	0x3cb89a46	0.0225345
214	0xbd60a370	-0.054843366
215	0x3cdd8067	0.027038766
216	0x3d58b8c5	0.052910585
217	0x3da5a922	0.080889
218	0x3cb72034	0.022354223
219	0x3c92acf7	0.017904742
220	0x3d5cafc6	0.053878568
221	0x3d5a4373	0.05328698
222	0xbda1dfe7	-0.07904034
223	0xbc7975e2	-0.015225859
224	0xbc531cdf	-0.012885301
225	0xbb95bf58	-0.004569929
226	0x3c895906	0.016766082
227	0x3d9ab50a	0.07554062
228	0x3d81e532	0.06342544
229	0xbdae23ee	-0.08502947
230	0xbd517780	-0.051139355
231	0x3d127205	0.03575327
232	0xbcb349a1	-0.021885695
233	0x3d0a9b39	0.033839438
234	0xbda5e0ff	-0.08099555
235	0xbcf48ac5	-0.029851327
236	0x3d9af5bb	0.075664006
237	0xbd8d6c9c	-0.06905481
238	0x3d0778d6	0.033074223
239	0xbd12d12a	-0.035844006
240	0xbd99ca40	-0.07509279
241	0xbc7046d6	-0.014665326
242	0x3d85542c	0.06510195
243	0x3d9d7032	0.07687415
244	0x3ca2cf4d	0.01987424
245	0x3dd65a65	0.1046646
246	0x3cfe7e71	0.031066151
247	0xbcc9bddd	-0.024626667
248	0x3d14a46f	0.03628963
249	0xbd08edbd	-0.03342985
250	0x3d95d10a	0.07315262
251	0xbcd8778a	-0.026424188
252	0xbd7b2483	-0.061314117
253	0x3d2b1109	0.041764293
254	0xbda77241	-0.08176089
255	0xbcb52b76	-0.02211545

fc2.weight f4 [10, 512]
0	0x3bb6cbab	0.0055784783
1	0x3c460d76	0.01208817
2	0xbc35b246	-0.011089867
3	0x3e88dc90	0.26730776
4	0x3d95ccbb	0.0731444
5	0xbb90d761	-0.0044202064
6	0xbdb0e82d	-0.08638034
7	0xbc5acc29	-0.01335434
8	0x3e303337	0.17207037
9	0xbcd69076	-0.026191931
10	0x3db154aa	0.086587265
11	0x3dd9b0b2	0.10629405
12	0x3a167233	0.0005739063
13	0xbd020a61	-0.03174818
14	0x3cecd3b6	0.028909545
15	0xbcf0c6f8	-0.02939175
16	0x3cca6855	0.024707953
17	0x3cee462d	0.029086197
18	0x3cb289e7	0.021794273
19	0xbe19b830	-0.15011668
20	0xbcccf846	-0.02502073
21	0x3d8b4c11	0.06801618
22	0xbe0b3ef4	-0.13598233
23	0xbd67e778	-0.05661723
24	0xbdd5157f	-0.10404491
25	0xbc47d4c7	-0.012196726
26	0x3d5acb1b	0.053416353
27	0xbd747208	-0.05967906
28	0xbe44469c	-0.1916756
29	0x3d8c2cab	0.06844457
30	0xba5882a2	-0.0008259212
31	0x3e0e3149	0.13885988
32	0x3bffffa2	0.007812456
33	0x3dc04c0b	0.09389504
34	0x3d0aa7fc	0.03385161
35	0x3d0a5299	0.033770178
36	0xbcc13c28	-0.023588255
37	0xbd1e0bbd	-0.038585413
38	0x3ea79cc4	0.3273679
39	0xbbf052d8	-0.0073340945
40	0x3deba356	0.11505763
41	0xbd5ff749	-0.05467919
42	0x3d987d62	0.0744579
43	0x3bb99f1a	0.0056647183
44	0x3d7e499a	0.06208191
45	0xbd474924	-0.048653737
46	0x3e36dd9f	0.17857979
47	0x3e348ef2	0.17632654
48	0xbd71f5c0	-0.059072256
49	0x3db0337a	0.086035684
50	0xbd121be6	-0.035671137
51	0x3d7fa937	0.062417235
52	0xbc0fd58d	-0.008778942
53	0xbdbbf678	-0.091778696
54	0x3e115b5c	0.14195007
55	0xbd36fb3d	-0.044673193
56	0x3deb8f88	0.11501986
57	0x3da97480	0.08274174
58	0xbd221671	-0.039572183
59	0x3d6842ff	0.056704517
60	0xbdd3bc8e	-0.10338698
61	0x3d6d20ca	0.0578926
62	0x3cd493e4	0.025949426
63	0x3d3c0219	0.045900438
64	0x3e04059e	0.12892768
65	0xbc68f51d	-0.014218596
66	0xbd39745f	-0.045276996
67	0xbc9843db	-0.018587044
68	0x3d3a39f6	0.045465432
69	0xbdf16d6d	-0.117884494
70	0xbc5031ea	-0.012707213
71	0x3dbfac42	0.093590274
72	0xbdaf3f44	-0.08556989
73	0x3e06ffc1	0.131835
74	0xbdaa7d4c	-0.0832468
75	0xbdc63b22	-0.096792474
76	0xbd9ef6dd	-0.07761929
77	0x3d834795	0.064101376
78	0xbc736613	-0.014855879
79	0x3e1477c5	0.14498813
80	0x3d35dbc5	0.04439904
81	0xbd4f996c	-0.050683424
82	0xbd1dbdd2	-0.038511105
83	0x3d47b310	0.04875475
84	0x3d737002	0.05943299
85	0xbd975050	-0.07388365
86	0xbdefd944	-0.11711362
87	0xbe0a9659	-0.13533916
88	0x3e0847ba	0.13308612
89	0x3d299fe7	0.04141226
90	0xbdc20b6d	-0.094748355
91	0xbcc4899e	-0.023991402
92	0x3dd758ca	0.10514982
93	0xbd281b7f	-0.041041847
94	0x3d6a666d	0.057226587
95	0xbb5bf974	-0.0033565434
96	0xbccf30ec	-0.025291882
97	0x3be83e20	0.007087484
98	0x3d0b3183	0.033982765
99	0x3e2ea018	0.17053258
100	0xbdd5f4b9	-0.10447068
101	0xbd83317f	-0.06405925
102	0x3d9eb67d	0.077496506
103	0x3e247234	0.1605919
104	0x3dffbd11	0.124872334
105	0xbdc9b218	-0.09848422
106	0xbd39aa9c	-0.04532872
107	0xbd412a0f	-0.04715925
108	0x3d950184	0.0727568
109	0x3dad8be9	0.08473951
110	0xbd19d81b	-0.03755961
111	0xbd6631f4	-0.056199983
112	0xbdba0cb5	-0.09084455
113	0xbb1b84dd	-0.0023730316
114	0x3e472d81	0.19450952
115	0x3cc2c999	0.02377777
116	0x3d15ced5	0.036574204
117	0xbd2e2697	-0.04251727
118	0x3d82a651	0.063793786
119	0xbd5cf688	-0.053946048
120	0x3d2046e9	0.039130125
121	0x3c615448	0.013753004
122	0x3c45a22c	0.012062591
123	0x3cbb38a9	0.022854166
124	0x3c62af29	0.013835707
125	0xbd1e9a69	-0.038721476
126	0xbda63ec8	-0.08117443
127	0xbe302041	-0.17199804
128	0x3d6d57a4	0.05794491
129	0x3ddb4436	0.107063696
130	0xbda661e8	-0.08124143
131	0x3cc3053d	0.023806209
132	0xbd2b77df	-0.041862365
133	0xbb8a5ae8	-0.0042222627
134	0xbde7a4b2	-0.1131071
135	0x3e7fd151	0.24982192
136	0xbe3fda6f	-0.1873567
137	0x3e285e60	0.16442251
138	0xbd7730d0	-0.060349286
139	0xbd29c15a	-0.04144416
140	0x3e41690b	0.18887727
141	0xbaa77acf	-0.0012777689
142	0x3d48c86d	0.049019266
143	0x3d36a8eb	0.044594686
144	0x3d16023c	0.036623225
145	0x3e116d3e	0.14201829
146	0xbdaf49d4	-0.085590035
147	0x3cbc1a4e	0.022961762
148	0xbddc0e7a	-0.10744949
149	0xbcf39518	-0.02973418
150	0x3c319321	0.010838301
151	0xbd901731	-0.070356734
152	0xbdd3007e	-0.10302828
153	0xbe5f9720	-0.21834993
154	0x3bb83a7c	0.0056222063
155	0x3b0a2239	0.0021077527
156	0xbd4577ec	-0.04821007
157	0x3d08999c	0.03334962
158	0xbcf369b6	-0.029713493
159	0x3d722757	0.05911955
160	0x3e6c7306	0.23090753
161	0x3e4a0a49	0.19730486
162	0x3cada298	0.021195695
163	0xbdb5447f	-0.08850955
164	0x3b8adfa4	0.004238086
165	0x3c6fc5c0	0.01463455
166	0x3d8164f5	0.06318084
167	0xbba9c8c9	-0.005181406
168	0xbceaf8d2	-0.0286831
169	0xbd8aa88e	-0.067704305
170	0xbd760bff	-0.060070034
171	0x3d381142	0.044938333
172	0xbb41318a	-0.002947899
173	0x3d416e8a	0.04722456
174	0x3d7c4a6e	0.06159442
175	0xbd9ef05a	-0.07760687
176	0xbc8d9353	-0.017282164
177	0x3e1c8fed	0.15289278
178	0xbe105f9e	-0.14098975
179	0x3bb54581	0.005531967
180	0xbcfc1663	-0.030772394
181	0xbd8b3b58	-0.06798428
182	0xbd81d6e1	-0.06339813
183	0x3e05b704	0.13058096
184	0x3e11bac7	0.14231406
185	0x3cf5f55f	0.030024229
186	0xbe308adc	-0.1724047
187	0x3d27cfee	0.04096978
188	0xbd8405d0	-0.06446421
189	0x3c7cb058	0.015422903
190	0xbdfd2082	-0.12359716
191	0x3c3fd0f9	0.011707538
192	0x3ccd6d79	0.025076615
193	0xbc9dc949	-0.01926102
194	0xbd01dc6a	-0.031704344
195	0x3d25878a	0.040412463
196	0x3d1528b1	0.03641576
197	0x3e20ae8f	0.15691589
198	0xbd1059bd	-0.03524183
199	0x3e893c5d	0.26803866
200	0x3d7261c1	0.059175257
201	0xbc67c9c0	-0.014147222
202	0xbe2dbe74	-0.16967183
203	0xbcdc5864	-0.026897617
204	0x3c915fbe	0.017745849
205	0x3e2428ee	0.16031238
206	0xbd0ea717	-0.034827318
207	0xbd2586b7	-0.040411677
208	0xbe3f69dc	-0.18692726
209	0xbc0c9be4	-0.008582089
210	0x3cbbb242	0.022912148
211	0x3e311079	0.1729144
212	0xbd501826	-0.05080428
213	0xbd416ec1	-0.047224764
214	0x3d0789ad	0.033090282
215	0x3e0f47b9	0.13992204
216	0xbdef3e0f	-0.116817586
217	0x3c5fee08	0.013667591
218	0x3c2d06ad	0.010560674
219	0xbe247f27	-0.1606413
220	0xbc9aadad	-0.018881643
221	0xbd927a3a	-0.07152219
222	0xbba6b351	-0.005087294
223	0x3d31f117	0.04344281
224	0x3b69f8a3	0.0035701178
225	0xbdf35bc4	-0.11882737
226	0x3e356d14	0.17717391
227	0xbde90d2e	-0.11379467
228	0xbd9374a4	-0.07199982
229	0xbd5649d2	-0.052316494
230	0xbac71559	-0.0015188857
231	0xbd5fbf6a	-0.054625906
232	0xbdbb23ce	-0.091376886
233	0xbdbc8e11	-0.092067845
234	0xbd934c88	-0.071923316
235	0x38d61846	0.000102088365
236	0x3d96a27e	0.07355212
237	0x3c603389	0.013684162
238	0xbd223eaa	-0.039610542
239	0x3d8308a1	0.0639813
240	0x3d966b5e	0.073446974
241	0x3dce31e2	0.10068108
242	0xbdbdea41	-0.09273196
243	0x3da4149c	0.080117434
244	0xbbdfa73f	-0.006825357
245	0xbda22cd4	-0.079187065
246	0xbd0c2e0d	-0.034223605
247	0x3d92fb87	0.07176881
248	0xbe167f7f	-0.14697073
249	0x3d27e0f8	0.04098603
250	0xbd55782f	-0.05211657
251	0xbda3a815	-0.079910435
252	0xbb7947a6	-0.003803709
253	0xbd132f0c	-0.03593354
254	0xbd81bf56	-0.063353226
255	0xbe7778c7	-0.24167167

fc2.bias f4 [10]
0	0x3c156fe7	0.009120918
1	0xbd54f5ae	-0.05199211
2	0x3ddb03b1	0.106940635
3	0xbc9e8a38	-0.019353017
4	0xbe59f78d	-0.2128584
5	0x3e075ea2	0.13219693
6	0x3e647369	0.2230965
7	0x3d0619dc	0.032739505
8	0xbc34951e	-0.01102188
9	0xbd413fad	-0.047179867
