Parameters exploration/M(Red 1, ADAM, MSE)/1-ADAM-MSE_save.pt (torch, 658183 bytes, 10 tensors)

conv1.weight f4 [32, 1, 3, 3]
000000 70 88 7c 3e a4 7e cf 3d 92 7a 59 bc 8d 85 58 3e
       0.24661422 0.10131577 -0.013273852 0.21144696
000010 51 1a 2a bc e4 4f e3 3c ca 3b b0 be 0e b4 34 3e
       -0.010382251 0.027748056 -0.34420615 0.1764681
000020 c8 9f 90 3e c4 14 02 3f 8c 37 95 be 19 b3 9a 3e
       0.28246903 0.50812936 -0.2914394 0.30214766
000030 a9 12 2c bd c1 fa 97 3d 1b d2 f5 3d dc 2e 05 bf
       -0.042009983 0.074208744 0.12002965 -0.52024627
000040 04 c2 8a be e5 1c 3a 3e 3c 50 d7 be 59 9a b9 be
       -0.27101147 0.18175085 -0.420534 -0.3625057
000050 84 d9 ce 3e 76 88 e8 bd d3 d9 52 3e 9f 34 a6 3e
       0.40400326 -0.11354153 0.20590906 0.32462022
000060 bf 93 6f 3d eb 02 61 3d 39 10 a0 3e 5f a4 4f bc
       0.05849051 0.054934423 0.31262377 -0.0126734665
000070 24 98 92 3e ce da 1a 3e 1b 12 c1 bd 13 29 88 3e
       0.286317 0.1512253 -0.094272815 0.26593837
000080 d7 17 1a 3e b7 4e 48 3e 31 94 13 3e 30 83 11 3a
       0.15048157 0.19561277 0.14412 0.00055508595
000090 c0 07 08 3e 16 39 97 3e 0a 9b 8b bd bf 57 1d bd
       0.13284206 0.2953574 -0.06816681 -0.03841376
0000a0 fd d4 70 be ec 9a 82 3e 9e 75 d7 bd 4d 6c 37 3e
       -0.23518749 0.2550882 -0.105204806 0.17912407
0000b0 ca da a6 be 81 4a 79 3d 9b 52 c2 3e 0a a7 8a 3e
       -0.32588798 0.060862068 0.37953648 0.27080566
0000c0 a1 61 42 be 23 0a 98 bd e5 12 0c 3e 97 cc f5 be
       -0.18982555 -0.074238084 0.13679083 -0.48007652
0000d0 eb 38 fa bd 9f 97 85 3e 5a 4c 57 3d 5d 51 d7 3e
       -0.122178875 0.2609224 0.05256305 0.42054263
0000e0 71 75 c0 3e 9e 43 88 be 7f ee 5f 3b 95 a4 3e 3d
       0.375896 -0.26614088 0.0034169254 0.046543676
0000f0 d3 78 41 be 56 b7 02 bf 81 a0 43 be 3a 1f c2 bd
       -0.18893747 -0.51061 -0.19104196 -0.09478612
000100 91 a8 42 be 99 eb 09 bf 19 1e 21 3b ca 0c a0 3d
       -0.19009615 -0.5387512 0.002458459 0.07814939
000110 28 9e 8e 3e ce c2 67 3e 7c e4 76 3e 5f c7 bd 3e
       0.2785504 0.22632906 0.24110597 0.3706617
000120 bc 8d 91 bd b6 d9 53 be d8 e3 0d 3d fb fb 18 be
       -0.07107112 -0.20688519 0.034641117 -0.14939873
000130 f7 27 8b be fc 0c 90 be d0 8f 85 be 48 9c 31 3d
       -0.27178928 -0.28134906 -0.26086283 0.043361932
000140 f7 c9 a7 be 1a db d1 be 2b 64 df be 58 59 e3 3e
       -0.32771274 -0.40987474 -0.4363111 0.444041
000150 1b e4 aa bd 46 94 7e 3d f4 87 f8 3e a9 8c 8d be
       -0.08344289 0.062153123 0.48541224 -0.27646378
000160 74 c2 11 3f 64 0c 85 be 8c ed 96 3d 38 cd a4 bd
       0.56937337 -0.25986016 0.07369527 -0.08046955
000170 c0 df 38 bd 1c c6 e5 bd aa 42 cd 3e 19 52 ca 3e
       -0.04513526 -0.11219427 0.40089923 0.3951576
000180 92 6a 79 3d 10 10 ae be ac ad ae be 75 7f 90 3e
       0.06089265 -0.3399663 -0.34116876 0.28222242
000190 cd 6f 92 bd 25 e5 5a 3d 73 96 b5 3e 16 27 a6 be
       -0.071502306 0.053441186 0.35466346 -0.32451695
0001a0 f7 6f fa bd 00 3e 1c be 6f da 82 3d e7 f5 7b bd
       -0.12228387 -0.15258026 0.06389319 -0.061513808
0001b0 62 53 08 3c 3b 89 93 bc 0c 8c 61 3e 73 41 cc 3d
       0.008320661 -0.018009773 0.2202608 0.09973421
0001c0 d6 5c 91 be 52 ea f7 3e 9a 89 84 3e fe 09 79 be
       -0.2839114 0.4842096 0.25886232 -0.24320218
0001d0 14 d0 84 be 85 fe 80 3d 35 7f 91 bd 4b 12 af 3d
       -0.2594 0.06298546 -0.07104341 0.08548411
0001e0 63 bf 03 bf 16 90 ca bf 43 44 47 bf 2f 9d f7 3c
       -0.5146391 -1.5825222 -0.77838534 0.030226318
0001f0 83 dd b0 bf 2f 2d af bf 9e 65 d3 3e 70 86 e2 3c
       -1.38176 -1.3685664 0.41288465 0.027651995
000200 3e 70 13 3e c6 7e 75 3e 1e 3e b4 be 76 97 05 bf
       0.14398286 0.23974141 -0.35203642 -0.52184236
000210 c2 f5 ed be de 46 01 3d ae 5d 12 bf 1f 57 aa 3e
       -0.4647656 0.031561725 -0.57174194 0.33269593
000220 77 a8 db be 20 fe 8d bd 50 89 55 3e 29 d2 80 3e
       -0.42901966 -0.06933236 0.20853162 0.2516034
000230 56 11 be be a9 d8 30 be e9 08 b6 be 47 71 a3 3e
       -0.371226 -0.1727015 -0.35553673 0.3192236
000240 c0 56 db bf 95 5a 1d bf 97 09 2d 3e a5 f3 b4 bf
       -1.7135849 -0.6146634 0.1689819 -1.4136854
000250 75 48 c8 be 9c e4 af bd 8d ba cd bc 1c 1d 2c 3d
       -0.3911778 -0.08588526 -0.025113368 0.04201995
000260 07 2d 71 3e b6 10 54 be ef 4b 3e 3e 10 d8 65 bc
       0.23552333 -0.207095 0.18583654 -0.014028564
000270 f8 ac a0 be 5d 38 a8 3e 33 7d 69 3c 42 3c cf be
       -0.31381965 0.32855502 0.014251041 -0.4047566
000280 8c 8e b1 3e c1 18 8d 3d 71 c5 b3 3d 93 b8 94 3e
       0.34679067 0.06889487 0.08777893 0.2904707
000290 34 83 7b 3d bb 14 b1 be cb ba 9a 3e 93 fe 10 3e
       0.061404422 -0.3458613 0.30220637 0.14159612
0002a0 35 af ee bd 8c 28 12 3d 83 24 ff bd 04 c3 a6 be
       -0.11654512 0.0356832 -0.12458136 -0.3257066
0002b0 3f 9d 8c bd b7 fe cd bd 25 47 bb 3e 82 7c e0 be
       -0.0686593 -0.100583486 0.36577716 -0.43844992
0002c0 49 3c d2 3e d0 e1 3a bf 9f 28 78 3e 4a b3 73 3e
       0.4106162 -0.7300081 0.24234246 0.23798862
0002d0 aa 26 8e 3e ec 7a 19 3e 95 7a 57 3e 94 59 60 3d
       0.27763873 0.14988297 0.21042855 0.05477293
0002e0 b9 ce be bd 31 e8 bd 3d f4 6c b5 be d4 56 ce be
       -0.09316773 0.092728026 -0.35434687 -0.4030062
0002f0 d9 61 9e 3e 36 0b 68 3e 11 94 b0 3e bc b3 89 be
       0.30934027 0.22660527 0.34487966 -0.2689494
000300 11 f4 84 be 58 97 f4 be 7f c0 43 be 29 d7 83 3e
       -0.25967458 -0.47771716 -0.191164 0.25750092
000310 ac 7a 32 bd 36 1b c6 3e d5 f0 e6 3e 83 d8 26 be
       -0.04357402 0.38692635 0.45105615 -0.1629353
000320 b9 79 9e bc 73 18 db be 2e 0c db 3d dd ea b2 3d
       -0.019345151 -0.4279209 0.106956825 0.08736203
000330 f9 54 a3 bc 71 c1 4b 3e 57 56 77 3e b5 9b 28 3c
       -0.019937979 0.19898011 0.2415403 0.01029103
000340 2b 62 92 bd 0e 18 db 3c 25 1e 8d be 9d 6d 96 3d
       -0.0714763 0.026744869 -0.2756206 0.07345126
000350 2a a9 8a 3e 88 d4 28 3e 93 f1 0b 3d bc fb c3 bd
       0.27082187 0.16487324 0.03416593 -0.09569499
000360 35 2b 28 3e 78 54 aa be 44 14 fe be cf 77 cc 3e
       0.16422732 -0.3326757 -0.49624836 0.39935157
000370 e4 2b 03 be 70 59 b7 be 7e 46 f9 3e 53 10 79 3d
       -0.12809712 -0.35810423 0.48686594 0.060806584
000380 23 0a 86 3e 16 95 8b 3e d5 94 e5 3c 2b 7a 08 bf
       0.2617961 0.2726218 0.02802507 -0.53311414
000390 49 31 d8 3d 3f 32 92 bc b3 76 c4 3e 60 bb 5e 3e
       0.105562754 -0.017846225 0.3837181 0.21751165
0003a0 25 b8 b0 be 9e ef 2d 3e 41 e2 ba 3e c8 02 ba be
       -0.3451549 0.16985938 0.36500743 -0.36330247
0003b0 e9 75 80 3e 71 66 1e 3e f6 64 a2 be ee 3f 46 bc
       0.25089958 0.15468766 -0.31717652 -0.012100203
0003c0 e9 80 57 3e d9 fa 83 be ba 6c a1 3e a9 1a 85 3e
       0.21045269 -0.2577732 0.31528264 0.25996903
0003d0 ec 0f 56 be 4f 86 d6 3c df a5 f7 be 5c 11 f7 3e
       -0.20904511 0.02618709 -0.48368737 0.48255432
0003e0 97 f7 bb 3b 21 3e 9e 3e 91 fc b6 be 45 55 4a 3d
       0.005736302 0.30906776 -0.35739568 0.049397726
0003f0 a7 9c 29 3e 63 57 a9 3e 8f a8 87 3e ce dc 56 3c
       0.16563664 0.33074483 0.26495788 0.013114167

conv1.bias f4 [32]
000000 46 3a 99 bd e9 3d 76 bc 02 54 75 be 20 75 52 be
       -0.07481818 -0.015029409 -0.23957828 -0.20552492
000010 ac 3d 92 bc 3b 25 f3 bd d9 79 7d 3e d8 ab 10 be
       -0.017851673 -0.118723355 0.24753512 -0.14128053
000020 d3 dd 1d be ed 4c 39 be c0 22 c6 bb b2 60 c9 bb
       -0.1541665 -0.18095751 -0.006046623 -0.00614556
000030 fd af 10 be 8c aa a1 3e a3 71 a7 3e 29 23 84 3e
       -0.14129634 0.3157543 0.32703885 0.25808075
000040 22 24 2f 3e ef 61 db 3a bd 3a 43 be 52 21 cd 3b
       0.17103627 0.001673756 -0.19065376 0.0062600756
000050 1e a0 cf bd 9a 68 f3 3b 0c b8 a8 be 96 a8 6e bc
       -0.10137962 0.007428241 -0.32952917 -0.014566561
000060 c1 5d 19 bc 41 90 47 be 9a 1d 35 be 08 e4 4e bd
       -0.009360732 -0.19488622 -0.17687073 -0.050510436
000070 e6 e7 24 bb 09 0c 32 3d e8 34 0c be 02 dd ab bb
       -0.0025162636 0.04346851 -0.13692057 -0.005244852

conv2.weight f4 [64, 32, 3, 3]
000000 2b 8a 21 3c 2d 1c d2 bc 9f a2 ef 3c f5 f1 b8 3c
       0.009859602 -0.0256482 0.029252348 0.022576312
000010 f1 e7 a9 3d 2d ae f4 3d 6e 00 19 bc 12 e0 b8 3d
       0.082961924 0.11947284 -0.009338481 0.09027113
000020 5b 73 f5 3d 63 ea 8e bd 7f 59 83 be 16 58 a4 bd
       0.11984893 -0.069782995 -0.25654218 -0.080246136
000030 8c 49 e8 3d 44 e0 cf bd 61 2e fa 3d a6 4e ea bc
       0.11342153 -0.10150197 0.12215877 -0.028601956
000040 d1 4b 88 3e 73 f1 12 bc 83 dc 15 bd 6c 14 13 bd
       0.26620343 -0.008968699 -0.03658725 -0.035908148
000050 4b de ae bd 1a 35 28 3d ec 6b c0 3c f1 30 a3 bd
       -0.08538493 0.041066267 0.023488961 -0.07968319
000060 c5 f3 80 bd 3e 81 6a bd 8f a2 3a 3e 71 f2 8f bc
       -0.06296495 -0.05725216 0.18226074 -0.01757166
000070 cd cb 67 3b d4 f4 4a 3b 5e d6 99 bd 6c 19 8d 3d
       0.0035369277 0.0030968683 -0.075115904 0.068896145
000080 56 36 20 bd c2 1d 03 3d 3c 3d 21 3d d2 4b b1 3d
       -0.03911432 0.0320108 0.03936504 0.0865704
000090 bc 4e 0d 3d 63 9c 43 bc 47 d2 c9 bd be 55 24 bc
       0.034498915 -0.011939141 -0.0985456 -0.010030208
0000a0 47 1f 3e 3c 88 3b 22 bd 0e 25 49 3d c7 f5 82 bc
       0.011604137 -0.039607555 0.049107604 -0.015986336
0000b0 64 e7 86 3d 6b f7 a4 bd f0 16 7d be 7d ae 26 be
       0.06587103 -0.08055004 -0.24715781 -0.162775
0000c0 32 fd 33 bd 51 75 c3 bd ab 9d 2a 3e 58 20 1a be
       -0.043942638 -0.09543861 0.16661708 -0.150514
0000d0 e8 b4 01 3d e4 e6 bb 3d d5 15 0b 3d 26 21 32 3c
       0.031666666 0.09174898 0.033956368 0.010872161
0000e0 a6 71 69 3d 5f 88 ba 3d be 76 29 3d c8 b4 a2 3b
       0.05699315 0.09108042 0.041373007 0.0049653985
0000f0 5c 4c 24 3d f6 d5 9a 3d a3 55 a6 bd 69 ee 80 bd
       0.040111884 0.07560341 -0.08121803 -0.06295473
000100 37 be 08 bc 06 16 e9 bc b4 c9 07 bd 25 f2 65 bc
       -0.008346132 -0.028452884 -0.033151343 -0.014034783
000110 b7 36 02 3e 6b cd af 3b c4 b1 c2 3d f5 9a 24 3e
       0.12716185 0.005365064 0.09506562 0.16074736
000120 ef eb 04 3d f4 5f 9b bc f0 cb 5d bd ef 7b 37 bd
       0.032451566 -0.018966652 -0.054149568 -0.044795927
000130 69 df 45 3d 54 5f 7e 3c 80 8a dc bc 2e f2 d5 3c
       0.048308764 0.015525658 -0.02692151 0.026116457
000140 af 17 62 3d 9d 18 72 bd 63 22 60 be 42 29 d3 bd
       0.055198368 -0.059105504 -0.21888117 -0.10310604
000150 ec d7 8c 3d 0c 31 6b 3d 13 34 b6 3d 97 27 9f bc
       0.06877121 0.05741982 0.08896651 -0.019428058
000160 25 9e f2 bd 31 8b 86 3e 5d e0 4e be d6 b1 02 bd
       -0.1184657 0.2627807 -0.20202775 -0.03190788
000170 e1 a3 5f bd 9b f5 47 3e c7 d4 9e bd fd 17 00 3e
       -0.054599646 0.19527285 -0.07755428 0.12509151
000180 ad 93 54 3e 5a 95 11 bc 40 c9 5e bd ec 6b e0 bc
       0.20759459 -0.008885706 -0.054391146 -0.027395211
000190 a6 97 04 bd 3e 90 7b 3b 17 e9 82 bd 04 c0 88 3d
       -0.032371186 0.0038385536 -0.063921146 0.06677249
0001a0 15 e6 01 3e 7d aa 9a bd e3 f2 01 be 71 a0 af bd
       0.12685426 -0.07552049 -0.1269031 -0.08575524
0001b0 69 ce 1c be 23 9a de bd 0b 46 5c be f4 b8 dd 3d
       -0.15313114 -0.10869243 -0.21511094 0.10826293
0001c0 bc 44 07 3c 0c 22 77 3d 46 51 fc bd 14 24 8b 3d
       0.008256134 0.060335204 -0.12320189 0.06793991
0001d0 a1 b4 3f be 2b 6d 73 be 19 f2 86 be e6 41 d3 be
       -0.18721248 -0.23772113 -0.2635658 -0.41261214
0001e0 21 f4 19 be 9d 18 9c be fe 7a bd bd 66 9d 4f be
       -0.15034534 -0.30487528 -0.092519745 -0.20274886
0001f0 a5 d6 92 be 13 11 b5 be a3 16 05 bd 7e d3 19 be
       -0.28679386 -0.3536459 -0.03249229 -0.15022084
000200 1d 15 30 be 65 30 da bd 9e d0 7b bb 74 bd 96 be
       -0.17195554 -0.10653762 -0.0038423906 -0.29441416
000210 1d c4 59 3c 28 a9 b7 bd 7b fe ae be 1f 7b d4 3d
       0.013291386 -0.08967811 -0.34178528 0.10375046
000220 62 46 19 3e 59 85 17 3e 5e 0c b8 bc d2 f7 cf bc
       0.14968255 0.14796962 -0.022466835 -0.025386725
000230 df 12 60 bd e7 45 62 3d 29 0c 94 3d 0a e0 15 3e
       -0.054705497 0.055242445 0.07228882 0.14636245
000240 22 51 18 3d 48 8d bd bc a5 da e6 bd 34 73 53 bc
       0.03718675 -0.023138657 -0.11272172 -0.0129058845
000250 d2 68 a4 be 8e 3b 6b be ad 3e ec bc 46 ad 21 be
       -0.32111222 -0.22971937 -0.02883848 -0.15788755
000260 67 b6 ff bd 12 ff 0e bd 69 c4 40 3d 85 98 1e be
       -0.12485962 -0.034911223 0.04706231 -0.15487869
000270 b4 3e 15 3c ac 60 9b bd 5c 90 e7 bc 50 6e f8 bd
       0.009109188 -0.07586798 -0.028267078 -0.121304154
000280 26 e3 0f bb 64 2b d3 bb 90 fe 4f bd 1d 15 7c bd
       -0.002195546 -0.0064443815 -0.05077988 -0.061543573
000290 09 bd 71 be 31 8c 8d bd e0 dd 2a bd 16 e7 a7 bd
       -0.23607267 -0.06911505 -0.041715503 -0.08198373
0002a0 5c 71 99 bd ac ee 0c be 55 4a 15 3d cc 11 db 3d
       -0.07492325 -0.13762921 0.03644784 0.10696754
0002b0 eb 9f aa be d3 61 38 bd ff 9a 90 3b ad 59 cb 3d
       -0.33325133 -0.045015167 0.004413008 0.09929214
0002c0 fb 7e 60 3c 35 9c da 3d 97 23 14 3c d2 93 19 3e
       0.0137021495 0.106743254 0.009041688 0.14997795
0002d0 67 70 9a 3c 86 02 d6 bd 1d e8 1b be 3d 13 63 3d
       0.018852426 -0.104497 -0.15225263 0.05543827
0002e0 68 47 16 bd fe 9c ae 3d 99 19 80 bd 92 2a b6 3d
       -0.036689192 0.08526038 -0.06254882 0.088948384
0002f0 87 2e b8 3d 09 56 21 3e ff 64 1a 3e e6 d3 89 3e
       0.089932494 0.15755476 0.1507759 0.26919478
000300 39 46 5c be e4 91 1f 3e 13 c2 37 be 34 96 a6 3e
       -0.21511163 0.15582997 -0.17945127 0.3253647
000310 7c 68 a2 3d e8 e3 a5 3d 6a 26 84 3d f7 49 11 3d
       0.07930085 0.0810011 0.064526394 0.03547093
000320 7f 32 5d bd 8c 46 9b bd 15 62 b6 bd fd 5c 9c bd
       -0.054003235 -0.07581815 -0.089054264 -0.076349236
000330 3e 04 09 bd 05 ac 81 3d 58 a7 cf 3d c0 be a6 bc
       -0.03345131 0.06331638 0.1013934 -0.020354629
000340 5a fe 09 bc 1d 3d f5 bc 71 24 76 3d cc 1a 67 3d
       -0.008422459 -0.029936368 0.060093347 0.05642204
000350 50 8f e5 bc 0c 8f c1 3c df 8f 25 3d 52 a4 2c 3d
       -0.028022438 0.02362778 0.04042041 0.042148896
000360 07 28 a3 be 56 ab f3 3d cd c3 63 3e c5 6e 0a bf
       -0.31866476 0.11897914 0.22242661 -0.5407527
000370 3d 84 5b be 88 be 7c 3d 25 21 cd 3d 9b 5d cf bc
       -0.21437164 0.061705142 0.100160874 -0.02531319
000380 84 db 8f 3e c5 89 90 be f6 0f 21 3e a3 5a 25 3e
       0.28097165 -0.2823011 0.15728745 0.16147856
000390 bc 69 50 3e 9e 55 22 3e ed 41 1e 3d 1e 57 19 be
       0.20352834 0.15852973 0.03863709 -0.14974639
0003a0 01 49 55 be ce 39 00 3e b8 01 60 be c4 79 1f bd
       -0.2082863 0.1252205 -0.21875656 -0.038934484
0003b0 e5 be 37 3e 2c a7 ba bd e2 cb b4 bc eb b9 0b 3d
       0.17943914 -0.09113917 -0.022069875 0.034112852
0003c0 e6 0d c7 3c 6a e9 98 3d ec 21 1c be 03 32 17 bd
       0.02429862 0.07466395 -0.15247315 -0.03691293
0003d0 e3 a8 d9 3d 3f 54 05 be c6 19 60 bc 0d 47 47 bd
       0.10627916 -0.13020419 -0.01367802 -0.048651744
0003e0 58 c0 50 be da 48 2f 3d f2 1b c8 3d 22 0a 17 bc
       -0.20385873 0.042794086 0.09770955 -0.009218724
0003f0 e4 be d9 bc 11 d3 03 bc b3 34 3f be 48 bb 9a bd
       -0.026580282 -0.008045928 -0.18672447 -0.07555252

conv2.bias f4 [64]
000000 e1 c5 9e 3d 7d 2e 68 bd b9 79 ad 3a ab bb 08 bc
       0.07752586 -0.05668496 0.0013235129 -0.008345525
000010 f5 a5 60 3d ca a3 84 bc d7 14 c9 bb c8 a8 6c bc
       0.05484577 -0.016191382 -0.0061365175 -0.014444537
000020 d0 63 3d bd fb 7f 6b 3c d3 a2 62 3b 9d d2 4d 3b
       -0.046237767 0.014373775 0.0034581914 0.0031406053
000030 29 11 76 bd 19 0b 56 bc 9f f8 1e bd 03 9b c8 3c
       -0.06007496 -0.013064169 -0.038811322 0.024487978
000040 85 fb 19 bd f6 2d 68 3c e6 4d a9 bd 71 54 95 bc
       -0.037593383 0.014171114 -0.08266811 -0.018228741
000050 af 68 0a 3d 02 5c ca bc ad 46 39 3d 96 61 22 bc
       0.03379124 -0.024702076 0.045233417 -0.009910962
000060 2b 18 cb 3d df 7e 8c bd 29 5e 8e 3d 0d f9 2d bc
       0.09916719 -0.06860136 0.069515534 -0.01061846
000070 7b 19 31 bd 82 f5 21 3d df 7c 94 bd 88 28 32 3d
       -0.04323719 0.039540775 -0.0725038 0.043495685
000080 dd 83 c7 3d 4d bc 3c bd e0 5a b8 bc 68 a3 8f bd
       0.09741948 -0.046078015 -0.02250427 -0.07013589
000090 75 e0 f4 3b a7 34 85 bd 4f ff 1b bd 3f 23 b1 3d
       0.0074730464 -0.06504183 -0.038085278 0.08649301
0000a0 f0 af 6a 3c ff 88 75 bc d2 43 14 be 4d 62 2f 3c
       0.014324173 -0.014986276 -0.14478996 0.010704589
0000b0 48 99 98 bd f5 48 9c bc 60 25 13 3d 3b 44 bf 3d
       -0.07451111 -0.019077757 0.035924315 0.09339186
0000c0 43 e1 45 3d 80 1b 7d bd 25 1a 0a bd 80 3b a7 3a
       0.04831053 -0.061793804 -0.03371634 0.0012758821
0000d0 b9 12 22 3d 20 81 8c bd bd 02 32 3a 57 47 ab 3c
       0.039568637 -0.06860566 0.0006790569 0.02090804
0000e0 a4 27 68 bc 97 fc 8b bd c2 d4 08 bd 2c dd ae 3c
       -0.014169607 -0.06835287 -0.033406027 0.021345697
0000f0 60 9e 19 3e 69 53 44 3d bd f7 4d bd 64 a7 4e bd
       0.15001822 0.04793111 -0.05028509 -0.050452605

conv3.weight f4 [128, 64, 3, 3]
000000 f8 dd be bc 8b cf 1f bd b8 15 28 bd 41 39 48 3c
       -0.023299202 -0.039016288 -0.041036338 0.012220682
000010 6f 2f 4c 3c 90 f8 e8 bc f8 3b 50 3c 4d e6 ee 3c
       0.012462481 -0.028438836 0.01270961 0.02916255
000020 15 dc 55 bd de ae 4e bd dd 2b d1 ba d1 f0 94 bc
       -0.05221184 -0.050459735 -0.0015958507 -0.018181236
000030 23 3b 25 bd 2e 66 32 bd d2 fe f6 bc aa 2b 83 3c
       -0.0403396 -0.043554477 -0.030150805 0.016012032
000040 a7 91 ea bc 24 59 bc 3c 2b bb 4e bd da fd 07 bd
       -0.028633906 0.022991724 -0.050471466 -0.033201076
000050 2d f0 47 3b c0 b1 01 3c 96 8f 3e 3b 7b 3f 01 bd
       0.0030508146 0.007915914 0.0029077283 -0.03155468
000060 3a b4 52 bc b0 0d 31 3c 94 4c 84 bc 13 3a c6 bc
       -0.012860352 0.010806486 -0.016149797 -0.024197614
000070 d8 cd c8 bc 68 40 f6 bb 50 bd 62 3c b8 f8 cc 3b
       -0.024512216 -0.007515002 0.013839081 0.0062552355
000080 40 5e 12 3c 36 1f c1 3c 4a 7c ed 3c d6 2b 80 bc
       0.008933604 0.023574453 0.02898993 -0.015645903
000090 e1 16 0d bd 88 ff 0e bd 30 86 b7 bc ef f4 d1 bc
       -0.034445647 -0.034911662 -0.022402853 -0.025629489
0000a0 7f a8 5b 3c 94 98 5d bb 15 20 16 3c cd b9 2c 3a
       0.013406872 -0.0033812867 0.009162922 0.0006588966
0000b0 85 f5 7b bb ee db 10 3d 9d 16 2e bd aa 9c 17 3d
       -0.0038445902 0.03536599 -0.042502034 0.03701464
0000c0 64 6b 11 bd a1 fb 29 3c 5c c9 0f bd 51 a6 0f 3d
       -0.035502806 0.010374934 -0.03510414 0.03507072
0000d0 e6 82 9a bc 8c 45 39 bd 58 62 84 bc 4b 09 d5 bc
       -0.018861245 -0.04523234 -0.016160175 -0.026005408
0000e0 d6 0a d3 bc 5b 44 a6 bc 98 4a e7 bc 3f 4d 1b 3d
       -0.025762003 -0.020296266 -0.028233811 0.037915464
0000f0 a6 53 19 bd a5 15 0b 3d c0 81 63 bc 96 9a 9e 3c
       -0.03743329 0.03395619 -0.013885915 0.019360822
000100 98 fb ee bc 20 71 f5 3a b6 7e fc bc 41 8a 02 3d
       -0.029172704 0.001872573 -0.03082214 0.03187013
000110 e6 21 2f bc b2 36 0e bd 58 ba b8 bc 0d c9 29 3d
       -0.010689234 -0.03472013 -0.022549793 0.041451503
000120 65 4c aa bc 1a 24 07 3d 69 e6 df 3a da 4a 30 bc
       -0.02078838 0.032993414 0.0017082217 -0.0107600335
000130 b0 ba 00 bd b2 46 5b bc b7 cc 9d bc 65 a1 0f bd
       -0.03142804 -0.013383554 -0.019262655 -0.035066027
000140 1d a2 07 3c 54 31 90 3c 53 e0 1e bd 6b d4 35 bc
       0.008278397 0.017601646 -0.03878815 -0.011098008
000150 d1 8d bf bc 96 01 12 bd da 89 02 bd 66 a9 95 bc
       -0.023383053 -0.035646044 -0.031869747 -0.018269252
000160 dd 56 00 bc 0b c6 28 3c aa f3 a2 3c ae 4f 36 3c
       -0.00783321 0.010301123 0.019891579 0.011127396
000170 52 ef 66 3b 19 92 c2 bb 33 16 8c bb 71 7c 24 bd
       0.003523786 -0.0059378264 -0.0042751073 -0.04015774
000180 84 b0 2d bd 8c ec 9b 39 7e ae 2d 3b 44 32 09 3c
       -0.042404667 0.00029740145 0.002650171 0.008373801
000190 03 ec 2e 3b 76 75 f8 bc 52 35 2d bd 3e 6f 2c bd
       0.0026690967 -0.030329447 -0.04228718 -0.042098276
0001a0 91 c4 cc bb 69 2b 3a bd c9 fb 1e bd 20 ce 0d 3d
       -0.0062490185 -0.045451555 -0.03881434 0.034620404
0001b0 70 e6 09 bd 4f 6a 1a bd ab 9a 0e bd 47 3b 06 bd
       -0.033667028 -0.03769904 -0.03481547 -0.032771375
0001c0 9f ca 1b bd d3 fb ec 3a 51 d7 00 bd dc c8 3b 3b
       -0.03803503 0.001808042 -0.03145534 0.0028653657
0001d0 9b 06 89 3c e5 05 71 bd bd fc 6f bd f9 15 c3 bc
       0.016726783 -0.058843512 -0.05859064 -0.023814188
0001e0 50 3f 13 bc ca d6 06 bd ff a4 0b 3c ae 97 a4 bc
       -0.008987263 -0.032919683 0.008523225 -0.020091858
0001f0 33 4d 0e bd 2a e2 d4 bb 34 f4 86 3c 79 77 6d bb
       -0.03474159 -0.0064966874 0.016473867 -0.0036234541
000200 ec cf 04 3d 04 a7 10 bc f5 d1 a9 bc 3c 87 d4 3b
       0.032424852 -0.008828882 -0.020729998 0.0064858478
000210 30 6c 80 bc 9d a7 cb bc 0a d4 8c 3c eb 8c 65 bd
       -0.015676588 -0.024860198 0.017190952 -0.056042593
000220 95 cf d3 bc f0 e9 8e bc 84 ba ed bb 05 f6 19 3d
       -0.025855819 -0.017445534 -0.0072549004 0.037588138
000230 1e b1 9c 3c cc 65 2b bb 09 db 1a bd be 15 26 bb
       0.019127425 -0.0026153205 -0.037806544 -0.002534255
000240 03 c2 33 bd c3 cb b9 3c 38 36 00 3d 2b 91 f4 3b
       -0.043886196 0.022680169 0.031301707 0.0074635944
000250 17 d4 fc 3b 5d 42 83 3c 18 8a 8a bd 59 65 a8 bc
       0.0077157128 0.016022855 -0.067646205 -0.020556139
000260 ef d7 a3 bc 1a 57 79 3c 8b 99 ac 3c c9 9a 0d bd
       -0.020000426 0.015218521 0.021069309 -0.034571443
000270 f0 36 6c bb 94 88 08 bd 49 5a 05 bd b6 fb 0e 3c
       -0.0036043487 -0.033333376 -0.032556806 0.008727005
000280 1f 5c b6 3b 39 b4 03 3c 3b 0f 2a bd d2 2a 19 bd
       0.005565181 0.008038574 -0.04151843 -0.037394352
000290 c7 9f 58 3c 2c 76 c6 3c 10 d6 8e 3c 1e 87 2e bc
       0.013221688 0.02422627 0.017436057 -0.010652332
0002a0 ca 50 02 bd fe 72 25 bd c2 91 b4 3c fb c1 7f 3c
       -0.031815328 -0.04039287 0.022042159 0.015610213
0002b0 ec 2e 5e bc a1 c3 93 bc 65 9f 61 bd a7 52 c1 3c
       -0.013560992 -0.01803762 -0.05508365 0.023598982
0002c0 b1 ba ff 3c 3e 43 b0 bc 7c 5c 03 3c 1a e6 1f bd
       0.031216951 -0.021516439 0.008017655 -0.0390378
0002d0 28 3b 7d bd 17 a6 b2 bc 11 65 fe 3b ad 39 04 bd
       -0.061823994 -0.021807713 0.007763513 -0.032281566
0002e0 f6 97 5c 3c b8 f1 de 3c 75 b4 55 bd ce d1 23 bd
       0.013463965 0.02721487 -0.05217405 -0.039995007
0002f0 fe c9 1c 3d 68 3a 28 bc 87 b4 6c 3c cb e2 5e bc
       0.038278572 -0.010267831 0.014447338 -0.013603876
000300 cd 78 3c bb 13 eb 32 bd c3 58 de 3c 7e de c0 bc
       -0.0028758526 -0.043681215 0.027141934 -0.023543593
000310 af bd 01 bd 63 ed 29 bd 48 7c 77 3c d1 b1 fd bc
       -0.031675037 -0.041486155 0.015105315 -0.030968579
000320 57 4b e1 bc b0 a9 6d bd 2c 1e a9 bc b0 a6 15 bd
       -0.027501745 -0.058023155 -0.02064427 -0.03653592
000330 f0 8e 41 bc c3 c5 29 bd a9 91 b6 bc 3e e5 b2 bb
       -0.011813864 -0.041448366 -0.022286253 -0.0054594567
000340 26 7f 9b bb b7 b3 f6 3b 95 77 94 3c ac 62 10 bc
       -0.004745382 0.007528748 0.018123427 -0.008812588
000350 15 c9 24 3c 5f 73 58 bd 35 5c 7b bd 23 7c 87 bb
       0.010057707 -0.0528444 -0.061367232 -0.0041346713
000360 33 49 f3 bc c5 e7 e3 bc 37 bb 47 bc 7d 16 81 3c
       -0.02969799 -0.027820477 -0.012190632 0.015757794
000370 03 db 88 bc 01 38 82 bc c4 03 70 bd 91 59 1f bd
       -0.016705995 -0.015895845 -0.05859734 -0.038903777
000380 39 f6 1d bb 5b b3 21 3c bc 8c 8a bc c1 53 84 3c
       -0.002410306 0.009869422 -0.01691281 0.016153218
000390 3f 21 06 bd 2f 56 30 bd b6 37 70 3b 81 26 6f bc
       -0.03274655 -0.04305094 0.00366543 -0.014596582
0003a0 d9 c9 a3 bc 34 7b 10 3c 80 f3 5b bc 33 6f 37 bd
       -0.01999371 0.008818436 -0.013424754 -0.044783782
0003b0 56 76 0c 3c d7 1b 06 b9 5a 52 30 bd 5f 03 e3 bb
       0.008573135 -0.00012789607 -0.043047287 -0.006927892
0003c0 71 f5 85 bb 0b be 51 bd a7 51 b3 3a d0 7f 1c bd
       -0.004088097 -0.05120663 0.001368095 -0.03820783
0003d0 a5 02 94 bc 6d 44 42 ba ba 1e a7 bc df cd 1f 3c
       -0.018067667 -0.0007410709 -0.020400394 0.009753673
0003e0 fd 87 b2 3c 6d de 5c 3c c2 fd cc 3c 7a 18 c6 bb
       0.02179336 0.013480765 0.025023345 -0.0060453983
0003f0 06 d3 23 bd 3a 39 0e 3d f1 a5 0b 3d 0d 65 1c bd
       -0.03999617 0.034722544 0.0340938 -0.038182307

conv3.bias f4 [128]
000000 1b f0 42 bd c9 79 b6 bb 3a ca c1 3c 38 f9 3f 3b
       -0.047592264 -0.005568717 0.023656 0.0029292833
000010 ee cf bd 3b ea 7c 55 bd d0 b0 64 bd de 40 6a bd
       0.0057926094 -0.05212108 -0.055832684 -0.05719077
000020 89 47 09 bc 34 c8 0e bd 9b 31 3e 3b 2f 56 38 bd
       -0.008378872 -0.034858897 0.0029021266 -0.045004066
000030 63 6a 1d bd 21 d8 69 bc 7d a5 57 bc 00 00 34 bd
       -0.038431536 -0.014272721 -0.013162014 -0.043945312
000040 aa 6f 84 3c e9 31 54 bd 7d e7 7e 3c ea 48 d1 3c
       0.016166527 -0.05180541 0.015558121 0.025547463
000050 2a 33 5f 3d 4a e4 c1 bc 3c 0e 50 3d 0e ef 4a bd
       0.054492153 -0.023668427 0.050794825 -0.049544387
000060 60 4d 38 bb bd 27 4d 3c 07 2a e8 3b 1d 92 52 3d
       -0.002812229 0.012521681 0.007085088 0.051408876
000070 27 f6 33 bd 79 b2 5e bd 41 49 1c bc 09 7b b6 b9
       -0.04393592 -0.054369424 -0.0095389495 -0.00034805413
000080 65 fd 0a 3d ec 10 7f 3c 10 ab 8a bd f4 02 17 3d
       0.033933062 0.015567999 -0.06770909 0.03686805
000090 bc be 7e 3c 06 8b 0b 3d ef 8b 67 3d 6c 9e 57 bc
       0.015548404 0.03406813 0.056529935 -0.013160329
0000a0 45 85 11 bc 9c 63 ba 3c d2 e4 d5 3b dc e9 a2 bb
       -0.008881872 0.022752576 0.0065275216 -0.004971726
0000b0 18 14 46 bd 05 60 b7 3c 63 ff 8b 3c 94 1f 59 bd
       -0.048359007 0.022384653 0.017089551 -0.05300863
0000c0 1d 59 bf 3c 16 1a 96 bb ad 38 6e 3c 1c bd 26 3d
       0.023357922 -0.0045807464 0.01453988 0.040707693
0000d0 3f 34 c0 3a 7f 6e f0 3c a0 00 d4 3d f2 8c 24 3a
       0.0014664008 0.029349564 0.10351682 0.0006277106
0000e0 da b6 11 3b 93 9c 93 bc 0b 96 61 3d 77 76 5d bc
       0.0022234232 -0.018018996 0.055074733 -0.013517014
0000f0 6f 53 2e 3c 14 6f 5a 3d 2a 01 28 bd d9 90 37 3c
       0.010640009 0.05332859 -0.041016735 0.011203968
000100 46 7d c8 bc fd 26 e5 3d f3 46 7b 3d 2a be b9 bc
       -0.024473798 0.11189077 0.06134696 -0.022673685
000110 64 52 d4 3b e9 a5 88 3c 08 00 50 3d 6b ee 46 3d
       0.0064795483 0.016680675 0.05078128 0.048567217
000120 dc 3b 42 3d f6 d9 58 3d e2 c9 ff 3b 8d f2 e0 bc
       0.047420368 0.05294224 0.0078060487 -0.027459407
000130 98 be c5 bc c5 31 9b 3d 19 5c 29 3d e2 4b 9c bc
       -0.024138734 0.07577852 0.041347597 -0.019079152
000140 cc fc ce bc 77 96 1e 3d ba 91 c6 bb 28 7b be 3a
       -0.025267027 0.038717713 -0.0060598524 0.0014532553
000150 40 f7 be 3d 88 f4 9c bd 95 76 6e 3c 29 2b 85 3d
       0.09324503 -0.07663828 0.014554639 0.06502373
000160 89 88 60 3d 15 3e ab 3c e1 1f 2c 3c cd 44 4b bd
       0.05481771 0.020903626 0.010505647 -0.04962616
000170 25 25 fd b9 fe 25 4a bd 5a 93 78 3d ed 24 71 bd
       -0.00048283595 -0.04935264 0.0606874 -0.058873106
000180 84 7e cf 3c b8 fc e6 3c 6b 5d cd 3a b6 4d c1 3d
       0.025328882 0.028196678 0.00156681 0.0943865
000190 83 b2 45 3a 10 26 c3 bb 0b 50 7d bd aa f4 74 bd
       0.0007541554 -0.005955465 -0.061843913 -0.059803642
0001a0 fd e4 76 3d d4 38 27 bd 8f cb 5c 3d 99 c6 5e bd
       0.060276974 -0.04082568 0.053905066 -0.054388616
0001b0 b1 e3 62 39 4e 1f 92 3d 27 de 4c bd f5 da 37 3d
       0.00021637861 0.07134877 -0.05001655 0.044886548
0001c0 a4 97 6b 3c 2f 32 3f bb 35 47 81 bc 8a 52 64 3d
       0.014379416 -0.00291742 -0.015781024 0.055742778
0001d0 c8 9a 6b 3d 52 6f 06 bb cb 43 c9 3b 37 50 03 bd
       0.057520658 -0.002051313 0.0061421148 -0.03205892
0001e0 d0 45 14 bd 4b 04 2e 3c 09 7a 4c bb 8b 05 29 3d
       -0.03619939 0.010621141 -0.0031200668 0.04126505
0001f0 a7 3e 4a bc 69 fe 6a 3d 24 64 99 bd d8 a3 53 bd
       -0.012344039 0.05737153 -0.074898034 -0.051669925

fc1.weight f4 [512, 128]
000000 62 4c d8 3c 79 9e 9b bb d8 2e 58 3d b4 17 aa 3d
       0.02640361 -0.004749116 0.05277905 0.08305302
000010 92 a3 47 bd 5f 6c 2b bd e3 38 f1 3b 1f 31 fa 3d
       -0.048739977 -0.041851398 0.0073615178 0.122164
000020 87 08 c0 3d 66 c2 e6 3c 7c fc 10 3e b8 70 cf 3d
       0.093766265 0.028168868 0.14158815 0.10128921
000030 a1 95 c4 bd 11 5c 42 3d 2f fd 5e 3c f6 e4 18 3e
       -0.09598852 0.047451083 0.013610168 0.14931092
000040 da 9c db 3c 5f 2c 5e 3d 6e c9 be 3c 3d b4 ed bd
       0.026808191 0.054241534 0.023289409 -0.11606643
000050 8b 55 5e bd 74 11 f0 3b a9 78 bd 3d bd 2e 8b bd
       -0.0542808 0.0073262993 0.0925153 -0.06796024
000060 e0 29 88 3e d1 4c 4e 3d 84 8b 26 bd 6e 84 4c 3d
       0.26594448 0.050366227 -0.040660396 0.049930982
000070 b3 f7 f8 bb 29 a9 cc 3d 1a cf b9 3c b0 b8 7b 3d
       -0.0075978874 0.09993202 0.022681762 0.06145543
000080 52 37 09 bd c3 18 7e be c7 d1 0e 3d 7e 57 b4 3d
       -0.033500023 -0.24814133 0.034868028 0.0880575
000090 84 60 af bd 38 3f ee 3b 04 4e a1 bd 83 16 27 3d
       -0.08563331 0.00727072 -0.078762084 0.040792953
0000a0 7b 00 9e 3e 57 20 4f bd 6d d9 c9 bc 1f 5c 33 be
       0.30859742 -0.05056795 -0.02463981 -0.1751561
0000b0 20 03 7e 3d ce 49 de bd aa 11 8d bc ed 11 b4 bc
       0.0620147 -0.10853921 -0.017220337 -0.021981204
0000c0 33 45 5a 3c ce f6 94 3d fe 87 3f bd 9c e4 91 bd
       0.013322162 0.07273637 -0.04676055 -0.07123682
0000d0 6c 1d c4 3c 8b 65 3e 3d a4 93 7c bb 89 ec 2b 3d
       0.02393981 0.046483558 -0.003854015 0.041973624
0000e0 fd fc 94 3d a4 64 c8 3c 20 ad 2b 3c 3c cb d1 3c
       0.07274816 0.024462052 0.010478288 0.025609605
0000f0 c7 45 cf 3d a7 8b b2 bc 83 09 0f bd 48 37 06 3e
       0.10120731 -0.021795107 -0.03492118 0.13107026
000100 9c ea 0c be 29 1e b7 3c 8b 33 72 bd b9 c7 99 3d
       -0.13761371 0.022353249 -0.059131186 0.07508797
000110 98 b2 e2 bd 31 f2 d6 3d b4 7c 0b 3d 1b c8 89 3d
       -0.1106922 0.10495413 0.034054473 0.0672762
000120 04 f1 b1 bd 25 a8 30 be 78 3a aa bb 30 70 69 3d
       -0.08688548 -0.17251642 -0.0051949583 0.056991756
000130 e5 24 1d bd 22 c8 dc bd 6d 3f a8 3d fb 21 f9 3d
       -0.038365263 -0.1078036 0.082152225 0.121646844
000140 1d d6 f0 3d da 9c d9 3c 7d de 3c 3d fc da dd bd
       0.11759589 0.02656405 0.04611062 -0.108327836
000150 3f db d8 bd be 11 c6 3c 6b ab ac bd 05 b2 f2 bd
       -0.10588693 0.024178382 -0.08431133 -0.11850361
000160 ff 12 bd bc 77 f6 3a 3d b8 27 13 3d 1b 38 38 3d
       -0.023080347 0.045645203 0.03592655 0.04497538
000170 6d 1b 15 bc bb 81 80 3d 36 a8 96 be 0f 92 eb 3d
       -0.009100777 0.06274744 -0.2942521 0.11502468
000180 96 a5 ec bc bc 59 c7 3d 4d 29 a9 bc 8c 66 a3 bd
       -0.028887551 0.09733912 -0.020649577 -0.07978544
000190 8d a6 96 bc f1 3c 28 3d e5 5e 13 3d 18 ac b5 bd
       -0.018389964 0.041073743 0.03597917 -0.08870715
0001a0 d6 ef ff bd 04 09 35 bd d6 d2 dd 3d 1c 43 b4 3d
       -0.12496917 -0.04419805 0.108312294 0.088018626
0001b0 36 14 a9 3d fe 0a e9 bd c7 8e 92 bd 47 fb 24 3d
       0.08255808 -0.1137905 -0.07156139 0.0402787
0001c0 f3 e4 f4 bc e4 d2 88 3d 1b 1a 3d 3d ae 75 30 be
       -0.029894328 0.06680849 0.046167474 -0.17232391
0001d0 07 58 f5 3d 25 ab 13 3e 25 3c 6c be 7f a0 21 3e
       0.119796805 0.14420755 -0.23069818 0.1578388
0001e0 40 b4 77 bd d7 90 25 bd be 47 75 3d fa ef ad bd
       -0.060474634 -0.040421333 0.05988287 -0.084930375
0001f0 2d 10 86 3d dc 23 03 be a4 8b a8 3d 40 00 e0 3c
       0.06546054 -0.12806648 0.08229759 0.02734387
000200 71 33 18 3d 02 45 f2 3c fa d3 9c 3d 51 e7 a7 3d
       0.037158433 0.029573921 0.07657619 0.08198417
000210 46 cc d3 3d 40 32 60 be 52 ac 4c bc 14 4b e8 bd
       0.103416964 -0.21894169 -0.012492256 -0.11342445
000220 49 e7 33 3e 14 7d a7 bd 98 ac e0 3c 33 6c 19 bb
       0.17568697 -0.08178154 0.02742605 -0.002341044
000230 59 0c 07 3d 88 df 87 bd 26 50 12 3e c9 b6 97 3d
       0.03297076 -0.06634432 0.14288387 0.074079104
000240 80 40 7a bd 79 61 f4 bd 78 f9 c1 3d 31 8b 7b be
       -0.06109667 -0.11932654 0.094714105 -0.24564816
000250 f1 f9 97 3d 51 29 14 bd b3 89 00 be 30 2e 02 3e
       0.074207194 -0.036172215 -0.12552528 0.12712932
000260 12 b4 77 bd 47 fa 02 be a4 ac 07 bc 12 0c 89 3d
       -0.060474463 -0.12790786 -0.008280907 0.06691755
000270 0f 56 99 bd 28 98 49 3b ae 15 37 3e 0f 5e d6 3d
       -0.074871175 0.0030760858 0.17879364 0.10467159
000280 bc 41 4c 3c b4 3b 9a bc 02 2f 8e 3d bf 6f 2d bd
       0.012466844 -0.018827297 0.0694256 -0.042342898
000290 21 da 06 3b d3 b6 c9 3d 1e 18 71 3d 3d 5e de bc
       0.0020576792 0.09849324 0.05886089 -0.027144546
0002a0 d2 2a 48 bc b8 26 16 3d 60 8c e7 bc f3 87 27 3e
       -0.01221724 0.03665802 -0.028265178 0.16360454
0002b0 d3 a7 80 3d 14 b0 b4 3d 2c 46 d7 bc da 60 24 3d
       0.0628201 0.08822647 -0.026278578 0.040131427
0002c0 ac 6f c2 bd fe ec 61 bd 30 47 9f 3c f0 29 89 3d
       -0.09493956 -0.055157654 0.019443125 0.06697452
0002d0 ed 9a ce bd 99 87 58 3d 70 39 f8 bd 42 4a 96 bd
       -0.100881435 0.05286369 -0.1212033 -0.07338382
0002e0 d2 cc 29 bd 4a a5 97 3d 06 b5 0d be 17 11 49 bd
       -0.041455097 0.07404573 -0.13838586 -0.049088564
0002f0 f2 85 24 3c 96 c3 b1 bb 17 80 14 3c 34 b0 a7 bd
       0.010041701 -0.005424927 0.009063742 -0.08187905
000300 b6 80 37 3c 18 27 81 bd 0e 34 b3 3c d5 f6 a3 bb
       0.011200121 -0.06306285 0.021875408 -0.00500379
000310 85 33 5b bb a8 f1 8c bd 12 52 36 3d 40 95 2b bd
       -0.0033447456 -0.0688203 0.044511862 -0.041890383
000320 c0 0f 8a 3d c8 71 e8 ba 30 b2 d6 bd 72 94 82 3e
       0.06741285 -0.0017734105 -0.10483205 0.2550388
000330 1f 23 be 3d da 4b 34 3e e3 25 79 3c 72 b2 06 3b
       0.092840426 0.1760706 0.015206787 0.002055314
000340 cd 1f 4b 3d 93 20 cf 3d b8 94 31 3c 11 8a c3 bc
       0.049590874 0.10113635 0.01083868 -0.023869546
000350 f5 4a 01 bd 72 9a 9e 3c 91 89 3f 3e df 6a bc 3c
       -0.031565625 0.019360755 0.18704821 0.023000179
000360 32 40 b1 3d 90 e2 81 3c 7f 12 90 bd 4c 9a 89 bc
       0.086548224 0.015855104 -0.07034778 -0.016797207
000370 7b 4b 91 bd 2e 26 3b bd 4a 84 46 3d 5b 57 58 3d
       -0.07094475 -0.045690708 0.048466004 0.052817684
000380 98 3c 6c 3d 28 c9 47 3d 27 5f 84 bd e6 20 1d bb
       0.057674974 0.048775822 -0.06463461 -0.0023975908
000390 ac ce 20 3e 31 5b 22 bd 10 02 65 3d 4b 00 e0 3c
       0.15703839 -0.03963775 0.05591017 0.02734389
0003a0 a6 79 44 bd b4 fd 2e 3d a8 de b8 bc 0b a7 d9 3b
       -0.047967575 0.04272242 -0.022567108 0.0066422275
0003b0 8c 59 76 bd 60 14 e1 3d 19 c3 c0 3c c8 4f d4 bc
       -0.060143992 0.10990214 0.02353053 -0.025916949
0003c0 18 b8 39 3e 7b 4b 1c bd 7e c6 be bd b1 b0 5b 3e
       0.18136632 -0.03815792 -0.09315203 0.21454121
0003d0 dd bd 27 be ce 30 c1 bd af 7d 78 3e f3 6d c6 bd
       -0.16381021 -0.09433137 0.24266694 -0.0968894
0003e0 11 9b 80 bd 9f 52 26 3e ce 52 64 3c b6 46 40 3d
       -0.062795766 0.16242455 0.013935758 0.046942435
0003f0 04 9a 9f 3d 23 31 12 be f0 04 72 3d 7f 5f 19 3c
       0.07793048 -0.14276557 0.05908674 0.009361147

fc1.bias f4 [512]
000000 fa 50 ab bc 7b 01 41 3d 2a b5 17 3d 32 e9 fe bc
       -0.020912636 0.047120553 0.037038006 -0.031117056
000010 27 81 7f 3d eb 1c d7 bd 56 56 cc bd 83 27 e3 3d
       0.06237903 -0.105035625 -0.09977405 0.11091521
000020 79 93 b3 bd f1 a1 12 3c 3f 00 09 3e 56 f1 02 bd
       -0.087683626 0.008949743 0.13379 -0.031968437
000030 a5 9c f8 3b b4 44 bb bd b2 9f b4 3d 7d f9 a1 bc
       0.007587033 -0.091439635 0.08819522 -0.019772286
000040 23 51 7e 3d 90 e3 1f 3d d9 3f 93 bd 16 93 8f bd
       0.062089097 0.03903538 -0.07189912 -0.07010476
000050 9b 4e cc bd 50 c3 88 3d 0d a0 c6 bb f3 b7 bf 3d
       -0.0997593 0.06677878 -0.00606156 0.093612574
000060 23 4b 69 3c 8b 6e 92 bd 68 f2 0b 3d e6 17 a3 3d
       0.014239105 -0.07149991 0.034166723 0.07963543
000070 f1 d9 1f 3d 5f f3 ee bd eb 0f 36 3d 84 95 b4 3b
       0.039026204 -0.11667513 0.044448774 0.0055109877
000080 e9 69 67 3c bd 91 54 bd b6 69 b7 bc 0c 8b 1c 3d
       0.014124372 -0.0518968 -0.022389274 0.038218543
000090 b4 d4 8d bd a7 2e 04 3e 5e ef 8b bd 68 da cd 3c
       -0.069253355 0.12908421 -0.06832765 0.025128558
0000a0 94 e3 20 3d 9f 16 2e bd cb 9a 6f 3d 26 0f 15 bd
       0.039279535 -0.042502042 0.05849723 -0.0363914
0000b0 6b 4a 1f 3a 2c 04 87 3d 6b 13 33 bb 11 ce 55 3d
       0.0006076458 0.065925926 -0.0027324806 0.052198473
0000c0 e6 a3 99 bd 56 85 e3 3c bd 7a 10 bd 8c a0 1b bc
       -0.07501964 0.02777354 -0.035273302 -0.009498727
0000d0 47 a4 c2 bc 57 b7 95 bd b1 15 f9 3d c5 cc d1 3d
       -0.023759974 -0.0731036 0.121623404 0.10244135
0000e0 db e8 91 3d d3 b5 30 3d 8f 23 e0 bd 48 ae 30 bd
       0.07124492 0.04314215 -0.10944282 -0.043134958
0000f0 e1 11 02 3d 4b 07 ba bd 6f fc d8 bb 75 1f f3 bd
       0.031755332 -0.09083422 -0.0066218893 -0.11871234
000100 73 f3 c5 ba 85 ab ec bd da a1 63 3d 03 fe bd bd
       -0.0015102461 -0.11556152 0.055574276 -0.092769645
000110 4a c8 9e bd cc 04 05 bd a4 35 5a bc 86 be 0b bd
       -0.07753046 -0.032475278 -0.013318453 -0.034117244
000120 0e 5e 11 3c a4 be 0c bc 92 44 89 bc e6 dc 96 3c
       0.008872522 -0.008590374 -0.01675633 0.01841588
000130 7f 9d e7 3c 9f 61 8f 3a 72 27 ca 3d b7 51 96 bd
       0.028273342 0.0010939128 0.09870805 -0.073398046
000140 db a3 a0 3d 8e ed 52 bc 7f 45 ec 3d fe 46 7a bd
       0.07843753 -0.01287402 0.11536693 -0.06110286
000150 7e 48 b4 bd 7a ce 33 3d 49 bb b6 bd 84 21 01 3e
       -0.08802889 0.043898083 -0.089224406 0.12610441
000160 24 f0 43 3d e5 b9 75 3c 3c a0 09 3c fc 66 e5 bc
       0.047836438 0.014997934 0.008400019 -0.028003208
000170 11 d9 38 3d d5 76 9a 3d 0f 0d 55 bc e7 3b 41 3d
       0.045128886 0.07542197 -0.013003602 0.047176268
000180 2d e2 8a 3d 95 c8 02 3e 69 7f 79 3d 61 b1 3c bd
       0.06781421 0.12771828 0.060912523 -0.0460676
000190 b4 8a 46 bd 9e f5 7e bd 94 82 3b 3d f8 38 4a 3c
       -0.04847212 -0.062245958 0.045778826 0.012342684
0001a0 69 f7 03 3d 6a 3e cd bc ad f3 85 bd 7c b6 41 bd
       0.03221837 -0.025054175 -0.06540618 -0.04729317
0001b0 2a 48 e9 3d 66 29 ab bc 2e a5 a5 3d b3 f1 64 bc
       0.11390717 -0.020893764 0.08088146 -0.013973641
0001c0 8b b2 60 bd de 51 22 bc d6 4c b6 bd 1f b7 6e bd
       -0.05485777 -0.009907214 -0.08901374 -0.058280107
0001d0 c0 65 29 bb 71 86 d8 3c 12 c4 ff 3c 37 bd 2e bd
       -0.0025848001 0.026431294 0.031221423 -0.042660918
0001e0 9c 45 8c 3d d3 ab f6 3c b8 74 7f bc 2d 1a 75 bd
       0.068492144 0.030111229 -0.015591793 -0.059839416
0001f0 6e 55 a3 3d c0 60 4e bd a0 e6 56 3d b6 7b e9 ba
       0.07975279 -0.050385237 0.052466035 -0.0017813358
000200 b9 81 14 bd c1 3f a8 3d 6c 5e f0 bc 72 d8 ae bb
       -0.036256526 0.08215285 -0.029341899 -0.005335861
000210 a1 81 df bc ea 54 a5 bb 7a 9b 5a 3d 7a ee d8 ba
       -0.027283492 -0.005045523 0.05337093 -0.0016550564
000220 d7 28 b0 3d 68 27 31 bd fc c3 56 bd af a0 a0 3c
       0.086015396 -0.04325047 -0.052433 0.01960787
000230 76 c6 cd bd fc 97 9e bd ee 5c ff 3d 42 b2 bc bd
       -0.10047619 -0.077438325 0.12468897 -0.092136875
000240 79 ac c3 3d 00 0f ac bd 68 4c 92 3d 6c 74 32 3b
       0.09554381 -0.084012985 0.071434796 0.0027230037
000250 91 7b 29 bd 00 13 6d bb 08 66 3c bb d7 ce 6f 3d
       -0.041377608 -0.0036174655 -0.0028747339 0.058546867
000260 8f 36 0a 3d d8 0a db 3d 74 a0 cd 3d e1 a2 85 bd
       0.033743437 0.10695428 0.1004037 -0.06525207
000270 07 56 f5 3c be 8f 58 3c 09 10 90 3d d9 49 97 3d
       0.029948248 0.013217865 0.070343085 0.07387132
000280 60 03 a5 bd f3 ff 80 3b a6 42 af 3d 14 ad 39 3b
       -0.08057284 0.0039367615 0.08557634 0.0028331922
000290 27 46 d3 bd 05 61 8f bb 23 86 59 bd 78 0b cc bd
       -0.10316115 -0.0043755793 -0.05310644 -0.09963125
0002a0 7d 50 a9 3d 25 0d 2b bd 53 09 50 3d 6c 37 2f 3e
       0.08267305 -0.041760582 0.050790142 0.17110986
0002b0 0c 11 aa 3d 5e 4f 98 3d 46 58 8b bc 0c dc 01 3d
       0.08304033 0.07437013 -0.017009865 0.031703994
0002c0 db f2 70 bd 79 98 9f 3d f3 f4 dc 3d 56 82 6d 3d
       -0.058825355 0.07792754 0.10788908 0.057985626
0002d0 ca 1f 09 3d 70 a1 b1 3d de 9d cf 3b c2 79 38 3d
       0.033477582 0.0867337 0.006335958 0.045037992
0002e0 46 2c 1d bc 4b 24 5e 3d b4 78 ff 3b 64 7b a9 3c
       -0.009593075 0.05423383 0.0077963714 0.02068872
0002f0 91 c7 11 bd 25 78 31 3d 99 85 6a 3d d5 04 80 bd
       -0.035590712 0.04332747 0.057256315 -0.06250922
000300 cf 6e 93 bc 37 5d 22 3d a0 47 62 bd 60 87 34 3d
       -0.017997174 0.039639678 -0.05524409 0.044074416
000310 81 25 cb 3d 89 47 c5 bc 94 ca eb 3c 3c 4a 18 bd
       0.09919263 -0.024081962 0.02878312 -0.03718017
000320 7b 58 30 bd ac a9 c9 bb b4 5e 9a 3d a9 12 cf 3b
       -0.04305313 -0.0061542597 0.075375944 0.006319363
000330 66 8a 03 3e 12 ff 9c 3d 8a 85 d5 3d 23 a1 18 bd
       0.12845764 0.07665838 0.10425861 -0.037263047
000340 65 c4 4f bd 5a a2 b7 bd 25 da 10 3d 61 24 ef 3d
       -0.050724406 -0.08966513 0.03536429 0.116768606
000350 32 57 26 3b 7b 50 2d 3d 94 07 34 3d b5 3c 8d 3d
       0.0025381562 0.04231308 0.04395254 0.068963446
000360 18 22 c6 ba 66 8f 8a 3d f6 07 42 3d ca dd c2 3b
       -0.0015116362 0.06765632 0.047370873 0.0059468495
000370 02 d0 ae bd 20 8f d4 3d ae d0 b4 bd ca 76 10 3e
       -0.08535768 0.103788614 -0.08828865 0.14107814
000380 9b a1 34 bd 65 46 c8 bb b5 5f 70 bc 23 b7 94 3d
       -0.04409943 -0.0061119073 -0.014671256 0.07261493
000390 c1 de b1 bd 63 32 b5 3c 82 55 46 bd 0f 72 ca 3d
       -0.08685065 0.022118753 -0.04842139 0.09885036
0003a0 f8 d0 73 3d bf a4 49 3d 46 27 2f bd 39 4a aa bd
       0.05952546 0.04922938 -0.042762063 -0.08314938
0003b0 7e d7 e1 bc 7b dc 84 bd e1 8c 0f 3d 7b 56 a7 bd
       -0.027568575 -0.06487366 0.035046462 -0.08170792
0003c0 e2 fc bc bc 32 da b3 3c 66 27 9d 3d d2 de 56 bd
       -0.023069803 0.02195463 0.0767353 -0.05245859
0003d0 57 fa 3c bb 68 61 76 3d cf a8 94 3c b4 b3 0f bd
       -0.0028835738 0.060151488 0.0181469 -0.035083488
0003e0 8b 5e cb 3d 9f cd a9 bd 6e 48 a8 bb ad 26 ca 3d
       0.09930142 -0.08291172 -0.0051355874 0.09870658
0003f0 2a 97 39 3d ec c8 89 3d e0 2d 03 be ae 44 9d bd
       0.045310177 0.06727776 -0.12810469 -0.07679115

fc2.weight f4 [10, 512]
000000 c8 14 cb bc 5c 65 69 3d 42 0c c6 3c 26 6b 9f bd
       -0.024790183 0.05698143 0.024175767 -0.07784109
000010 de de ee bc 73 f5 aa 3c 8f 27 e4 3c 87 98 76 be
       -0.029159006 0.020868992 0.027850894 -0.24081622
000020 5c 30 ee 3d 9b 57 91 3d 82 bb 21 bd f8 87 37 3b
       0.116303176 0.070967875 -0.039485462 0.0028004628
000030 5e 43 34 3d 5c a4 96 3c 42 3e c0 3c 5f e2 b6 3d
       0.04400956 0.01838892 0.023467187 0.089298956
000040 70 c2 30 be 8d 12 f9 3d 9d f6 13 3d f8 96 42 3b
       -0.17261672 0.121617414 0.03612386 0.0029692035
000050 01 ee 4b bd bc b9 c7 3d bb 65 b5 bb de 39 a3 be
       -0.049787525 0.09752223 -0.005535809 -0.31880087
000060 e1 53 b3 bd e4 1a 0e 3c 1b 16 a2 be a5 aa 3a 3d
       -0.08756233 0.008673403 -0.3165749 0.045572896
000070 61 3b b5 3c 40 e3 32 3e 94 ff 22 bd 85 eb 27 bd
       0.02212304 0.17469501 -0.03979452 -0.040996093
000080 d5 95 94 bd 8e b3 51 3d 43 e2 1b 3e a3 24 59 bc
       -0.07255141 0.051196627 0.15223031 -0.013253364
000090 c1 16 9f bd f8 05 cf 3c 97 4b 8f bd cb 72 01 be
       -0.07768012 0.0252714 -0.069968395 -0.12641446
0000a0 5d 82 fa bd 92 95 dd 3d 88 ce 48 bd a5 a9 21 3d
       -0.12231896 0.10819544 -0.04902509 0.039468426
0000b0 7c d3 08 3d 6c 5d c8 3d e8 1c c1 3e 64 b7 2d 3d
       0.033404812 0.09783444 0.37717366 0.042411223
0000c0 49 be 74 bd 3b 9a 10 3d 82 aa c2 3d 39 5d a6 3e
       -0.059751783 0.035303336 0.09505178 0.32492998
0000d0 33 2a fb be c0 0c f0 3c 08 6e e1 be 98 66 37 3c
       -0.49055633 0.029302955 -0.4402926 0.011193894
0000e0 41 e3 4e be a8 90 ae 37 fb 92 30 3e d9 4d 48 3f
       -0.20203878 2.0809777e-05 0.17243569 0.78243786
0000f0 16 72 56 be f3 48 dc bc 99 cd 2b 3e 78 f0 b6 3b
       -0.20941958 -0.026890254 0.16777648 0.0055828653
000100 a4 58 5b 3c 8f 6a 93 3c 58 fe 95 3d 49 69 58 bd
       0.013387833 0.017995147 0.07323903 -0.052834783
000110 5c af a1 3d 13 9a e9 bd eb 6a 9c bc a4 f7 02 3d
       0.07894775 -0.114063405 -0.019093951 0.03197445
000120 8d 34 a3 bc 13 8f 98 bc 54 61 fb 3b 90 e1 05 3d
       -0.01992252 -0.01862291 0.0076715145 0.032685816
000130 ff 71 8f 3d bd b1 88 bf 8a 16 c1 3c ed 8a 73 be
       0.07004165 -1.0679241 0.023570318 -0.23783465
000140 42 52 3a 3d 53 c2 f4 38 c1 e4 61 3d c1 b6 0b bd
       0.045488603 0.000116710224 0.055149797 -0.034109835
000150 02 d2 68 3c 82 1b a0 bd 8c 3d 40 bf c0 a1 9d bb
       0.014210226 -0.07817747 -0.75093913 -0.004810542
000160 74 12 26 3d 14 b2 b9 3d b0 b9 97 ba 2f 7d 9c 3e
       0.040544942 0.09067169 -0.0011575725 0.30564258
000170 65 02 80 bc 7c f7 05 3e 50 a6 c6 bc 71 1f c3 3b
       -0.015626142 0.13082689 -0.024249226 0.005954676
000180 86 7f 79 bd dc db 0e bd 8f a8 a6 bd 3f da 0d 3d
       -0.06091263 -0.034877643 -0.08137619 0.034631964
000190 b8 2e 0a bf 11 eb 8c 3d 35 86 65 be 55 89 0a bd
       -0.5397754 0.06880773 -0.22414477 -0.033822376
0001a0 d4 bd 83 3d c4 78 eb bc 93 c6 78 be 4f 1f 50 bb
       0.06432691 -0.028744109 -0.242945 -0.0031756943
0001b0 9f f3 94 bd 47 bb e4 be f8 55 f1 3d 0d 09 65 bb
       -0.072730295 -0.4467413 0.11783975 -0.0034948022
0001c0 bf a2 8a bc 91 b0 0b 3d cb 27 df bc 41 b4 a1 bc
       -0.016923307 0.034103934 -0.027240654 -0.019739272
0001d0 11 bb 12 be 1d 50 52 3e e9 73 2f bf bb c8 04 3d
       -0.14329173 0.20538373 -0.6853624 0.032417994
0001e0 5f f2 24 be 3e 40 56 3e 82 ed be 3d c4 6a 25 bd
       -0.16108082 0.20922944 0.09322645 -0.040385023
0001f0 69 71 8c bd 97 78 71 be f0 a6 a3 3c f3 4f f1 3d
       -0.06857569 -0.23581158 0.019977063 0.11782827
000200 c6 f0 27 3b ad 5d a5 3d 2e c2 1b 3c ce 7d 5d be
       0.002562569 0.08074508 0.009506745 -0.21630022
000210 e9 ad 92 3e 16 18 61 bd 50 5b ad 3d 59 18 b5 3c
       0.28648308 -0.05495461 0.08464682 0.022106336
000220 e8 7d 0a bc f8 ee 01 ba c7 c9 31 bc 2c 1f 9a 3d
       -0.00845287 -0.00049565686 -0.01085133 0.07525477
000230 99 2b bd 3c 91 ec 12 bc b3 56 bb bd 4c 70 ba 3c
       0.023092078 -0.008967535 -0.09147396 0.022758625
000240 fe ed 03 be c8 ed 4a 3c 4a 64 f9 3c 3a dc a7 bd
       -0.12883756 0.012385793 0.03044333 -0.08196302
000250 d7 96 3e bc 9b 59 54 3c 83 14 3e 3e c5 3a 0f 3e
       -0.011632643 0.012960817 0.18562512 0.13987263
000260 13 80 59 bd 70 34 78 3e 50 60 9e be 84 af 51 3d
       -0.053100657 0.24238753 -0.30932856 0.051192775
000270 07 a3 40 3e 91 7b 05 be f4 59 17 bf 93 7c c0 3b
       0.1881219 -0.13035418 -0.5912163 0.0058742254
000280 3b ab 9b 3e 4a a8 b3 3d b1 b6 4b be 7d 7b 17 3d
       0.30404076 0.08772333 -0.1989391 0.036983002
000290 89 17 19 bd f4 84 36 bd 84 8c 43 3c fa f1 de bc
       -0.03737596 -0.044560388 0.011935357 -0.027214993
0002a0 d4 ab 8a bd 77 3f 96 3d 07 20 c2 be 58 ce 5a bd
       -0.06771055 0.07336324 -0.3791506 -0.05341944
0002b0 19 1a 98 3d e1 dd d4 bd f0 f9 68 3d d1 00 a1 3d
       0.07426853 -0.103938825 0.056878984 0.07861484
0002c0 b5 1e c8 bc 35 5f fb 3d 2e 08 b4 be 49 04 aa 3d
       -0.024428705 0.12274019 -0.3516249 0.083015986
0002d0 b4 cf 52 bf 33 74 8d 3d fd d4 da bd db fc e5 bd
       -0.8234818 0.06906929 -0.106851555 -0.11229869
0002e0 56 d8 14 be dc 5e 9d 3d 92 3e 7e bc b3 ce 04 3d
       -0.1453565 0.076841086 -0.015517848 0.032423686
0002f0 79 5a fd 3b b6 9d 30 3d 95 f7 64 be 6b 92 1b 3d
       0.0077317324 0.043119155 -0.2236007 0.037981432
000300 dd 95 0a 3e 1e 6a 29 3d 9f 32 1e 3e e5 61 c8 3d
       0.13533731 0.041360967 0.15448998 0.09784297
000310 4b 7c 3a bd ba e8 dc 3e 66 41 1f 3e 2e c4 76 be
       -0.04552869 0.43146306 0.15552291 -0.24098274
000320 72 5f d8 be 02 e3 7c 3d cb e9 b3 bc b5 ad 63 be
       -0.4226032 0.06173993 -0.021962067 -0.22234233
000330 aa 1c cc 3d 66 d1 9a 3d b6 41 68 3d d1 da 32 bf
       0.09966405 0.07559471 0.05670329 -0.6986514
000340 32 c3 5a 3d 6b a7 02 3f 65 d9 38 be c7 a2 05 be
       0.05340881 0.5103671 -0.1805168 -0.13050376
000350 5c 2e 5f 3e b6 4e 0a 3e 9b cb 15 bd 17 91 18 be
       0.21795028 0.13506588 -0.036571126 -0.14899097
000360 14 cb 9a bd 8d 73 03 bd 7e e6 41 3c 24 2e 18 bd
       -0.07558265 -0.03209262 0.011834739 -0.037153378
000370 03 40 99 3e cb 6d bd 3c c5 f7 89 3e 50 f3 a5 3d
       0.2993165 0.023123642 0.26946846 0.08103049
000380 be 92 47 3d 12 dd 89 bb 1a 0c 8f bd 7d e6 8f 3d
       0.04872393 -0.004207262 -0.0698473 0.07026384
000390 00 04 36 3e 9b 5b 05 bf 10 dc a4 3d ac d9 22 bd
       0.17774963 -0.52092904 0.08049786 -0.03975837
0003a0 b2 72 53 3d 34 de 07 bd b7 ad 19 3e 74 26 83 3d
       0.051623054 -0.033170894 0.15007673 0.06403819
0003b0 36 b5 56 be b5 90 06 3b f9 bb ea bc 80 76 c3 bc
       -0.20967564 0.002053303 -0.028654085 -0.023860216
0003c0 c2 ad 35 3d 06 43 e6 bb 05 c9 a3 bc e2 fe 82 be
       0.04435516 -0.007027033 -0.019993315 -0.25585085
0003d0 8f 7a 94 bd 2a 53 0d 3e 21 61 8d 3d f6 84 8f 3d
       -0.07249939 0.13801256 0.069032915 0.07007782
0003e0 9e e8 1f be fe 8f 2d 3c ef be 52 3d de 40 91 3d
       -0.1561608 0.010593412 0.05145162 0.070924506
0003f0 7e 9a 00 be 92 9f 1c bc 50 da ba 3c 23 2c e6 3c
       -0.12558934 -0.009559529 0.022809178 0.028097218

fc2.bias f4 [10]
000000 da 88 4f bd 7b 05 8c bc a3 4a d7 bb 81 1c 3e 3d
       -0.05066762 -0.017092457 -0.0065701767 0.046413902
000010 c2 04 7e bd 29 83 09 3d 09 32 83 3d 22 6d bd bc
       -0.062016256 0.03357235 0.06406028 -0.023123328
000020 62 d8 f5 3d f1 9b 98 bc
       0.12004162 -0.018629046
